src/final_models/best_model_50.pth (torch, 79244 bytes, 19 tensors)

net.0.weight f4 [128, 50]
00000000: 057f d5bd 5f58 a8bd 9c25 6a3c aca7 3ebd
00000010: 435f 62bc 3b86 843d 3e15 053e 792b 8dbd
00000020: 75f3 80bd 3f8f b539 d60f 34bd 4889 573d
00000030: 5f86 6abd 3c53 f33a 0e0f ccbc 6b11 61bd
00000040: b27e ff3d 3b67 3fbd 89ec 9fbd c916 b73d
00000050: d095 febd f8a2 273c 82c9 bbbd ae8b ebbd
00000060: a8c9 e23d 6f92 12be b439 c4bd 165a 38bd
00000070: f73e 91bd 6299 7cbc 46f8 283d 1cd0 e1bc
00000080: 28c8 96bd 1d7d ee3d 7ff8 ccbb 57a4 4c3d
00000090: aec6 053e e4eb b43d 8ce6 e13d a8d0 1d3e
000000a0: 4694 8ebd aa95 653d 92bb 12bd e92a 2abd
000000b0: f90e b93d e9e0 543d 3102 e5bd 9e84 cbbd
000000c0: da28 343d 2151 fe3d c700 a73d 81e6 10be
000000d0: 113b dcbd 714c a03d 315e 79bd 19a5 d0bc
000000e0: 48fb 103c b16a 64bc 05b7 02be 5127 9f3d
000000f0: ad89 783d f712 093e eca8 19bd 8356 bebc
00000100: 8515 8fbb 5aff abbd 561e 9c3d 2021 dabd
00000110: 26c4 0ebe 4458 17bd f3d2 02be 1f40 c33d
00000120: a58d de3d cb38 71bd 2466 38be c6ce bc3d
00000130: 1208 813d 6a1c 5dbd 42ad c93d b7e3 0a3e
00000140: 8035 b2bb 69d7 0abd 2a7a 22be a051 b9bc
00000150: 4a02 fdbc 18c4 2b3d 7f04 e5bc 4f8a f83c
00000160: 8a64 1abe b3ff b93c b6df a9bd 2fcb 95bc
00000170: 4870 b1bc 3573 efbd 6f98 2dbe d82a 82bd
00000180: f534 04bc 9b72 9bbd b431 113e 2b91 adbd
00000190: f922 cbbd 94a6 2d3e dcf1 0d3d ee0c a5bd
000001a0: 309d ba3d d36a c0bd 0313 843d 824c d6bc
000001b0: eeca 613d 5dd8 88bd 5266 d33d 926f 4ebd
000001c0: 3fdf 553d 2cbf 1f3e de75 dfbc 552f f53c
000001d0: 646d fb3d 0c3a da3b 0507 343d 6699 c53d
000001e0: a41c cebd e089 abbd 5201 283e 4237 85bd
000001f0: 2185 d73c 398a 33be b22d c7bd 53ec 2fbc
00000200: 3a1c cabc 5a17 b0bd f5af 643d 3e9a 333c
00000210: 1435 f2bc 0936 703d 9e59 193c 2085 b9bd
00000220: d92e 1f3e 40c5 153e bb4e 7bbd 5654 2b3d
00000230: 8f32 d63d 7b3f 273e 5033 333e d924 223e
00000240: dbf3 783b 1618 233e f78a 84bd e9ab 90bd
00000250: 3b7d 903d c683 9bbd 589d 213e a679 efbd
00000260: dc35 0e3d 75fb 8cbc ec82 b03d 5113 563d
00000270: fa44 053e 590d 14be ea23 9a3c fbc7 6cbd
00000280: 6f0a a6bd c5ee d53d e9c4 523d 71c0 e13c
00000290: ab9f 563d 4f47 a1bb 1002 abbc a740 a7bb
000002a0: 49e7 21be da5c 99bc ffe3 993a c84d a03c
000002b0: 3129 66bd 4a0a 543d e0d1 1c3e 6461 2a3d
000002c0: 02ad 833a 73c7 4f3d e535 38bd d123 e93d
000002d0: 73a6 fb3d b808 a6bd d84f a6bd 8432 9cbd
000002e0: 3bd9 f93c c49f af3d 2f45 cc3c e9c9 f8bd
000002f0: 0ec5 bc3d 5739 023e 8265 adbc 2e64 a1bc
00000300: 66fb dbbd 3648 94bc beeb 87bd 0467 c53d
00000310: dca6 e63d 494b 31bd 4b90 7fbd 9e2a dabd
00000320: 4642 c43d 3c54 993d 3e8b 96b9 9cfc b03d
00000330: 3854 f3bd 48d4 cfbc 4013 ca3d daa5 143e
00000340: 387f f83c 6534 863d fdae ccbd 0809 593d
00000350: 9e7a 55bd 3149 74bd 4c17 c8bd c216 833d
00000360: 4b56 46be b8d5 8dbb 91d4 b03d 58dd c2bc
00000370: acc6 933d abec 88bd ffcc f93c a284 d6bd
00000380: 5042 293c cec6 d43d 8620 ae3d 39df b03d
00000390: ef9d 89bd 4b50 a1bc db0c de3d 380b a6bd
000003a0: b864 d5bd 891d 2dbd 372e 6e3d ea18 febd
000003b0: 410d b2bd a6b0 ffbd 4618 e8bd e103 f63c
000003c0: 24b6 da3d 203b 68bd be3b 0d3d 0e51 8a3c
000003d0: 5b96 8bbd 588d ad3d 9c10 893d bd79 c43d
000003e0: be16 d6bd f026 f7ba ac06 dbbd 152f b0bd
000003f0: e7e7 97bd 4882 e6bd 43e3 13be 9dfb c8bd
-0.10424618 -0.082199804 0.014291193 -0.046546623 -0.0138166575 0.06470915 0.12996385 -0.068930574
-0.06296436 0.00034629737 -0.043960415 0.052621156 -0.057257053 0.0018564234 -0.024909522 -0.05494825
0.12475337 -0.046729308 -0.078087874 0.08939893 -0.12430918 0.010231726 -0.09169294 -0.11501251
0.11073619 -0.14313672 -0.095813185 -0.045007788 -0.07092088 -0.015417429 0.041252397 -0.027565055
-0.073623955 0.11644957 -0.006255209 0.049961414 0.13064072 0.08834055 0.110303015 0.15411627
-0.06961875 0.056050934 -0.035823412 -0.04154483 0.09036059 0.051972304 -0.111820586 -0.09937404
0.04398427 0.12417818 0.08154445 -0.1415043 -0.107534535 0.0782708 -0.060880844 -0.02546935
0.008848973 -0.013941453 -0.12765129 0.07771171 0.060678173 0.13386141 -0.037514612 -0.023234611
-0.004366579 -0.08398314 0.076229736 -0.10650849 -0.13942012 -0.03694941 -0.12775783 0.095337145
0.1086686 -0.058892053 -0.18007714 0.092191264 0.063003674 -0.053982176 0.098474994 0.13563429
-0.0054385066 -0.033896837 -0.15866914 -0.02262193 -0.03088488 0.041935056 -0.027956245 0.030339388
-0.15077415 0.022704935 -0.082946226 -0.018285362 -0.021659985 -0.11691896 -0.1695268 -0.06355828
-0.008069267 -0.07590219 0.14179116 -0.08474954 -0.0991878 0.16958076 0.034654483 -0.08059107
0.091120124 -0.09395375 0.06448939 -0.026159529 0.05512517 -0.06681893 0.103222504 -0.05039937
0.052214857 0.1560027 -0.027277883 0.029929796 0.12276724 0.0066597518 0.043952007 0.09648399
-0.100640565 -0.08375907 0.16406754 -0.0650468 0.026308598 -0.17533197 -0.097255126 -0.010737496
-0.024671663 -0.08598204 0.05583187 0.010962067 -0.029566325 0.058645282 0.009359745 -0.09058595
0.15545215 0.14626026 -0.06135438 0.041828476 0.10458862 0.1633281 0.17500043 0.15834369
0.0037987146 0.15927157 -0.06471818 -0.07064039 0.07055136 -0.07593493 0.15782678 -0.116931245
0.034719333 -0.017209748 0.08618721 0.052264515 0.13014594 -0.14458217 0.018815953 -0.057807904
-0.08107459 0.10445932 0.05145732 0.027557584 0.052398365 -0.0049218307 -0.020875007 -0.0051041427
-0.15810885 -0.018721033 0.0011740922 0.019568339 -0.056191627 0.051767625 0.15314436 0.041596785
0.0010046067 0.05072732 -0.044973273 0.113837846 0.12287607 -0.08107132 -0.08120698 -0.076268226
0.030499091 0.08575395 0.024935333 -0.12147886 0.09217273 0.12717186 -0.021166567 -0.01970109
-0.1074131 -0.01810084 -0.06636761 0.09638789 0.11262295 -0.04328469 -0.062393468 -0.1065266
0.09582953 0.074867696 -0.00028713973 0.086419314 -0.11881298 -0.025369778 0.09866953 0.14516392
0.0303341 0.06552962 -0.09994314 0.05298713 -0.05211889 -0.059640113 -0.097700685 0.06400825
-0.19368856 -0.004328456 0.08634294 -0.023787186 0.07215628 -0.06685766 0.030493258 -0.104745165
0.010330752 0.103894815 0.08502297 0.08636326 -0.067195766 -0.019691607 0.10842296 -0.081076086
-0.10419601 -0.042264495 0.058149543 -0.12407096 -0.08693934 -0.12484865 -0.11332755 0.030031146
0.10679272 -0.05669701 0.034480803 0.016884353 -0.068157874 0.08474225 0.06692621 0.09593532
-0.104535565 -0.0018856209 -0.10694632 -0.0860273 -0.07417279 -0.11255318 -0.14442162 -0.098136164

net.0.bias f4 [128]
00000000: 8508 123e db82 3aba 1b03 f9bc 8ec2 8a3d
00000010: 5059 d7bd 2324 b8bd 3dc3 f2bc cc04 d5bd
00000020: b4b2 ccbd 00df 9bbd e517 c6bc 89f5 11be
00000030: a5db 30be 5904 3cbd 42ad bebd 11e1 9e3c
00000040: 3940 683c 3acc 3dbe 2379 84bd 6340 063e
00000050: 31bd 8cbd d64d 153d 70ba a9bd e0f0 f73d
00000060: d249 813d 5955 97bc ffd0 043e e73c f5bd
00000070: 2105 9838 fa8a fe3d d8cd 75bd 450a e9bd
00000080: f10e 0e3e c0c6 1abe 0fcd 9b3c 9fb7 b13d
00000090: b95e ad3c 0586 07be f0a2 86bd 1f80 fbbc
000000a0: b484 2a3e a426 b23c 1711 e43d 02f8 0cbe
000000b0: f9fb 9536 ba3f 293d 055a a5bd d77f 9f3d
000000c0: 824e 623d 00b6 3a3d 6e1c 0c3e 302b aebc
000000d0: 1247 59bc 6d0f d8bc 2c01 2dbe c18c a5bb
000000e0: b39d a23d f6f6 a73d ecc8 4cbd 3192 b1bd
000000f0: 1e6e 9a3d 5eba ae3c 5686 853b d38e c73c
00000100: e348 1ebb 3673 b1bd 09e9 093d 18d1 3fbd
00000110: 01c0 f6bd dc8d 74bd aada 2d3d c397 273c
00000120: 6308 8c3c e3ef 8dbd 0d7a e83d 0fc8 c4bc
00000130: 76af 133e aa0f 64bc ff34 c53d 4896 ee3c
00000140: 1ba8 453d 2d71 013e 959f e53d 504e 813d
00000150: 6282 99bd 878b 92bc f227 b63c 8ec9 a33c
00000160: 295e af3c 951e 803d 772d 98bd 45f3 38bd
00000170: 1222 16be f0f7 ea3d f4b7 723d e223 04be
00000180: 0d3f 78bd ebc0 22be 430f 5f3a 18c3 0e3e
00000190: ec5a 2cbe f839 633d 9cb8 f2ba bfbf 2bbd
000001a0: 9b74 1cbd b5cd 53bc 0579 343e f9a0 0c3e
000001b0: 4ad1 1b3d 9926 eb3d c064 043e 476f bf3d
000001c0: 5568 ad3d 449c 493d a870 d83b b8ac cf3d
000001d0: c6f1 b2bb 4f68 1b3e e377 39bd f856 253e
000001e0: df31 043e beb8 1ebd 13a6 f0bd 1ec6 07be
000001f0: 6734 ddbd f906 cd3d fe82 d83b 8b67 b9bd
0.14261062 -0.0007114836 -0.030396989 0.067753896 -0.10515082 -0.089912675 -0.029634112 -0.104013056
-0.099950224 -0.07610893 -0.024181316 -0.1425382 -0.17271288 -0.045902584 -0.0931039 0.01939443
0.014175468 -0.18534938 -0.064684175 0.13110499 -0.06872023 0.036451183 -0.08287513 0.1210649
0.06312908 -0.018473314 0.1297035 -0.11974507 7.24888e-05 0.124288514 -0.06001076 -0.11378912
0.13872887 -0.1511488 0.019018678 0.08677601 0.021163331 -0.13234718 -0.065740466 -0.030700741
0.16652185 0.02174694 0.11136072 -0.13766482 4.4698795e-06 0.04132054 -0.080738105 0.077880554
0.055250652 0.045583725 0.1368272 -0.021260828 -0.013261573 -0.026374543 -0.16894978 -0.0050521796
0.07940235 0.08201401 -0.0499963 -0.08670462 0.075405344 0.021329101 0.004074852 0.024360096
-0.002415233 -0.08664553 0.033669505 -0.046830267 -0.120483406 -0.0597056 0.042444862 0.010229054
0.017093843 -0.069305204 0.11351404 -0.024021177 0.14422402 -0.01391975 0.09629249 0.029124394
0.04825602 0.1264083 0.112120785 0.06313765 -0.07495572 -0.017888797 0.022235844 0.01999357
0.021407204 0.06255833 -0.07430547 -0.045153875 -0.14661434 0.114730716 0.059257463 -0.12904313
-0.060607005 -0.15893905 0.0008509049 0.1394161 -0.16831559 0.055475205 -0.0018518153 -0.04193091
-0.03819714 -0.012927462 0.1762429 0.13733281 0.03804139 0.11481971 0.12929058 0.09347396
0.084671654 0.049221292 0.0066052265 0.10140365 -0.0054609505 0.1517651 -0.04528035 0.16146457
0.1290965 -0.038750403 -0.11750426 -0.1325917 -0.108010106 0.100110956 0.0066074124 -0.090529524

net.2.weight f4 [128]
00000000: be4a 6d3f 6eb9 7f3f 7eeb 753f 3bb0 763f
00000010: 4619 793f 546e 803f c711 793f 7829 5f3f
00000020: 7f06 6f3f 0ca2 6e3f 8056 703f c4fe 773f
00000030: a511 653f 0622 783f b51d 753f 1d4f 753f
00000040: b64e 803f 7f3d 6b3f 7f07 6d3f b55a 793f
00000050: 27e5 813f d0b1 6d3f 450c 713f 8f95 713f
00000060: da38 723f 44a6 7e3f 770d 843f ade2 6a3f
00000070: 406c 763f 509e 7a3f 9b09 6b3f 36b8 803f
00000080: 1d2b 763f 61ce 743f 3803 793f 5c07 763f
00000090: ab9c 693f ab6d 7a3f 0a93 763f 6222 713f
000000a0: 5d0e 783f 39b6 7c3f 34b6 743f 1f68 723f
000000b0: 65f3 763f e116 773f 0128 723f f040 703f
000000c0: c460 7e3f eba8 663f 0d71 6a3f df38 713f
000000d0: c3a8 703f 31c2 773f bab2 7c3f 445b 723f
000000e0: 2139 703f 5cdc 6b3f d124 673f 2808 6f3f
000000f0: 888c 803f e052 783f c289 6e3f 9e67 753f
00000100: a141 6f3f b493 643f 464d 723f 9883 743f
00000110: fc8d 7e3f f56b 6f3f 2bf2 743f 693f 3e3f
00000120: 41ff 763f 8899 7a3f b9e6 823f f6d6 683f
00000130: 15dd 7a3f 0c43 693f b648 813f 931f 7c3f
00000140: 7e1b 6a3f da5d 773f d9a9 663f 5304 673f
00000150: 2077 7a3f c306 6a3f a84d 7f3f 68ad 713f
00000160: eddc 7d3f 5d7a 813f db59 803f c64c 733f
00000170: f865 773f b01c 7e3f 4651 743f 95b5 7e3f
00000180: 690a 643f f296 6f3f 8180 713f aa12 763f
00000190: 5c6d 713f ca95 803f ac02 7f3f c83e 833f
000001a0: 2e58 753f 0e71 713f d588 6b3f 8290 623f
000001b0: a330 7a3f 3bf5 743f 3e5c 743f b36e 753f
000001c0: 81f9 783f d6fb 803f 2922 6f3f f572 793f
000001d0: b85a 603f 7e46 7a3f 7520 7f3f fb62 643f
000001e0: 0453 6f3f 81f8 703f 21ca 733f 7dd5 673f
000001f0: aa42 783f 24f4 6f3f 5578 763f e6d6 6d3f
0.9269217 0.9989232 0.9606246 0.96362656 0.9730419 1.003367 0.9729275 0.8717265
0.9336929 0.93216014 0.9388199 0.96873116 0.8948005 0.96926916 0.95748454 0.9582384
1.0024021 0.9189071 0.92589563 0.9740403 1.0148057 0.92849445 0.94159347 0.94368833
0.94618 0.9947245 1.0316609 0.9175213 0.96258926 0.97897816 0.9181153 1.0056217
0.96159536 0.9562741 0.97270536 0.9610498 0.9125468 0.9782359 0.96318114 0.9419309
0.96896917 0.9871555 0.9559052 0.94690126 0.9646514 0.96519285 0.9459229 0.93849087
0.993664 0.901015 0.9157875 0.94227403 0.9400751 0.9678069 0.98710215 0.9467051
0.9383717 0.92133117 0.9029055 0.9337182 1.0042887 0.9700146 0.9317895 0.9586123
0.93459517 0.8928788 0.9464916 0.95513296 0.994354 0.93524104 0.9568202 0.74315506
0.96483237 0.9789052 1.0226661 0.90953004 0.97993594 0.9111793 1.0100315 0.9848568
0.914482 0.9662758 0.90102917 0.90240973 0.9783802 0.9141657 0.9972787 0.9440522
0.9916523 1.0115467 1.0027422 0.9503902 0.96639967 0.99262524 0.95436513 0.9949582
0.89078385 0.935897 0.94336706 0.9612223 0.94307494 1.0045712 0.9961345 1.0253534
0.95837677 0.9431313 0.92005664 0.8850175 0.97730464 0.9568669 0.9545325 0.9587204
0.9725571 1.0076854 0.934115 0.97441036 0.87638426 0.9776381 0.996589 0.8921353
0.93486047 0.94129187 0.952303 0.9056013 0.9697672 0.93731904 0.9627736 0.92906034

net.2.bias f4 [128]
00000000: 3bb8 693c da89 57bd cd43 573c 5ab2 c0bc
00000010: eda7 79bd 88de a9bb 30de 53bd 1daf 39bd
00000020: bcf5 593d 2e50 a2bc b777 04bd fad5 6e3c
00000030: cb83 0e3c be50 f1bc 5946 27bd 0381 ea3c
00000040: 3073 83bb c108 afbc dd51 abbc e1ad a8bc
00000050: 933c 733d 38c2 8a3d 135f 51bc 7afa fdbb
00000060: b83b 3e3d aeb6 383d b89b 973c ad8f 80bd
00000070: ff48 7eba 89a0 c1bc 6567 2abc 9905 3cbb
00000080: a81d e03b be22 733c 0d0f 943c e5a7 a8bc
00000090: 5c5e b03c 9ffe 423c df95 89bc a942 223b
000000a0: 2c4c 273d c12a 8c3d 2522 03bd de97 fc3c
000000b0: 9f24 8bbd a4bc af3c b4ac 533c 3614 64bd
000000c0: c8cb c23c 9038 debb 980b 60bc d961 313c
000000d0: 0ac1 af3c c925 d1bb f6a4 19bc 34a8 e3bb
000000e0: fd27 ccbb 57aa bebc 38a4 64bc 48f7 4a3c
000000f0: bc59 d83c 9c6a 143d c8f1 8a3d a205 6fbb
00000100: dfaa b7bc acb0 2ebc 0fff 343d 1623 8fbc
00000110: 0b55 05bd 1e33 f13c 316d 593d 08e9 a9bc
00000120: bd25 573d a8d1 33bd 62fc d83c 18c8 523c
00000130: eab3 2abc 1e45 08bc 7e33 73bd 9492 383c
00000140: af69 4ebc 8c22 acbc 01c9 18bd 4818 5fba
00000150: db51 e93a 2418 e63c 6b13 1f3d 146d efbc
00000160: d3ff 5cbc 47c7 263d 309e 023d 259f 3f3d
00000170: c915 c53b b3a7 d8bc 12f5 3ebb 7a41 613d
00000180: 81d2 203c 5a68 803c c3b7 0b3d 95ba 2cbc
00000190: 316d 543d c1b6 2a3b e3ee 37bd 6e0a b63c
000001a0: a2e3 573d c1c1 3c3c 0085 a53b 0644 eabc
000001b0: dbcd b73b 772e e4bb d747 6abd 2705 82bc
000001c0: 50e9 d6bb a74d 72ba a973 ca3c 2cf4 c4bc
000001d0: c608 9bbd b922 71bd 5b35 203c 1e1b ccbc
000001e0: d5f3 61bb 0077 143c 54b8 0dbb 805b c0bb
000001f0: eb5e 2fbc 50fb babc cf81 8a3c 0905 05bc
0.014265115 -0.0526217 0.013138724 -0.023522545 -0.060951162 -0.0051839985 -0.051725566 -0.045333017
0.053212866 -0.019813623 -0.03234073 0.014577383 0.008698414 -0.029457446 -0.040838573 0.02862597
-0.004011534 -0.021366479 -0.020913059 -0.020590724 0.05938394 0.067753255 -0.012779015 -0.0077508064
0.04644367 0.045096092 0.01850687 -0.06277404 -0.00097002083 -0.02363612 -0.010400628 -0.002868986
0.006839473 0.014839826 0.018073583 -0.02058787 0.021529369 0.011901527 -0.016795097 0.002475897
0.040844128 0.06844092 -0.032014985 0.030834135 -0.06794094 0.021452256 0.012919594 -0.055683337
0.023778811 -0.006781645 -0.013674639 0.010826551 0.021454353 -0.006382678 -0.009377709 -0.0069475416
-0.006230353 -0.023274584 -0.013955168 0.012388058 0.026409976 0.036234483 0.06784397 -0.0036471863
-0.022420345 -0.010662239 0.044188555 -0.017472785 -0.032551806 0.02944332 0.05308265 -0.020741
0.052526224 -0.043901116 0.026487533 0.012865089 -0.010418871 -0.00831726 -0.05937528 0.011265416
-0.012598439 -0.021012567 -0.037301067 -0.0008510393 0.0017800884 0.028087683 0.038836878 -0.029226817
-0.013488728 0.04071739 0.03188914 0.04678263 0.00601456 -0.026447153 -0.0029137773 0.054994084
0.009815813 0.015674759 0.034110796 -0.0105425315 0.051861946 0.0026048871 -0.044905555 0.02222177
0.052707322 0.011520804 0.005051255 -0.02859689 0.0056092567 -0.006963547 -0.057197418 -0.015871597
-0.0065585747 -0.00092431385 0.024713354 -0.024042211 -0.07570033 -0.058871005 0.009778346 -0.024915274
-0.003447761 0.009061575 -0.002162476 -0.0058702826 -0.010703783 -0.022824913 0.0169076 -0.008118876

net.2.running_mean f4 [128]
00000000: 156e cf3c ad8b ba3d 212c 913d 6017 093f
00000010: 31cb 6b3d a6a9 123d 0ec2 8f3e 0b11 533c
00000020: 15c4 1138 51e7 293f 8452 063f 11de ab3c
00000030: 14ef c438 bb7a 2c3e 9e14 913d 9ad2 053f
00000040: 9710 053e ec1a 3c39 07ae ed3e af3e e33c
00000050: e661 2e3f e466 0e3f 6b61 483c 4f1f f33e
00000060: ecab 123e 314b f33e 6b47 863e b04c eb37
00000070: 1758 483e db95 243e 86a5 223e d17f d13d
00000080: 9af5 433f 4ffb b639 0e5c 163e 06f2 683d
00000090: 1857 3d3f b650 0c3c 6894 3c3f 591b 903e
000000a0: 9841 2b3f 2546 3c3e ba9f 183c 44ef 370d
000000b0: 67b4 073f 8505 103f 596e 5d39 ec1f c83e
000000c0: bfba bc3e 1b5e a93d 4c88 2d3d 79fb 8e3e
000000d0: e066 383e 5d67 9f3e a56f 3426 c96b e23e
000000e0: 7b74 1a3f 8558 db3b 2c00 cc3c 2453 013d
000000f0: 11f0 6c3e a786 7c3d 2fa0 363e 1080 643d
00000100: adf5 413e 0f1c 2139 4a7a 0e3f 675c 9e2a
00000110: f89e 623e 5a7b 543d 39fb c531 a000 0000
00000120: b4c3 273f 2f7d 8a3d c9bf 223f 8205 813c
00000130: ff06 fe3e 4a9b 6f3a a77c 123f 92ee 613d
00000140: 80eb 143e f426 563d d19c ce3d ecc3 cc3c
00000150: b9f0 a63d 7331 333a a1b3 c13e 10c2 9e3d
00000160: 3a41 843f 4714 163d be38 b13d 0d2f e93c
00000170: 0b4b ce3c 42c2 253f 50f2 863e 91f8 283f
00000180: 0797 8d3e 22b6 8039 ddac 103d d51c e63e
00000190: 570a 9a3c 70ee e73d 6091 933e b2a5 823c
000001a0: 45cd 703d 9692 483f f18f ef3e 232a 4c3f
000001b0: b7b3 643d 8edc 6a39 2a2f 003f 1041 433d
000001c0: 989a 9a3e 1524 7d3e 0ce0 973a 205d a93e
000001d0: e94f 2f3a 43d3 413f 7d88 453e 219f 8e3d
000001e0: a3f4 8a3c 3d6c 3d3e 3fc4 b13e f1b6 303f
000001f0: 57f2 7d3e 5136 923d c60e d43e b5e5 e33e
0.025321046 0.09108672 0.07088495 0.5355129 0.057566825 0.03580632 0.2807774 0.012882481
3.475331e-05 0.66368586 0.5246966 0.020979913 9.39054e-05 0.16843693 0.070840105 0.5227448
0.1299461 0.00017939106 0.46421835 0.02773985 0.6811813 0.5562575 0.0122302575 0.47484824
0.14323395 0.47518304 0.26226363 2.8049893e-05 0.19564854 0.1607279 0.15883455 0.10229457
0.76546633 0.00034900985 0.14683554 0.056871437 0.7396102 0.008564165 0.7366395 0.28145865
0.66896963 0.18386133 0.0093154255 5.6679234e-31 0.5300965 0.5625842 0.0002111731 0.39086854
0.36861226 0.08269902 0.04236631 0.27926233 0.18007994 0.31133547 6.260135e-16 0.4422286
0.60333985 0.006693902 0.024902426 0.03157343 0.23138453 0.061651852 0.17834543 0.055786192
0.18941374 0.00015364609 0.5565535 2.8130555e-13 0.22130954 0.05187545 5.7620153e-09 2.24e-43
0.65532994 0.06762158 0.6357389 0.015749697 0.49614713 0.00091402663 0.57221454 0.05515916
0.14542961 0.052283242 0.10088504 0.024995767 0.08151383 0.00068356766 0.37832358 0.07751858
1.0332406 0.03664043 0.08653401 0.028464818 0.025182268 0.6474954 0.26356745 0.6600428
0.27654287 0.00024549762 0.035321105 0.44943872 0.018803759 0.11324775 0.2882185 0.01594815
0.05878951 0.7834867 0.46789506 0.79751796 0.055835452 0.00022398142 0.50071967 0.04766947
0.3019607 0.24720795 0.0011587157 0.3307886 0.0006687628 0.75712985 0.19290347 0.06963945
0.016962355 0.18498321 0.34720036 0.69029146 0.24799477 0.07139266 0.4141752 0.4451119

net.2.running_var f4 [128]
00000000: 2d5c a13b ba80 0b3d 0cdc c63c f56d 6c3e
00000010: 7dfe 4f3c bf8d 993c 9869 a83d e47d e63c
00000020: ce13 3e36 5ebe 553e 7260 823d dde8 a53b
00000030: ff37 0b39 1b65 443d 083b c93c 4770 ea3d
00000040: aca2 4b3d 6ee3 d337 22f4 0e3e 15ef ae3b
00000050: 8ea6 203e 1be8 443e dd1e 133b 788b 9a3d
00000060: a466 123d c3ab 0b3e 4d09 703d 7dbf 4637
00000070: 5016 7b3d a24b 163d 7003 9a3d 1e7d e63c
00000080: 029c 2d3e c961 f03a a98f 423d 2c66 b53c
00000090: bca6 bf3e a27e 343b dc82 043e 8bc9 c53d
000000a0: 7a57 173e a221 573d 59fb 093b 8c05 350b
000000b0: f024 343e 98cf a73d 2f02 303a b49e ce3d
000000c0: d8e9 a63d 006b c93c fb5e 333c 4bbd 713d
000000d0: 6a14 4a3d 95fc d83d ff70 1a24 3f0c e23d
000000e0: 2110 ff3d fde7 ac3a c6f3 a03b 01f6 513c
000000f0: 43b7 9d3d 7134 c53c 6d5d 3e3d 9905 c23c
00000100: 564f 643d cbaa 9837 f457 be3d c504 2428
00000110: acbc b03d 3e8b 9a3c 6255 9c2f 0400 0000
00000120: 158b 203e d2ed 503c 5937 ae3d 7e39 553b
00000130: 7dee 053e 5501 0339 a1ce cd3d 3782 6c3c
00000140: 4eb2 163d aa1f 603c fb00 153d ffc2 b13b
00000150: ffa3 b93c eb24 a638 6edd fa3d 2867 a03c
00000160: 8697 e13e e07d 013c 238a 633d 757a fb3b
00000170: 4788 0e3c 70b9 313e 04d9 603d 8688 2b3e
00000180: ea67 633d 1286 443a 6a5e bd3c 0c1b 023e
00000190: 5b04 a53b 0ff8 393d 039e ae3d c0cd 173c
000001a0: 19b3 843c 042a 503e a06a ac3d 7698 233e
000001b0: 53e7 3f3c d866 4c38 8977 dc3d c3a7 453c
000001c0: 3310 a73d 4c50 9c3d 6635 1c3c e320 913d
000001d0: 7cc5 a83b eaac 273e 4654 3b3d e096 ba3c
000001e0: 8b61 5c3b 04c7 3f3d f418 843e bafa 673e
000001f0: e15a c73d 2897 8f3c 7b44 8f3d 0f13 dd3d
0.0049243183 0.03405831 0.024274848 0.2308882 0.012694952 0.018744348 0.082232654 0.028136201
2.8323734e-06 0.208734 0.06366052 0.00506316 0.00013276933 0.047947984 0.024564281 0.114471965
0.049715683 2.5259065e-05 0.13960317 0.0053385594 0.15688536 0.19229166 0.0022448816 0.07546133
0.035742417 0.1363974 0.05860262 1.1846304e-05 0.061300576 0.036693223 0.07520187 0.028135832
0.16954044 0.0018339689 0.047500286 0.022143446 0.37431896 0.00275413 0.12940544 0.09657582
0.14779463 0.05252231 0.0021054356 3.4863505e-32 0.17592216 0.08193892 0.00067141926 0.10088864
0.08150071 0.024587154 0.010947938 0.059018414 0.049335875 0.10595051 3.3489138e-17 0.11037492
0.12454248 0.0013191696 0.0049118726 0.012815 0.0770097 0.024072858 0.046475817 0.02368431
0.055739723 1.8199344e-05 0.092941195 9.104863e-15 0.08629736 0.018865224 2.8436903e-10 6e-45
0.15678056 0.012752013 0.085066505 0.0032535489 0.13079257 0.0001249363 0.10049177 0.0144353425
0.03679114 0.013679424 0.03637789 0.0054248567 0.022661207 7.922373e-05 0.122492656 0.019580439
0.44060916 0.007903546 0.05555166 0.00767451 0.008699483 0.17355895 0.054894462 0.16751298
0.055519022 0.00074967847 0.02311631 0.1270563 0.0050359196 0.045402583 0.08526232 0.009265363
0.016198682 0.20328528 0.084187746 0.15976128 0.011712867 4.873317e-05 0.10764987 0.012063923
0.08157387 0.07632503 0.009534216 0.07086351 0.005150495 0.16374555 0.045734666 0.02277702
0.0033627476 0.046820655 0.25800288 0.22654238 0.09734131 0.017528132 0.069954835 0.10794651

net.4.weight f4 [64, 128]
00000000: 7731 123a 16df 37bd 18c7 543c 38dc 493d
00000010: c8df 393d 90db 133d 4071 a63c c0ee bc3d
00000020: 8511 0cbd 6526 663d 3d7d 0e3b 123a b43d
00000030: 09f4 6ebd f3c1 9f3d 9304 fa3b ad58 c7bc
00000040: 8670 063c d1c5 48bd 37b5 78bd 9dce 093c
00000050: 1d11 c9bd 0e52 c13c dca9 a23c b449 a6bd
00000060: 66b2 fd3d 575d 873d 844b 263d e247 77bd
00000070: f4b9 e3bb 9fc6 04be 160e 57bc 9211 873d
00000080: 2e4f 893d e43a 8e3d d6cb 0e3e 35e9 3abd
00000090: 9a97 0cbd 893c 97bd 6c64 9d3d 82d8 a4bc
000000a0: 9d61 abbd aa77 b43d 74fe 3bbb dbbe 473d
000000b0: 4d5f 3cbd 6655 9c3d fd82 233d 5cfe 38bd
000000c0: c468 cd3d f21f 1ebd f15b 1f3c 508c a73d
000000d0: eae2 c43d 13cd b1bd ea5f a13c 5ebd 8fbc
000000e0: a69f 6abc 915a cfbc f487 3a3d 001c b33c
000000f0: 631b ef3d d874 4ebd 7e0f d23c 04a8 633d
00000100: fbc5 e2bd a70d ea37 3acc 933c 348d a03c
00000110: 5c02 5d3d 9f83 35bd 0639 413d 9e43 c13b
00000120: 6a01 31b9 430c e0bd 70aa c73d bbef 0f3d
00000130: 301b ea3c 08e8 1c3d ae5d 8ebc 9689 4b3c
00000140: af80 3cbd 85a5 60bd bfa8 ccba 48ae f43c
00000150: 3c35 923c fdc4 98bc 140a 3e3c 8e8b a1bd
00000160: d090 8d3c 9d75 bfbd b95d 7c3d c4e1 1d3d
00000170: 11a7 9ab9 278a 0d3d 3b8d babd 336c c33d
00000180: d72b 23bd 6716 d43b fb64 a73d 48ae dabc
00000190: 9273 253c 5eb1 d1bc ee39 913d 6a57 f03b
000001a0: a846 543d 17c9 003c d825 debd daac 85bd
000001b0: b218 a4bc d645 17bd 34f3 43bd 33ad 463d
000001c0: 5994 cabb 15a5 8e3d fece fcbc 9bd4 113d
000001d0: aa66 873d adf0 89bc 92e6 02bd 4592 d5bc
000001e0: 4c6c 68bd 4e4f 8f3d 5a3c b13d 6659 97bc
000001f0: bb20 af3d d2b2 733d 1b9c cbbd 5c50 eebc
00000200: 2c1a 37bc cf74 11be 06e6 a73d fab0 04bd
00000210: 6ef5 b13d f0f8 d13d 4906 dfbc d477 afbb
00000220: 44e5 03bb d75e c3bc 2976 623d cb21 8cbb
00000230: c87d 1ebc 37ae 88bb 6a6d 61bb df5d aebb
00000240: 0e45 00bd 9900 8cbd 7b2d e33b 0bec a7ba
00000250: 1d71 a03c e786 a43d 627a afbc ebf5 e53b
00000260: 980d 9b3c 9cff 293d ae8c c4bd c8ef f9bb
00000270: b8ca 09bd 1ae2 b8bd 95a2 3b3d 4f67 883d
00000280: 3927 debd 6737 a3bd 6830 e63d 1d3c d5bc
00000290: 52a2 c7bb 9043 0a3d b62f c5bc cae8 f7bc
000002a0: df26 8d3d 1b38 163e 322a 9e3c 4d5d 733d
000002b0: 97b6 4bbc ac81 9d3d 1e2b a9bd 54e9 ddbd
000002c0: 73f5 243d c5c4 4bbd ba3d 17bd 6f10 073d
000002d0: 745e 043d 7d6e 47bd 6352 103d 8e86 e43c
000002e0: a56a 02bd 3598 6cbd 73b2 813d 3ab8 ee3c
000002f0: 209d fb3d 39bd 753d 315e d13c cedf 39bd
00000300: 8538 453d de75 203d 0492 e23d 55c8 353d
00000310: b492 773c 3bb8 983d 16bc 6c3d 4c4c a03d
00000320: 25c9 adbd 88e5 153d e978 eb3b 649f c73c
00000330: 72a3 da3b dd13 dc3c 76be a1bd df70 443d
00000340: f6df f03c e689 853d 908d 863d d0f7 6ebd
00000350: 59ef 663d 9dcb 4c3d a997 81bd 6136 a9bd
00000360: b370 c2bd 7b11 ba3c 6be6 20bc e0b5 bc3d
00000370: b1f1 b2b9 aa06 ebbc 209d 2cbd b6c8 83bd
00000380: 6f6c a03d 81b9 833c b3d1 49bd fc1b 88bd
00000390: d45c 293d 1aa8 7d3c 0a2a 473d 7d9a 4dbc
000003a0: e7d2 433d f2fc 9ebd 2d00 ed3c 1ad3 033d
000003b0: 351c 903d 10dc 8f3b bd7a 6bbd b7c6 6f3d
000003c0: 1276 643d fec1 d2bc c54a 35bd f5c8 bfbc
000003d0: deba 09bd 6389 b1bd e655 15bd 4ece 873d
000003e0: 537b 373c d72a b23a 2306 9fbd ca93 5c3d
000003f0: aba4 71bd 6514 d73d e6bc ee3c 060b 2a3d
0.0005576829 -0.044890486 0.012986921 0.049282283 0.04537943 0.036098063 0.020317674 0.092252254
-0.034196395 0.05618896 0.0021742128 0.088001385 -0.0583382 0.07800665 0.00762994 -0.024334276
0.008205539 -0.049016777 -0.060719695 0.008411077 -0.09817717 0.023598697 0.019856386 -0.081195265
0.123875424 0.066096 0.04059936 -0.060371287 -0.0069496576 -0.12966393 -0.013125917 0.06595148
0.067045555 0.06944826 0.13944945 -0.04563256 -0.034324266 -0.07384593 0.076851696 -0.02012277
-0.08368228 0.088118866 -0.0028685601 0.048766 -0.045989323 0.07633476 0.039919842 -0.04516445
0.10029748 -0.038604684 0.00972651 0.08181059 0.09613593 -0.08681693 0.019699056 -0.017546352
-0.01432029 -0.02531174 0.04553981 0.021863937 0.116751455 -0.0504044 0.025642153 0.055580154
-0.11072918 2.7901331e-05 0.018041719 0.01959858 0.05395733 -0.044314977 0.047173522 0.005897953
-0.00016880562 -0.10939839 0.09749305 0.035140734 0.028577417 0.03830722 -0.017378654 0.01242294
-0.04602116 -0.05484535 -0.0015614255 0.02986826 0.01784765 -0.018648619 0.0115990825 -0.07887946
0.017280966 -0.09348605 0.06161282 0.038545385 -0.00029497643 0.03455558 -0.09108969 0.09542122
-0.03983673 0.006472397 0.08173557 -0.026694432 0.010098355 -0.02559727 0.07091127 0.0073346393
0.051825196 0.007860444 -0.10847062 -0.065271094 -0.020031307 -0.036931835 -0.04783936 0.04850502
-0.006182235 0.06965081 -0.03086042 0.035603147 0.066113785 -0.016838396 -0.03195817 -0.026070723
-0.056743905 0.06997548 0.08654089 -0.018475246 0.08551165 0.05949671 -0.09941884 -0.029091053
-0.011175673 -0.14204715 0.0819817 -0.03239534 0.0868939 0.10252559 -0.027224677 -0.005354861
-0.0020125667 -0.023848934 0.055288468 -0.0042764894 -0.009673543 -0.0041711587 -0.0034397491 -0.005321249
-0.031315856 -0.068360515 0.006932912 -0.0012811435 0.019585187 0.08033543 -0.021420661 0.007017841
0.01892738 0.041503534 -0.09597145 -0.007627461 -0.033640593 -0.090275005 0.045809347 0.066603296
-0.10847325 -0.079695515 0.112397015 -0.02602964 -0.006092348 0.03375584 -0.024070602 -0.03026237
0.0689218 0.1466984 0.01930723 0.05941515 -0.0124336695 0.076907486 -0.08260177 -0.108355194
0.04027314 -0.0497482 -0.0369241 0.032974657 0.03231664 -0.048689354 0.03523482 0.027896192
-0.031839985 -0.057762343 0.063328646 0.02914058 0.122858286 0.05999491 0.02555761 -0.045379452
0.048149604 0.039174907 0.110630065 0.044380505 0.01511066 0.07457014 0.05779656 0.078270525
-0.08485631 0.03659585 0.0071860445 0.024367996 0.006672316 0.02686494 -0.07897656 0.047959205
0.029403668 0.06520443 0.0656997 -0.0583418 0.056380603 0.04999887 -0.06327755 -0.08262325
-0.09494152 0.022713413 -0.009820561 0.092143774 -0.0003413088 -0.028689701 -0.042142034 -0.06434767
0.07833182 0.016079666 -0.04927225 -0.066459626 0.041348293 0.015481973 0.048624076 -0.01254904
0.047808554 -0.07763089 0.028930748 0.032183744 0.0703663 0.004390247 -0.0574901 0.05853912
0.055776663 -0.025727268 -0.04426076 -0.023411253 -0.033625476 -0.086687826 -0.036458872 0.06631146
0.011198836 0.001359309 -0.07764842 0.05385188 -0.05899493 0.10501937 0.029142808 0.04151442

net.4.bias f4 [64]
00000000: e402 563d ec33 313d 02cd 5aba ede1 a23d
00000010: 755b 363d aac6 3cbd edf1 39bd 5bb6 723d
00000020: 6b2c 533d c802 2a3c 382e 7c3c a30e 2abd
00000030: ad28 bb3d 20b5 523a 4aa6 a73d 2df7 d2bd
00000040: 01ce d93c a9a4 9f3b c175 673d aa09 7d3d
00000050: 5612 ddba 2104 063c 763d 15bc 8115 773d
00000060: d914 41bd ddec 83bd 06ce b8bb e49b 2fbd
00000070: 7461 61bd e2f8 4ebd f537 043d d82a e63c
00000080: 3263 c23c 279f e1bd ab1d 563d 77c1 f23d
00000090: 3ecd a23d 3c5f bcbd da5f 86bd 2792 3a3c
000000a0: 033a e33d 769c d33c e1c0 1dba 878d 45bb
000000b0: 1081 e23d 59ef d23a 110f bf3d 8e0d 173c
000000c0: ee65 303d 920e 8cbc 0c39 51bb c409 a9bc
000000d0: ca70 90bd 1b87 16bd 22e8 a73c 5740 213d
000000e0: fc23 b63d a2c3 4d3d 264a 4dbd 7eed 68bd
000000f0: 6118 bebd 751d 443d 0e4e 0f3d f245 1abd
0.05224885 0.043262407 -0.00083465886 0.07953248 0.044520814 -0.0460879 -0.045396734 0.05925594
0.051556032 0.01037664 0.015391879 -0.041517865 0.09138618 0.0008037854 0.08186014 -0.10301051
0.026587488 0.004871924 0.056508783 0.061776794 -0.0016866426 0.008179695 -0.009108892 0.060323242
-0.047139022 -0.064416625 -0.0056397943 -0.04287328 -0.05502458 -0.050530322 0.032279927 0.028096601
0.02372894 -0.11016684 0.052274387 0.11853307 0.07949303 -0.09197852 -0.06561251 0.0113873845
0.11095049 0.025831442 -0.0006017816 -0.0030144171 0.11059773 0.001609306 0.093290456 0.00921954
0.043065958 -0.017096791 -0.0031924872 -0.02063454 -0.07052763 -0.03674994 0.020496432 0.039368
0.08893582 0.050235398 -0.05011954 -0.056867115 -0.09281994 0.047879655 0.034986548 -0.03766436

net.6.weight f4 [64]
00000000: a5cd 733f 52f5 803f ed78 893f 4855 673f
00000010: 5f08 7b3f 34ea 893f eadc 793f 0c76 6f3f
00000020: 32bd 773f 9c1c 773f ac9f 783f 5c1a 733f
00000030: dd3f 663f 4952 833f 775a 6f3f ff5b 6c3f
00000040: fff9 6d3f aeee 733f 36d9 7e3f cf74 7d3f
00000050: e12a 763f 3900 743f b44b 813f cee9 5b3f
00000060: 558f 763f 9c3e 803f 42a9 753f 7842 6e3f
00000070: 1ed2 823f 4b10 6f3f b5cc 833f f9f5 783f
00000080: 5aac 723f 61dc 7e3f eade 883f 1d6a 703f
00000090: 2e3b 853f c7e7 723f 82e6 7b3f f4c8 7c3f
000000a0: 8176 743f 4d5e 733f 4716 693f 2f37 753f
000000b0: 44c4 6e3f 0ae6 7b3f eaeb 713f 72ca 733f
000000c0: 9986 753f 6d2e 7f3f bb49 683f 6e65 743f
000000d0: 0623 803f 7435 673f db6f 7d3f b027 5d3f
000000e0: 4d06 6e3f 37be 7d3f d8cc 713f d357 773f
000000f0: 3acc 793f d9d6 7b3f 8f97 6e3f 3a28 733f
0.95235664 1.0074866 1.0740029 0.90364504 0.9805965 1.0774598 0.97602713 0.935395
0.96773064 0.9652803 0.9711864 0.94962096 0.899412 1.0259486 0.93497413 0.92327875
0.9295959 0.9528607 0.9955019 0.9900636 0.9615918 0.9531284 1.0101228 0.8590363
0.9631246 1.0019107 0.9596139 0.93070173 1.0220373 0.93384236 1.0296847 0.97250324
0.9479424 0.9955502 1.0693028 0.93911916 1.0408685 0.94884914 0.983986 0.9874413
0.9549332 0.95065767 0.9104962 0.9578733 0.9326823 0.98397887 0.945006 0.9523078
0.95908505 0.99680215 0.90737504 0.9546727 1.0010688 0.9031594 0.989988 0.86388683
0.92978364 0.9911837 0.9445319 0.96618384 0.9757725 0.98374707 0.9320001 0.94983256

net.6.bias f4 [64]
00000000: 592e 213d 2264 5c3d c6fb 0c3d 5560 e7bc
00000010: a8cd 863d 28aa dd3d bede a3bc 6d14 883c
00000020: 64c1 1e3e 692a b93d b92d 15bd 6d96 2c3d
00000030: f5b5 e0bb fd3f 473d 80bc f5bc 493f bebb
00000040: 2c22 cebc 9882 8d3d e71f 213d 924d c43d
00000050: 36fd 133c 081c fa3b fad1 553d d772 8c3d
00000060: 3169 a73d 94df 9d3b 33c4 ba3d 23f6 8c3d
00000070: e778 2fbd 1f5b aabc 6096 983c 6b88 663c
00000080: e117 543d cd40 a13d e9a5 f53c 447d cfbd
00000090: b264 e0bc 5631 17bd 7790 1c3d 9415 923d
000000a0: 0199 b73d 85c7 b73d 411e 8bbc f4c3 f33c
000000b0: d085 783d bd1f 3cbc 0caa 183d 8f26 e43d
000000c0: e2b7 15bc f22e 07bc fb90 3b3d b691 bf3d
000000d0: bc91 673c a73f cabc f414 3b3c 2291 2d3c
000000e0: e3c9 1ebc b455 c3bd fec3 83bd 9e87 14bd
000000f0: ae4b 36bb a582 3e3d c694 b9bd 124b 613d
0.03935084 0.05380643 0.034419797 -0.028244177 0.065821946 0.1082347 -0.020003673 0.016611302
0.1550346 0.09041292 -0.036420558 0.042135645 -0.0068576285 0.04864501 -0.02999711 -0.005805884
-0.025162779 0.069096744 0.039337065 0.09585108 0.009032538 0.007632736 0.052202202 0.068578415
0.081743605 0.0048179124 0.09119453 0.06882884 -0.04283991 -0.020795403 0.018626392 0.0140706105
0.051780585 0.07873688 0.029986339 -0.101313144 -0.027391765 -0.036912285 0.03822371 0.07133022
0.0896473 0.08973602 -0.0169822 0.029756524 0.06067449 -0.011482176 0.037271544 0.11140167
-0.009138079 -0.008250939 0.04579256 0.09353964 0.014133867 -0.024688555 0.01141857 0.010593684
-0.009691688 -0.09537831 -0.06433867 -0.036262147 -0.0027816105 0.04651131 -0.090615794 0.055003233

net.6.running_mean f4 [64]
00000000: 940e f83e a12d 263f 8897 ce3e ba7d e53e
00000010: 7b8f f83e 75e8 f43e b28f ad3e abf4 de3e
00000020: bf52 ef3e 986b d73e 6a09 ab3e 2538 b83e
00000030: ee4b f63e bb57 c43e b2f3 a43e db4e 953e
00000040: 0a62 bb3e eb9f e03e a0fa b43e cb1c dc3e
00000050: ce48 b73e b514 9a3e dea8 ef3e a23e 093f
00000060: fecf aa3e 4bd2 9f3e cad4 c33e 04da 003f
00000070: bf53 be3e 7919 a23e 4f7d db3e 468a b53e
00000080: b69e d63e fad3 aa3e 9c53 103f 7923 c93e
00000090: 9141 fc3e f429 943e 4166 a53e 64c9 fb3e
000000a0: 5110 003f 0129 ad3e b493 ae3e 315b e03e
000000b0: c95b d23e 08d5 bf3e df15 103f 81e1 f53e
000000c0: dd0d c13e 8025 883e 627b e03e ee17 f93e
000000d0: 3116 a73e 2176 c93e 7dbf cb3e 6b5e cb3e
000000e0: acfe b33e c778 c63e 78b1 a93e 4e57 a33e
000000f0: 4974 893e 934b e03e c890 dc3e 5290 b33e
0.48448622 0.64913374 0.40349984 0.44822484 0.48546967 0.478336 0.33898693 0.43546042
0.46742818 0.42074275 0.3340562 0.35980335 0.48104805 0.38348183 0.32217175 0.29161724
0.36598235 0.43872008 0.35347462 0.42990717 0.35797733 0.30093923 0.46808523 0.53611195
0.3336181 0.31215128 0.38248283 0.50332665 0.37173268 0.3166006 0.4286904 0.35457057
0.41917962 0.3336485 0.5637758 0.39284876 0.49268773 0.28938258 0.32304576 0.49177086
0.50024897 0.33820346 0.34097064 0.43819574 0.41085652 0.37467217 0.5628337 0.48023608
0.3770589 0.2659111 0.43844134 0.4865107 0.32634118 0.39347938 0.3979453 0.39720473
0.35155237 0.3876402 0.3314321 0.31902546 0.2684653 0.4380766 0.4307921 0.35071045

net.6.running_var f4 [64]
00000000: 6376 0a3f 435b 553f 18d2 063f cb40 a53e
00000010: 29a9 0b3f 39c8 103f ca7b 893e 8c1c ba3e
00000020: a1d0 c73e a218 db3e 214d 823e 8aef 933e
00000030: 6c7e ea3e b209 003f 2706 5b3e 19a3 933e
00000040: ee83 9d3e aef1 b43e 4e5e 6d3e b71a bf3e
00000050: e20b 813e bfcd fb3e 648f 673f 8721 eb3e
00000060: ce4c a73e 63ab af3e f98a a53e 3627 1e3f
00000070: 9b7d 923e bd33 8c3e 5168 303f 721e 8f3e
00000080: d5bd a43e 1a84 ec3e ac73 1b3f eb74 e53e
00000090: 44ca 223f 52f1 ed3e 6c31 813e 1e6e ec3e
000000a0: 281c cc3e 3660 723e 5561 9c3e ae8c 0a3f
000000b0: 5338 9e3e 99e1 af3e 86b5 173f 7570 ed3e
000000c0: 15f5 bc3e e3a4 2f3e 16db c43e d751 f63e
000000d0: 6939 053f 48f2 ab3e d4d3 913e 70a9 c93e
000000e0: a963 513e 0161 a63e 6e7b 6c3e b7fe 713e
000000f0: d341 803e c6ac 103f c84f c23e e3e0 a83e
0.54086894 0.8334238 0.5266433 0.32275996 0.5455499 0.56555516 0.26852256 0.36349905
0.3902636 0.4279223 0.2544947 0.2889369 0.45799577 0.50014794 0.21389066 0.2883537
0.30764717 0.35340637 0.23180506 0.3732507 0.25204378 0.4918041 0.9045317 0.45924017
0.32675785 0.34310445 0.3233259 0.6177858 0.28611454 0.27383223 0.68909174 0.27952915
0.3217608 0.46194535 0.60723376 0.44815764 0.6358988 0.46473175 0.25233018 0.46177763
0.39865232 0.23669514 0.30543008 0.5412091 0.30902347 0.34351805 0.5926136 0.4637486
0.36905733 0.17152743 0.384484 0.48109314 0.52040726 0.33583283 0.28481925 0.39387083
0.20448174 0.32495883 0.2309396 0.23632322 0.2505022 0.5651363 0.37951493 0.32984075

net.8.weight f4 [32, 64]
00000000: 2427 25be 9aeb febd 5e1d 523b 6621 ea3d
00000010: dac8 903a e3b1 923d 3605 483e 0ab8 9c3c
00000020: b3b9 683d 8fae ffbc 9af5 50bd 6602 bebc
00000030: c13f cc3b 0468 08be 9542 b53d 6105 86bd
00000040: c1ab b93d b862 a83d e199 b63d 60f1 abbd
00000050: 8bcd aa3d 5f1c 28bd a726 14be 8570 94bd
00000060: a2ca 81bd 72ad a8bd 9593 c7bd 4bc7 1ebd
00000070: 1ce9 91bc eb40 023b 0780 12bd 2365 6a3d
00000080: f23c f23b f1ed 0c3b 2ad2 8a3d 3211 9bbd
00000090: 2aa1 bfbd b7fc a23c 77e8 953d a76f a8bc
000000a0: a8d9 963b e3ef cb3d 9f31 23be 38f5 a03c
000000b0: 1f3f 9c3c 1344 35be 6e1f 09be f105 373c
000000c0: cf17 0ebd 6a1e 913d aacc 813d 9a7e 1dbe
000000d0: 5024 ac3c d339 693d 4c04 d83d 4ba2 d03d
000000e0: 7eb4 843d 9043 f6bd ec3c 63bb cd46 f63d
000000f0: fe58 003d 4637 fcbb 266a f9bd e243 a43b
00000100: a051 f03d 09ee 333a d345 873d a917 60bc
00000110: 933c 013e a567 82bd 5519 11bd 31ad f43d
00000120: 25d3 72bd 7944 86bd 624d 9fbd 5d37 7d3b
00000130: c05a f93d 2542 803c 2067 63bc 7574 2a3d
00000140: 5b82 f4bd 1ebe c5bd af80 05be e6f2 27bb
00000150: c06b 403b 8d11 353d 92c6 acbb ca05 1c3d
00000160: 98c8 073d 038d 0ebe c287 57bd a084 5cbd
00000170: 84ae 9dbd 28ab 98bd 4297 cf3d 145f 133e
00000180: 903e 4d3d 5e49 243d 8766 25bd 5e7b 8fbc
00000190: 233b 2d3e 8bf5 d33b ceca 163e 7ea4 bcbd
000001a0: 3fea 22bd d804 e33c b88a c73b 01f5 093e
000001b0: 7f94 9bbd 7f63 00bd 890e 7c3c 9fcf 1bba
000001c0: a059 5b3d 2baa 21be dc24 05bd 4154 13bd
000001d0: fcbd a83d 30fc ed3c a113 02be 5ace 943d
000001e0: 87c9 9c3d 471a 75bd ad8a 97bd cce9 ae3d
000001f0: dc0a 6e3d 69a5 1b3e 4835 013d dba7 383d
00000200: ab7d 683c cdba c0bd 5fda f03d c218 debd
00000210: 5184 673c 562d 63bd 6d88 133d 16ec c9ba
00000220: 7ba1 5b3d 3083 b2bd d474 c03d 5291 46bd
00000230: 1d14 74bd d85b 433e 4f06 4f3d 44fb 873c
00000240: 0ba4 02bc 8d27 54bd 0c49 0e3d cee8 6ebd
00000250: b872 b8bd 4736 583d 24f0 f33d 1dd4 d93d
00000260: 95d3 ca3d 1edd ee3c 4710 80bd 8d46 93bd
00000270: f1b1 223e faad 50bc a3cf eb3d 2a9f b7bd
00000280: ca25 543c 17ee d63d 6483 e2bd 0780 e3bc
00000290: 4b44 f13d 2276 053e ac9f de3d 52e0 abbd
000002a0: 80aa 643d 97c7 c53d 7320 a33d a0e7 bc3d
000002b0: cf29 c5bd a8b2 413d 9c19 3cbc fa0a 803d
000002c0: 7065 65bd 0602 b13c 9c69 78ba ca49 c0bb
000002d0: dc71 1c3d 81dc 243d 1e48 99bd 4fca 8a3c
000002e0: b7a3 a33c 3f39 2e3e 8463 79bd 7cc3 f7bc
000002f0: a24b 07bd e6d0 a73c ddf0 e8bd df16 f33d
00000300: 4fd1 abbc 2e82 d0bc 8548 3b3e cffb fb3d
00000310: a627 a33d 8047 c13d 02e0 b33d c483 e33d
00000320: 8b74 d53c c2da 683d 717e e43d e6aa c3bc
00000330: cc40 d13b 68fb 163b 146f a33d b8cb 78bd
00000340: 28ba 1bbe ac73 ed3b 97f5 5ebc 88ae 0fbe
00000350: 7be2 57bd 2c2d 093e e211 21bc 95e0 bebc
00000360: 0143 cb3d 9ebd 4b3d 473d a33d 90f9 843c
00000370: fcb9 d6bd bd68 9c3c aa1f 023e 92ed dcbd
00000380: 7ce3 183b f226 f53d 2f88 2a39 a86d 433e
00000390: b28c 1b3c 24e5 d53d 9569 bfbd d3b7 2dbd
000003a0: fba8 fbbd a422 9b3b b95f 04bd 354b 913d
000003b0: c33d a33d 7d3c 7b3d f4b3 aebc 1461 c7bc
000003c0: aa0f 313e f5b7 62bd d062 09bd 771f 13bd
000003d0: 397f 53bd 5843 96bd 252c 82bd be1e 723d
000003e0: 0ef9 a8bd 9acc 953d 8741 3a3d d9fa 053e
000003f0: d081 95bd b948 803d 19f5 b63c 51ba 90bc
-0.16128212 -0.12447281 0.0032060961 0.114321515 0.0011046187 0.071628354 0.19533238 0.019130725
0.05681772 -0.031211166 -0.051015474 -0.023194503 0.006233186 -0.13320929 0.0885059 -0.06543995
0.090659626 0.08221954 0.08916069 -0.08395648 0.083399855 -0.04104268 -0.1446787 -0.07248024
-0.06337477 -0.08236207 -0.09744946 -0.03876428 -0.01781135 0.001987512 -0.035766628 0.057225358
0.007392519 0.0021504129 0.06778367 -0.07571639 -0.093569115 0.019895894 0.0731973 -0.020561052
0.0046035834 0.09957864 -0.15936898 0.01964818 0.019073067 -0.1770175 -0.13390896 0.01117085
-0.034690674 0.07085879 0.06337865 -0.15380326 0.021013409 0.05693991 0.105476946 0.10187205
0.06479739 -0.12024605 -0.0034673763 0.12025223 0.03133487 -0.007697019 -0.12178449 0.005012975
0.11734319 0.0006863778 0.06605115 -0.013677516 0.12620763 -0.06367425 -0.03542455 0.11947096
-0.059283394 -0.06556029 -0.077784315 0.0038637735 0.12175512 0.01565654 -0.013879567 0.04161497
-0.11938926 -0.096554026 -0.1303737 -0.0025626956 0.00293611 0.04420619 -0.005272695 0.03809146
0.033150285 -0.13920979 -0.052619703 -0.05383742 -0.07699302 -0.074545205 0.10136272 0.14391738
0.050108492 0.04010903 -0.04038098 -0.01751488 0.1691709 0.00646848 0.14725801 -0.09211062
-0.039774176 0.02771227 0.0060895346 0.13472368 -0.07596683 -0.031344887 0.015384325 -0.0005943719
0.05355227 -0.1578757 -0.032505855 -0.035969023 0.08239362 0.029050916 -0.127028 0.07265921
0.07655626 -0.059839513 -0.07399497 0.08540687 0.058115825 0.15199818 0.031544954 0.045081954
0.014190118 -0.094106294 0.11760401 -0.10844566 0.014130668 -0.055463158 0.036018778 -0.0015405442
0.053620797 -0.08716428 0.09397283 -0.048478432 -0.059589494 0.19078004 0.050543126 0.016599305
-0.007973681 -0.05179553 0.03473763 -0.05832749 -0.09006256 0.052786138 0.119110376 0.106361605
0.09903637 0.029158171 -0.06253105 -0.07191191 0.15888192 -0.012736792 0.11514213 -0.08965905
0.012948463 0.10494631 -0.11060217 -0.02777101 0.11780604 0.13033345 0.10870299 -0.08392395
0.055826664 0.09657209 0.079651736 0.092238665 -0.09627115 0.04728952 -0.011480715 0.062520936
-0.05600494 0.02160741 -0.0009476186 -0.0058681713 0.038194522 0.04024935 -0.074844584 0.016942171
0.019975526 0.17014025 -0.06088592 -0.030244581 -0.033031113 0.020485353 -0.11374066 0.11869597
-0.02097383 -0.0254527 0.18289383 0.12303888 0.07966547 0.09437466 0.087829605 0.11109117
0.026056549 0.05684925 0.11156929 -0.023885202 0.006385898 0.0023038033 0.07980171 -0.060741156
-0.15207732 0.007246455 -0.013608358 -0.14031422 -0.052706223 0.13396138 -0.009830924 -0.023300448
0.09924889 0.04974138 0.07970672 0.016232282 -0.104846925 0.019092912 0.12707391 -0.107875004
0.002332895 0.11970319 0.00016263196 0.190848 0.009493994 0.10444096 -0.0934631 -0.042411637
-0.1228809 0.004734354 -0.03231785 0.07094423 0.079707645 0.061336983 -0.021326043 -0.024338283
0.17291132 -0.055351216 -0.0335415 -0.03591868 -0.051635 -0.073370636 -0.06356076 0.05911135
-0.082506284 0.07314415 0.045472648 0.13083972 -0.073001504 0.06263871 0.022333669 -0.017666968

net.8.bias f4 [32]
00000000: 0811 4d3b f10d 343e 0b49 043e 756a 99bd
00000010: 0a84 583d 4131 3f3d 0363 363c 9fec 343e
00000020: 4b59 43bc 4354 053e 14a0 943d 74fb c2bc
00000030: cbf1 293d 74a4 8ebc b7c7 1f3e 1631 5d3d
00000040: 7d2f 063e 283e 55bc 4f22 013e d6f5 063d
00000050: 9fb5 093e 7140 723d 20a9 e03d 70e9 3b3c
00000060: cdb4 c13d 3abf 4e3c d9a4 543d 81f5 d03c
00000070: 171d 0ebe 9178 263e 2c6f fb3d 1e82 583d
0.003129067 0.17583443 0.12918489 -0.07491008 0.052860297 0.04667783 0.011132005 0.17668389
-0.011923145 0.13020425 0.07257095 -0.023801543 0.041490357 -0.017412402 0.15603529 0.05400189
0.13104053 -0.0130153075 0.12610744 0.03294929 0.13448189 0.059143487 0.10969758 0.01146923
0.09458313 0.012618834 0.051915023 0.02550769 -0.13878284 0.1625693 0.12277064 0.052858464

net.10.weight f4 [32]
00000000: 9a93 e93e 19d3 103f b480 ef3e 2ca6 0c3f
00000010: 150d fb3e d9da 113f 52d9 f63e 971a 183f
00000020: f540 063f b9f5 eb3e 3ea6 d93e 3c34 153f
00000030: e1a9 d63e 7c54 d83e b5cc 053f ca0a 063f
00000040: 6c60 e03e 7536 0d3f d04f e03e e3a5 043f
00000050: cf5f 163f f26b c93e 4ea8 e53e bd59 143f
00000060: 9960 d03e e709 f83e 88ce fc3e 15d5 c33e
00000070: b2c1 133f 457a 013f 04b6 f83e 1aaf f73e
0.45620424 0.5657211 0.4677788 0.5494106 0.49033418 0.5697456 0.48212677 0.5941557
0.52442867 0.4608591 0.42509645 0.5828283 0.41926482 0.42251956 0.52265483 0.5236021
0.43823564 0.5516122 0.43810892 0.51815623 0.5873994 0.39340168 0.4485497 0.5794943
0.40698698 0.48445055 0.4937632 0.38248506 0.5771743 0.50577193 0.48576367 0.4837578

net.10.bias f4 [32]
00000000: f706 0dbf 0fd0 033f d515 223f cbaf 133f
00000010: f9c0 f2be 30ac dbbe 3ff3 013f a8c5 df3e
00000020: 5041 bcbe 3f25 1bbf 458b 103f 4b5b b63e
00000030: 1e4e 243f 292e 0b3f 438c b0be d26b 00bf
00000040: b606 1fbf 1311 1cbf 3cbb 0e3f ff62 0abf
00000050: 900d d23e 24fc 313f 3d62 e13e 0eb9 b8be
00000060: 17ef 26bf 86ea f13e cc9c c7be 9a82 2bbf
00000070: 9ebb 0ebf d46d 183f f3d0 b83e bf38 b13e
-0.5508875 0.5148935 0.63314563 0.57690114 -0.4741285 -0.42904806 0.5076179 0.43705487
-0.3676858 -0.6060371 0.5646251 0.35616526 0.641817 0.5436731 -0.3448201 -0.5016452
-0.62119615 -0.60963553 0.55754447 -0.54057306 0.41025972 0.6952536 0.44020262 -0.36078686
-0.6520857 0.4724924 -0.38986814 -0.6699616 -0.5575503 0.59542584 0.36096916 0.34613606

net.10.running_mean f4 [32]
00000000: 87c9 f13e ebb5 083f 6cb8 0f3f 3f4b da3e
00000010: ce34 213f 6c4e 023f 98c0 d43e 97f0 233f
00000020: 77c3 113f 8bc6 0b3f c03b e93e 4721 033f
00000030: cf9e 003f 562c bb3e 6d11 123f ad01 d53e
00000040: a259 143f 33f5 c83e cd6d 0c3f f1d8 d13e
00000050: 9106 f43e d893 fa3e 28c8 de3e d0c1 153f
00000060: 9f8f 243f 60e4 0f3f 2c2d f03e 1578 263f
00000070: d07a b93e a3a0 1e3f f067 ea3e de44 fe3e
0.47224066 0.53402585 0.5614078 0.42635533 0.629712 0.5090091 0.41553187 0.64038986
0.5693888 0.5459983 0.45553398 0.5122265 0.5024232 0.36557263 0.5705784 0.4160284
0.5794927 0.39249572 0.5485504 0.40985826 0.4766126 0.4894092 0.43512082 0.5849886
0.6428165 0.5620785 0.46909463 0.6502698 0.3622651 0.6196386 0.45782423 0.49661916

net.10.running_var f4 [32]
00000000: 6536 d23e 9b7b 703f a9f7 a23f ba79 943f
00000010: 6eb1 4e3f 9d50 5e3f cfc7 b73e 6fda 713f
00000020: dff7 313f 3a34 293f ec89 f73e 31f0 293f
00000030: e503 543f 02b1 dd3e d2be f43e 712a 463f
00000040: 1633 343f afc1 4d3f 0781 323f 207c 4a3f
00000050: 83e1 3a3f 2af9 113f 4073 903e 17c5 553f
00000060: 6c77 2a3f 08d9 363f 2a1e 013f e410 473f
00000070: 4025 843f 2480 813f 50ac cc3e f1f1 043f
0.41057125 0.93938607 1.273183 1.1599648 0.80739486 0.86841756 0.3589463 0.9447393
0.69518846 0.66095316 0.48347414 0.6638213 0.8281844 0.4329911 0.47801834 0.7740851
0.7039045 0.8037366 0.6972813 0.7909565 0.73000354 0.5702082 0.2821293 0.8350386
0.66588473 0.71424913 0.5043665 0.7776015 1.0323868 1.011723 0.39975214 0.51931673

net.12.weight f4 [1, 32]
00000000: 8d2a 8ebe d79f 843e 382e a03e 55a2 8b3e
00000010: c5bf 90be 779f 5bbe 049f 883e 0050 8b3e
00000020: 4949 80be c22f 8cbe 80ad 923e 3094 7f3e
00000030: 313c 983e 93ce 923e 28e6 81be 761a 70be
00000040: 45c7 98be eb25 8abe 87ec 8b3e 6a07 71be
00000050: 9568 8a3e 0eea a13e 9f9d 813e 2995 7dbe
00000060: f75f 95be bc31 7a3e ad05 6cbe ee3f a1be
00000070: 0836 7abe 959b 903e 2732 883e 3a1f 763e
-0.2776684 0.25903198 0.31285262 0.27272287 -0.2827131 -0.2144755 0.2668382 0.27209473
-0.25055912 -0.27380186 0.28647995 0.24958873 0.29733422 0.2867323 -0.25370908 -0.23447594
-0.2983953 -0.26982054 0.27328894 -0.23537984 0.27032915 0.31623882 0.25315568 -0.24763931
-0.29174778 0.24433035 -0.2304904 -0.31494087 -0.24434674 0.282437 0.26600763 0.2403535
