src/final_models/best_model_50.pth (torch, 79244 bytes, 19 tensors)

net.0.weight f4 [128, 50]
000000 e0 43 0e bc 25 68 cf 3d f9 5a 83 bb cd 11 ba 3d
       -0.008683175 0.10127286 -0.0040086475 0.090854265
000010 84 de 84 3d 42 88 eb 3d 7e c3 c5 bd d4 7e 99 3c
       0.06487754 0.115005985 -0.09656428 0.018737234
000020 9d 1b be bd 69 fa a3 bd 3e 45 8c bd 5a ea 90 bd
       -0.092826106 -0.08006746 -0.068491444 -0.07075949
000030 74 c3 c4 3b 9d 44 b7 bd ea f0 98 bc 9b 34 87 3d
       0.006004745 -0.08948634 -0.018669564 0.066018306
000040 ac c7 9f bc df 60 a5 3d 79 fe 12 be a9 ad 3b bd
       -0.01950439 0.08075117 -0.14354886 -0.045819912
000050 64 b2 50 bd 6f 0d ef bc 18 4e 0b be 80 c0 bf bd
       -0.050951377 -0.02918121 -0.13604009 -0.09362888
000060 47 de 84 3d b8 16 ad 3d 41 62 73 bd 24 b9 cb 3d
       0.064877085 0.08451599 -0.059419874 0.09947422
000070 61 fc 2d 3d 73 5e 0a be d6 e0 0b 3e 72 c3 67 3d
       0.042477015 -0.13512592 0.13659987 0.056582876
000080 4b e5 80 bc ad b8 4f bd 92 a2 c3 bc 1e 0f a1 3d
       -0.015734335 -0.05071323 -0.02388123 0.078642115
000090 a7 81 b9 3c 93 dc 04 bd 0c 2e 0e 3e 98 1e 17 be
       0.02264483 -0.03243692 0.13884753 -0.14757764
0000a0 74 53 33 bb f7 19 6b bd bf d5 27 3d b5 b4 b7 bd
       -0.0027362974 -0.05739781 0.04097533 -0.08970014
0000b0 97 c9 cd bd 0f 12 fc bd 94 e3 5d 3d b0 57 0d 3e
       -0.10048216 -0.12308132 0.054172114 0.13802981
0000c0 4f b4 0c 3e 47 fb 02 3e 48 3f 08 be fd 16 73 bc
       0.13740657 0.12791167 -0.1330539 -0.014837024
0000d0 d7 eb 82 3d 0d b1 ef bd e3 66 c8 3c 64 96 d4 3c
       0.06392639 -0.11703692 0.024463123 0.025950618
0000e0 8a 42 a1 3d ff ce e8 3d 0f 69 0e be 88 7f b3 3d
       0.078740194 0.11367606 -0.13907264 0.08764559
0000f0 15 7b 64 bc 19 15 0a be 9b e0 ad 3d 4d f5 4e 3d
       -0.013945361 -0.1348461 0.08490106 0.050526906
000100 ee c3 77 ba 0e b0 c0 3c 6d f0 ef bd 42 f7 2e bd
       -0.0009451498 0.02352145 -0.117157795 -0.042716272
000110 e1 40 b2 3d cc 7e 01 3e 49 02 5b bc 7b d8 c8 ba
       0.08703781 0.12646025 -0.013367244 -0.0015323305
000120 d0 4f 6b bd 06 42 9e 3c 91 7c 00 be cb 0c 7f bd
       -0.057449162 0.019318592 -0.12547518 -0.06226806
000130 5a 35 0a be 7a cb 12 3e 2f 74 f0 3d b2 7c 07 bd
       -0.13496915 0.14335433 0.1174091 -0.033077903
000140 f5 4a 0f be 7c f6 08 3d 69 2e 19 3d 4c 3a 5e bd
       -0.13993438 0.03343819 0.037397776 -0.054254815
000150 44 18 19 be 1a 4a 13 be 24 5e 54 bd 92 5d b3 3d
       -0.14950663 -0.14383736 -0.051847592 0.087580815
000160 3f 43 20 3e 2a 67 2c 3d 8c c9 9a 3d 2e b5 b0 3d
       0.15650652 0.042090572 0.07557973 0.08628307
000170 cb 88 bd 3c b3 99 e4 3a e2 fa 96 bc 59 8b fa 3c
       0.023136517 0.0017440825 -0.018430177 0.030584024
000180 aa a6 af 3d 9b 9c a8 3c 1e 52 45 bd b7 0f 41 bd
       0.085767105 0.020582488 -0.048174016 -0.047134127
000190 73 76 55 bc ab 0c de 3a be 55 ab 3d 88 2b 23 3d
       -0.013028729 0.0016941031 0.083659634 0.039836437
0001a0 11 9e 35 bd 36 54 d1 bd a8 34 02 3e 2d f7 ec bd
       -0.044340197 -0.1022114 0.127154 -0.115705825
0001b0 4f ab ed bd 9d 94 97 39 c1 92 ba bd 37 cc 47 3d
       -0.1160494 0.0002891169 -0.09110022 0.04877874
0001c0 ab 40 40 bd e6 7f c1 3c 4d 65 8d bc 87 23 00 be
       -0.046936672 0.023620557 -0.017260218 -0.12513553
0001d0 ef 31 af 3c a2 f8 46 3d 94 dd e1 3d 50 2b a6 bd
       0.021386115 0.04857696 0.11028591 -0.0811373
0001e0 fa 0d 08 3e e1 68 98 3b 7d 49 cc bc f6 cc 1a be
       0.13286582 0.0046511744 -0.024937386 -0.15117249
0001f0 25 83 c8 bd 72 f3 26 be 93 a2 35 be a3 a8 bd bd
       -0.09790639 -0.16303805 -0.17737798 -0.092606805
000200 3c 59 9b bd ee 65 a8 3d 90 ab ae bd 4c 69 df bc
       -0.075853795 0.082225665 -0.08528817 -0.02727189
000210 8b 02 f1 3d ca 17 f3 3d 73 c1 e0 bd e6 de 18 3e
       0.11768063 0.11869772 -0.109743975 0.14928779
000220 e9 67 41 3d 11 2c 0d bd f3 b8 20 3e 42 e5 f5 3d
       0.047218237 -0.034465853 0.15695553 0.12006618
000230 56 3a f2 3d 32 06 a8 3d 34 6b 07 3e 39 41 c2 bb
       0.11827533 0.08204307 0.13224488 -0.0059281853
000240 77 9b b5 3d 42 65 9d 39 a7 39 5f bc f4 cc 2a 3e
       0.08867543 0.00030020816 -0.013624585 0.16679746
000250 0b 8d 19 be d7 cc e2 3d 12 28 ce 3d c4 dc e7 bd
       -0.1499521 0.11074226 0.100662366 -0.113214046
000260 0e e7 86 bd 65 bf 4c bc e5 7e da bd ad b0 74 bd
       -0.06587039 -0.012496804 -0.106687345 -0.059738804
000270 28 66 ae bd a0 e4 38 bd 87 04 37 3e 2c 0e 80 3d
       -0.085155785 -0.04513991 0.17872821 0.06252703
000280 81 ba 86 bd d3 c0 a2 bd e1 ca d1 3d e7 75 ec bc
       -0.065785415 -0.079469346 0.10243774 -0.028864814
000290 98 b2 11 bd ee 4c b4 3d 56 25 e1 3b 9c f0 52 bd
       -0.03557071 0.08803736 0.006870906 -0.051498994
0002a0 27 f6 9b bd 50 0f e8 bc ed db b9 bd 91 e0 29 be
       -0.07615309 -0.028327614 -0.09075151 -0.16589572
0002b0 bd d9 5d 3d 2d 10 2d 3e 13 7e 5d 3d 78 bf c9 3d
       0.05416273 0.16900702 0.054075312 0.09850973
0002c0 9b bd 02 3e 42 21 e9 bc 1e 2a 14 3e 38 2c 03 3e
       0.12767641 -0.028458241 0.14469191 0.12809837
0002d0 16 92 a5 3d 9b 5d 8a bd f2 0e a8 3d e1 25 c7 3c
       0.08084504 -0.06756135 0.082059756 0.024310054
0002e0 52 87 21 bd b8 5f a3 bb f4 fd 92 3d 36 d0 a4 3d
       -0.039435692 -0.004985776 0.07177344 0.080475256
0002f0 fe d6 bd bd 57 67 8a 3d 50 11 0b 3e 4b ce eb 3d
       -0.09269522 0.06757992 0.13580823 0.11513957
000300 dd 41 70 3d 40 28 f7 bd c7 d4 0a bd b0 0d 97 3d
       0.058656562 -0.12068224 -0.033894327 0.073756576
000310 06 c8 56 bc 73 03 e9 3d bb 3b 23 bd 9f 76 52 bd
       -0.013109213 0.11377611 -0.039851885 -0.051382657
000320 f6 5c 3c bc 47 0d 05 be 66 7b 9a 3d ee b4 d6 bd
       -0.011496773 -0.12993346 0.07543068 -0.10483728
000330 68 5a d1 3d 0a a5 91 3c 6c c5 37 3d 1c e1 c2 3b
       0.10222322 0.017778892 0.04486601 0.0059472453
000340 0a fe 44 bc 27 b0 11 be ef 23 91 bd 73 0e cc bd
       -0.012023458 -0.14227353 -0.07086932 -0.099636935
000350 ad 0d 07 be df b8 13 bc 9b cf fa bb 70 08 8c bd
       -0.1318881 -0.009016245 -0.007654143 -0.06837547
000360 bc fd 2c bd e0 ae 00 3e 30 91 9b bd d6 11 a9 3d
       -0.042234167 0.1256671 -0.07596052 0.08255355
000370 55 3a c2 bd 5f f0 03 3c bd 9b f8 bd 9d b7 ea bd
       -0.09483782 0.008052914 -0.1213908 -0.11460803
000380 6d 97 34 be 6c 28 47 3c 80 a6 8b bc fb f9 98 bc
       -0.1763589 0.012155633 -0.017047167 -0.018673887
000390 5c f9 d1 bb f3 8f c6 bd 2a 96 16 be da 81 69 3d
       -0.0064079 -0.09695425 -0.1470572 0.0570086
0003a0 6e e8 a2 bd 61 1b 3c bd 1b 51 98 3d 7e 3a ab 3d
       -0.07954489 -0.045924548 0.07437345 0.08360766
0003b0 2e 9c 48 3b fb 4a 9b 3d 27 20 43 3d 5b ac 02 be
       0.0030610668 0.07582661 0.047638085 -0.12761061
0003c0 f5 a2 84 bc eb 7e b5 3d 7b d3 11 bd ce 9b ed 3d
       -0.016190985 0.08862098 -0.035602074 0.11601983
0003d0 66 06 96 3d f9 9c b5 3b 6b 43 02 be b3 09 9f 3c
       0.07325439 0.0055423942 -0.1272103 0.019413805
0003e0 d9 39 85 bd bd f2 c5 bd ca 62 e9 3d cf 69 aa 3b
       -0.06505174 -0.09665439 0.11395796 0.0052006016
0003f0 d8 bf 91 bd 63 60 13 3e 0a ee 36 3d 7c 78 ea bc
       -0.071166694 0.14392237 0.044660605 -0.028621905

net.0.bias f4 [128]
000000 f5 42 c3 bd 60 d7 55 3d 7e b5 11 3d 9b 58 02 3d
       -0.095342554 0.05220735 0.035573475 0.031822782
000010 b5 ca 0f bd bb 6e f1 bc 77 9a 88 3c 1a 39 24 3d
       -0.035105426 -0.029471746 0.016675217 0.04009352
000020 31 83 ba 3d 95 d9 41 be f8 d9 4c bd 0e c0 b0 3d
       0.09107054 -0.18930657 -0.05001256 0.086303815
000030 b2 a6 44 bd f4 1a e7 bc 20 6a 82 bb 18 02 d1 bd
       -0.048010536 -0.028211094 -0.0039799362 -0.102054775
000040 23 18 fe bd 1a b8 07 be 02 31 6a 3d b0 38 4e bc
       -0.124069475 -0.13253823 0.057175644 -0.012586758
000050 5a 47 08 3e 38 c9 8b 3d 87 4d 8d bd 4a 9f dd 3d
       0.13308468 0.06825489 -0.06899553 0.108213976
000060 c6 7a df b9 f8 f2 91 3d 0a f2 29 3d d5 b2 cd 3d
       -0.00042625348 0.07126421 0.041490592 0.10043875
000070 fa 05 f2 bc bf a4 ba 3d 1f aa 11 3e 77 94 cb 3d
       -0.029543865 0.09113454 0.14225052 0.09940427
000080 ad 79 91 bb d9 d8 03 3e 62 b3 a5 bd 67 88 27 bd
       -0.0044395537 0.1287569 -0.08090855 -0.040901568
000090 84 50 ab bd 49 6b 31 bd 7f 25 4e bd 3f 56 79 bd
       -0.083649665 -0.043315206 -0.050328728 -0.060873266
0000a0 74 52 17 be 4b da ca bc 9d 6e b1 3d 8a 7a 6e 3b
       -0.14777547 -0.024762293 0.08663676 0.0036388957
0000b0 1f fa 50 bb ef ff 90 bc 6d 8f 73 bd 52 1c a9 bd
       -0.0031887365 -0.017700164 -0.059462953 -0.08257355
0000c0 7e d6 34 bd 5c 64 53 bd b6 23 c3 3d ae 5c c1 bc
       -0.04414987 -0.051609382 0.09528296 -0.023603763
0000d0 f9 84 9f bd 52 4f cf 3d 26 e8 6f bd da f6 8f bd
       -0.077890344 0.10122551 -0.058571003 -0.07029505
0000e0 42 1e bd bd 07 a5 1e 3d 5e b6 bf 39 1a 28 9b 38
       -0.09234287 0.0387316 0.00036566233 7.3984455e-05
0000f0 f0 ce 1d 3d 0c 67 8a bc 52 92 bf 3c bd a7 e5 b8
       0.03852743 -0.01689484 0.0233852 -0.000109508146
000100 22 a3 d8 3c ce 1e 08 3e e5 64 a6 bc c3 45 b6 bd
       0.026444975 0.13293001 -0.020311782 -0.08900025
000110 70 f7 72 3d c5 3a de 3b bd fe d4 3d 83 a3 d3 bd
       0.059318006 0.006781908 0.1040015 -0.10333922
000120 46 27 08 3e 0e ce f1 3d 4b 81 50 3d ec 0b b5 3c
       0.13296232 0.1180688 0.050904553 0.022100411
000130 30 63 dc bc 3a 1f 10 3e 86 51 d5 3c 57 c3 a9 bc
       -0.026902765 0.14074412 0.02603985 -0.020723028
000140 be 1a 41 3c f0 cd 88 3d 2d b0 7b bd 1b ea 23 3e
       0.011786161 0.066799045 -0.06144731 0.16007273
000150 82 51 2c 3e a0 c7 a4 3d 06 34 da bd 18 54 cc 3c
       0.16827968 0.08045888 -0.10654454 0.024942443
000160 e2 4e 43 3c 98 87 06 be c8 5e 2d 34 ca 74 c2 3c
       0.011920663 -0.13137662 1.6146362e-07 0.02373733
000170 ce 38 10 3e 97 8e b4 3d c0 4f b2 3d 8e cd 00 3b
       0.1408417 0.08816259 0.08706617 0.001965377
000180 8e 3e 90 3b 50 d8 36 3d ee 33 e8 bd 3b e2 bb bd
       0.0044019883 0.044639885 -0.1133803 -0.091740094
000190 d4 23 0a 3d e1 68 89 3d 8b e2 26 be a8 75 2d bd
       0.033725575 0.06709457 -0.16297357 -0.042348534
0001a0 e5 38 00 bd 5a fb d9 ba db d9 5d bc b1 72 f3 3d
       -0.03130426 -0.0016630695 -0.01354071 0.1188711
0001b0 2c 73 0c 3e 5f 9c 0f 3d de 7c fa 3d 08 1f 8f bd
       0.1371581 0.035061236 0.12230848 -0.069883406
0001c0 2c 62 fa 3a 5f 61 c6 bd 06 18 73 3b dc a1 8e 3c
       0.0019102744 -0.09686541 0.0037093177 0.017411165
0001d0 2b d3 fd bd cb c9 91 bd da ca d7 bd 9b 06 4b bd
       -0.12393793 -0.07118567 -0.10536738 -0.049566846
0001e0 6a 19 26 be 14 22 b6 3d ca 7c 0e bd 68 18 e7 bd
       -0.16220632 0.08893219 -0.034786977 -0.11283952
0001f0 17 c8 e3 3d a3 2b c1 bd 10 c4 d8 3d fb 49 e3 bd
       0.111221485 -0.09432151 0.10584271 -0.11098095

net.2.weight f4 [128]
000000 62 8c 6a 3f 5a 1c 76 3f 38 d2 75 3f ee 20 7e 3f
       0.9162046 0.9613701 0.96023893 0.99268997
000010 93 ca 78 3f 9d ac 75 3f 53 79 74 3f ea c8 77 3f
       0.97184104 0.9596651 0.95497626 0.96790946
000020 cc 80 79 3f 3f 2d 78 3f 5f 3f 65 3f 99 ce 64 3f
       0.97462153 0.9694404 0.8954982 0.89377743
000030 14 31 6c 3f 87 f3 7b 3f de d4 75 3f 34 78 49 3f
       0.9226239 0.9841847 0.96027935 0.7869904
000040 dc be 68 3f 8f 4e 7b 3f c3 af 77 3f 6f 87 79 3f
       0.9091623 0.98166746 0.96752566 0.9747228
000050 e6 18 83 3f 35 09 73 3f cc 35 73 3f 61 1f 6b 3f
       1.0241973 0.94935924 0.9500396 0.91844755
000060 d9 ca 6c 3f e3 71 79 3f 48 71 73 3f 69 8f 7d 3f
       0.9249702 0.974394 0.9509473 0.9904695
000070 97 c0 64 3f cc f5 78 3f b3 d8 5b 3f cf c5 66 3f
       0.8935637 0.97250056 0.8587753 0.9014558
000080 eb 4b 69 3f 03 ca 78 3f a7 1f 71 3f ce 56 6d 3f
       0.91131467 0.97183245 0.9418892 0.9271058
000090 21 8a 80 3f b2 5c 67 3f 06 e5 55 3f 41 70 74 3f
       1.0042154 0.90375817 0.8355259 0.95483786
0000a0 2d 2f 79 3f f7 ef 6d 3f c3 f3 6c 3f 1e 38 66 3f
       0.9733761 0.9294428 0.9255945 0.8992938
0000b0 75 66 73 3f cd 0e 76 3f 71 ea 6c 3f 94 a4 64 3f
       0.9507821 0.96116334 0.9254523 0.89313626
0000c0 67 94 7a 3f 83 7b 72 3f 66 1f 68 3f 91 01 75 3f
       0.97882694 0.94719714 0.9067291 0.95705515
0000d0 f2 fe 74 3f 19 0b 6d 3f 59 13 6a 3f e8 99 81 3f
       0.95701516 0.9259506 0.9143577 1.0125093
0000e0 5b 2b 72 3f 35 70 75 3f 57 af 7a 3f a4 ae 77 3f
       0.94597405 0.9587434 0.979238 0.96750855
0000f0 90 3a 70 3f f6 a2 78 3f f3 ba 6a 3f 01 8d 79 3e
       0.9383936 0.9712366 0.9169151 0.24370195
000100 98 7c 75 3f 41 79 6a 3f 7b 15 6f 3f e0 67 76 3f
       0.9589324 0.9159127 0.9339215 0.9625225
000110 3a e4 72 3f 2f a5 7e 3f 6c 4a 72 3f 9f 8a 73 3f
       0.94879496 0.994708 0.9464481 0.95133394
000120 df 29 70 3f 4e b5 79 3f 7b 8e 73 3f 58 b2 74 3f
       0.9381389 0.97542274 0.9513928 0.9558463
000130 4f 3e 6f 3f 4a 43 7c 3f 5a b9 7f 3f 53 79 74 3f
       0.9345445 0.98540175 0.998922 0.95497626
000140 44 69 72 3f 75 3f 75 3f a1 b9 70 3f 34 0f 74 3f
       0.9469187 0.9579995 0.9403325 0.953357
000150 0f 85 7a 3f e1 9e 6f 3f da 2a 6f 3f 1a 28 60 3f
       0.9785928 0.93601805 0.9342476 0.8756119
000160 52 1b 74 3f 2a 56 6e 3f ce 3f 67 3f 93 60 6d 3f
       0.9535419 0.93100226 0.90331733 0.92725486
000170 99 40 7c 3f 4d 52 76 3f 15 81 69 3f fa f5 71 3f
       0.9853607 0.9621933 0.9121259 0.94515955
000180 ef 38 76 3f 3b 97 6c 3f 0d c2 74 3f 5b 7a 16 3f
       0.96180624 0.9241826 0.956086 0.5878045
000190 d1 83 6e 3f 53 f3 79 3f 7b 64 6c 3f 02 ca 76 3f
       0.93169886 0.9763691 0.9234082 0.9640199
0001a0 3f 3c 79 3f d4 af 7e 3f e0 e0 78 3f ec 12 80 3f
       0.97357553 0.9948704 0.9721813 1.0005774
0001b0 9c 32 7a 3f 8f c7 6e 3f f0 e7 6d 3f 65 5f 7e 3f
       0.97733474 0.9327325 0.92932034 0.9936431
0001c0 ac 22 72 3f cc d2 65 3f 9d 23 78 3f f1 f4 6e 3f
       0.94584155 0.89774776 0.9692934 0.933425
0001d0 47 0d 7e 3f 6d 83 7c 3f 67 ff 6b 3f 23 99 72 3f
       0.9923901 0.9863804 0.9218659 0.9476492
0001e0 32 3d 6d 3f 6e 59 7d 3f a1 27 3e 3f e1 2a 78 3f
       0.926715 0.98964584 0.7427922 0.9694043
0001f0 5a 79 78 3f 7b 9a 74 3f 46 4b 7b 3f c8 0d 82 3f
       0.9706017 0.9554822 0.98161733 1.0160456

net.2.bias f4 [128]
000000 5c 25 31 3d e1 79 2d 3c 7d e2 9d bc 92 85 80 3c
       0.04324852 0.01058814 -0.019273037 0.015688691
000010 f4 c8 34 bd fd cc 9c bc c6 aa 4b 3a 0d e0 2e bc
       -0.044136956 -0.019140715 0.00077692827 -0.010673535
000020 47 50 6f 3d 78 95 d1 3c 93 57 11 3c 45 f8 27 bc
       0.058426168 0.025583968 0.008870977 -0.010252063
000030 0e 80 60 bc eb 51 05 bd 27 8e d4 bb e4 64 1f 3c
       -0.013702406 -0.032548826 -0.0064866724 0.009728644
000040 54 7e 81 3d 91 5f c8 3c fd af f0 bb 63 cf 18 3c
       0.06322923 0.024459632 -0.007345198 0.009326789
000050 b9 0c 08 bd f3 40 68 3d 2e 40 9c 3b 0c cd ff 3b
       -0.03321526 0.056702565 0.004768393 0.007806426
000060 6f 8f 38 bc 99 64 82 bc 33 c2 51 bd ef 3d 8a 3d
       -0.011264666 -0.01591711 -0.051210593 0.06750094
000070 21 ef a3 3c 0f 8a b4 3c 7d d9 ce 3c 2c 92 3d bd
       0.020011486 0.022038488 0.02525019 -0.04628198
000080 71 08 bd bc 3c 83 de bb 4d 67 40 ba dd 66 14 3d
       -0.023075314 -0.0067905467 -0.0007339612 0.03623091
000090 e4 3b 08 3d f1 28 1b 3c e0 d7 60 bd a5 b6 8d 3d
       0.03326024 0.00947021 -0.054893374 0.06919602
0000a0 65 5b 04 3b ad 57 da ba fa bb d9 3c 0f 54 2f bc
       0.0020196077 -0.001665821 0.026578892 -0.0107011935
0000b0 90 74 c7 bc 97 5b c8 3b 96 53 80 bd 48 e7 46 3b
       -0.024347574 0.006114434 -0.06265943 0.0030350257
0000c0 0d 9a 22 bd eb 5a c2 bc 3a be 2d 3d 6d fd 1b bc
       -0.039697696 -0.023724994 0.042417742 -0.009520871
0000d0 a1 bb 91 ba 44 1a 01 bc 00 82 f5 3c 09 f4 ae 3d
       -0.001111854 -0.007879797 0.029969215 0.0854264
0000e0 ab c9 21 3d c4 6b 81 bc 0b fc c4 3c 52 b0 78 bc
       0.039498966 -0.015798457 0.024045965 -0.015178757
0000f0 27 cf 9d bc 3f a0 21 bd 41 79 b3 3c b5 7e 89 bc
       -0.019263817 -0.039459463 0.021908404 -0.016784051
000100 b7 b8 f0 3c c9 29 96 bc be f5 56 3b 14 b6 a1 bd
       0.029384954 -0.018330472 0.0032800282 -0.07896057
000110 95 4d 0e 3d b3 34 be bc 7b a8 70 3c 3d d3 12 bd
       0.034741957 -0.023218488 0.014688606 -0.035845984
000120 7a 31 36 3d f5 90 61 bc b8 e4 a3 bc 4f 90 14 bd
       0.04448078 -0.013767471 -0.020006523 -0.036270436
000130 ff ca 10 bd 32 49 53 3b 39 a9 11 bd c5 86 9b bc
       -0.035349842 0.0032239673 -0.035561774 -0.018985162
000140 47 14 34 3d 59 aa 89 bc f7 09 b1 3c 43 ae 08 3d
       0.04396465 -0.01680486 0.021611197 0.033369314
000150 c9 a7 f3 3c 99 07 29 bd bf 20 4b bc 4e 27 33 bd
       0.029743092 -0.04126701 -0.012397944 -0.043738656
000160 67 16 eb 3c de 96 87 3d e8 65 af 3c 0f af 42 bd
       0.028697206 0.066205725 0.021410897 -0.04753023
000170 40 30 9d bd 49 91 47 bb bf db 95 bc 93 1d 9a bd
       -0.076752186 -0.0030451587 -0.01829326 -0.07525172
000180 ce a2 62 3c 69 f1 92 3c 56 a4 19 bc 01 53 7a bc
       0.013832761 0.017937379 -0.00937756 -0.015278579
000190 0d c1 0a bc d4 43 c7 bb 04 7a b2 3b fc 1b db bc
       -0.008468878 -0.006081084 0.0054466743 -0.026746742
0001a0 65 02 39 3d 20 c4 27 bd 13 af 11 bd 75 8f 9c 3d
       0.0451683 -0.040958524 -0.035567354 0.0764455
0001b0 7b b4 80 bc 7e c1 1c bd 2a d1 1c bd 76 a4 a8 bd
       -0.01571106 -0.038270466 -0.038285412 -0.082344934
0001c0 de 30 af 3b 03 66 a8 bc 44 69 ab 3b 3c 2f 16 bd
       0.0053464016 -0.020556455 0.0052310545 -0.03666614
0001d0 5f 7f 64 bc 66 49 bd bc 31 19 52 bc 35 fa 21 bd
       -0.013946383 -0.023106288 -0.012823389 -0.039545257
0001e0 91 88 96 3c 27 f0 4e 3c 4d 4a dc 3c 54 e6 e6 3b
       0.018375667 0.012630499 0.026890898 0.0070465
0001f0 c9 76 0b bd 15 e4 9d bc 19 f3 b4 bc 6b 4e b3 3c
       -0.03404883 -0.019273797 -0.022088574 0.021887979

net.2.running_mean f4 [128]
000000 b5 7c 61 3d b6 8b 43 3d 55 e7 c2 3d 4b 1f c6 3e
       0.05505057 0.04774066 0.09516779 0.3869575
000010 ef 67 ce 38 77 a0 2a 3f 41 e6 0e 3e 14 38 8c 3d
       9.8422046e-05 0.666511 0.13955022 0.068466336
000020 a1 b1 06 3f 20 cd f3 3e f4 6e 27 3d a2 0d c8 3a
       0.5261479 0.47617435 0.040877298 0.0015262852
000030 4c 96 ca 3a d8 d8 10 3d ea e9 d0 3d b4 e3 c9 39
       0.0015456169 0.03536305 0.102008656 0.0003850736
000040 ea f2 0b 08 b3 d3 d9 3e 1f 71 ab 3d 00 1e 58 3e
       4.2114335e-34 0.42544326 0.083711855 0.21105194
000050 98 c5 03 3f 1e 08 ed 3e c4 a7 6c 3e 04 b3 dc 3d
       0.5147338 0.46295255 0.23110873 0.10776332
000060 8f 06 1b 3c c2 ab d1 3d e9 2b 87 3e 73 f4 0f 3f
       0.009462013 0.10237838 0.26400688 0.56232375
000070 af fb bc 36 9c c5 f3 3e 32 f4 bc 3c 67 a4 01 3f
       5.6321364e-06 0.476117 0.02306566 0.50641483
000080 98 59 d3 08 4d c9 34 3f 2b c5 38 3b 93 fb 22 3e
       1.2720164e-33 0.7061966 0.0028193693 0.1591628
000090 94 b6 ff 3e a5 03 29 3f 8e 50 7d 38 d4 a5 dd 3c
       0.49943984 0.66021186 6.0394923e-05 0.027056612
0000a0 44 b0 84 3d 6a 8b 5b 3f 19 d5 6e 3c 44 23 be 3d
       0.064789325 0.85759604 0.014577174 0.0928407
0000b0 57 4b aa 3e 5c f8 12 3f b3 bb a8 3c fb d3 9e 3e
       0.33260605 0.57410216 0.020597314 0.31021103
0000c0 40 3a 3c 3a 28 5d 94 3e 27 89 4f 3d 01 ad 36 3f
       0.0007180311 0.28977323 0.050667908 0.71357733
0000d0 f2 9e 0e 3e aa 33 00 3f cd 25 8d 3f c6 0e b5 3b
       0.1392782 0.50078833 1.1027161 0.005525443
0000e0 b6 32 2c 3d 6e 12 c0 3e 79 82 0b 3f 5a 9e 6c 3d
       0.04204055 0.3751406 0.5449596 0.057768203
0000f0 a6 4e 03 3d 41 91 ab 3d 6a 87 a5 3d 04 00 00 00
       0.032057427 0.08377314 0.08082469 6e-45
000100 93 75 1d 3c 0a 17 12 3f d7 43 3a 3f 53 cf f8 3e
       0.009610551 0.57066405 0.72759765 0.48595676
000110 98 c5 5d 3b 41 96 c0 3c 68 c3 21 3e ca 4b f0 3b
       0.00338397 0.023509147 0.15797198 0.0073332535
000120 45 ee 36 3d 09 af f0 3e ba 03 33 3f 1c 3e d9 3a
       0.044660825 0.4700854 0.6992756 0.0016574296
000130 8c 8b 2e 3d 83 71 e5 3e 1a 84 1d 3f a4 32 bd 3e
       0.04261355 0.44813165 0.61529696 0.36952698
000140 4f 14 99 3e e8 02 cb 3e af 75 1c 3e b7 c9 81 3e
       0.29898307 0.39650655 0.15279268 0.2534921
000150 85 23 cf 3e dc 53 3d 3f 92 24 39 3e 1d 00 0c 39
       0.40456787 0.73956084 0.18080357 0.00013351483
000160 9d ce 53 3d 83 59 2f 36 d9 d2 b1 3f 03 94 8a 3c
       0.051710714 2.6129135e-06 1.3892471 0.01691628
000170 7f c5 fc 3d 73 fc 12 3e eb 18 dd 3d 48 36 c2 3d
       0.12342357 0.14354114 0.10795768 0.094830096
000180 a1 b9 c5 3c 60 36 a8 3e e2 ac e2 06 5a 0c b1 34
       0.024136366 0.32853985 8.526578e-35 3.2977806e-07
000190 6b 9c 8d 26 bb 63 e3 3e c8 85 43 39 e4 fc 52 3f
       9.826238e-16 0.44412026 0.00018646487 0.8241713
0001a0 7b e6 e1 3d 90 b7 75 3e 25 bd 11 3f 48 8a 2c 3e
       0.11030289 0.23995805 0.56929237 0.16849625
0001b0 33 32 2c 3d cf 30 33 3f 69 84 92 3e 0e 61 be 3a
       0.04204006 0.6999635 0.28616646 0.0014524774
0001c0 2f e0 90 3e bb 0f 00 00 0c f5 e9 3e 17 83 8e 3d
       0.28296039 5.643e-42 0.45694768 0.06958597
0001d0 6c 82 0f 3e c0 08 e7 3d 88 ce 87 3e c8 b6 e0 3e
       0.14014596 0.11280966 0.26524758 0.4388945
0001e0 c4 5a 30 39 73 fc d8 3e 60 6c 0c 32 e1 87 1f 3f
       0.00016818481 0.42380103 8.173714e-09 0.6231671
0001f0 29 85 2c 3f f3 00 d0 3e b7 64 4f 3f 73 8f 8f 3e
       0.67390686 0.40625724 0.81013054 0.2803913

net.2.running_var f4 [128]
000000 28 bc 9c 3c a4 be 56 3c 8b 4c df 3c 52 6b ca 3d
       0.019132689 0.013106976 0.027258178 0.09883751
000010 cd 8f c9 36 1e 05 41 3e 5b b4 29 3d c0 42 b2 3c
       6.0070074e-06 0.18849608 0.041431766 0.021760345
000020 68 6c 08 3e 1c 55 83 3e 66 43 28 3c 54 8b 44 39
       0.13322604 0.2565087 0.010269975 0.0001874392
000030 e3 93 df 39 ea bd 81 3c fc 9c e9 3c 27 af 5e 3b
       0.0004264406 0.015837628 0.028517239 0.003397891
000040 dc 7f e8 05 8b 13 25 3e 6e e3 78 3c 32 62 9a 3d
       2.1864143e-35 0.16120736 0.015190942 0.075382605
000050 4a 22 c5 3d e1 e9 1f 3e cc 1e 61 3d 3d 5b f7 3c
       0.09625681 0.15616561 0.05496101 0.030194873
000060 0b 18 3c 3b 3f 16 06 3d 13 f3 6a 3d 1a 0b 11 3e
       0.0028700854 0.03273606 0.05736072 0.14164391
000070 32 b9 d1 34 a6 6c d0 3d 75 e1 9b 3b e7 73 c1 3d
       3.906403e-07 0.10176973 0.004757101 0.09445935
000080 ee 50 88 06 72 7a 1c 3e 8a 02 09 3a 03 eb 28 3d
       5.127643e-35 0.15281084 0.00052265136 0.04123975
000090 ec 09 91 3d 1c 0d 1e 3e 48 e4 3d 37 05 5d 0d 3c
       0.070819706 0.15434688 1.1318429e-05 0.008628135
0000a0 e3 dc 8f 3c 91 37 9f 3e 3b 67 94 3b d2 25 ab 3c
       0.017561382 0.3109708 0.0045289076 0.020892058
0000b0 ce f2 71 3d dd b0 20 3e 1c 1b 06 3c 44 b3 87 3d
       0.059069447 0.15692468 0.008185174 0.06625989
0000c0 05 76 c0 38 e5 99 af 3d 54 45 a8 3c 2e af 4a 3e
       9.177256e-05 0.08574275 0.02054087 0.19793388
0000d0 bb 1c 4b 3d 5b 3b b0 3d 9d e2 c1 3e a0 57 a6 3a
       0.049587946 0.08605071 0.37868205 0.0012690909
0000e0 9a 36 1c 3c af a9 d7 3d 4d 80 08 3e f3 88 74 3c
       0.009534502 0.105304115 0.13330193 0.014925229
0000f0 97 a8 4f 3c 9c f7 b6 3c 38 b4 a5 3c 04 00 00 00
       0.012674472 0.022334866 0.020227537 6e-45
000100 ec bd 12 3b fd 23 d7 3d e2 2a 7e 3e f2 c6 43 3e
       0.0022391034 0.10504911 0.24821046 0.1911886
000110 91 44 0d 3b be f5 03 3c f5 de 41 3d 3d e5 1d 3c
       0.0021555761 0.008054195 0.04733177 0.009637174
000120 32 c1 34 3c 16 92 97 3d d2 0d eb 3d 13 28 d7 39
       0.0110323895 0.074009106 0.114772454 0.00041037853
000130 c0 97 1e 3c 3d 91 97 3d ce b8 c2 3d 09 50 c2 3d
       0.009679735 0.07400749 0.09507905 0.09487922
000140 f6 dd 82 3d 95 90 ac 3d f0 79 a9 3d 9f 26 bd 3d
       0.06389992 0.08426014 0.08275211 0.09235882
000150 60 1a a7 3d f9 ef 8a 3e fa 25 b4 3d f4 3f 42 37
       0.081593275 0.2713621 0.08796306 1.1578191e-05
000160 95 17 70 3c e3 8e c2 34 6d 90 f8 3e 19 1f 7d 3b
       0.01465406 3.623928e-07 0.48547688 0.0038623272
000170 6a be 0a 3d dc 70 14 3d 52 0f b7 3c 8f 0f 2d 3d
       0.033873 0.036240444 0.022346172 0.042251166
000180 d7 13 81 3b 74 61 be 3d ab 1c 30 05 24 6b 24 33
       0.0039391327 0.092959315 8.280746e-36 3.828167e-08
000190 9d 8e ab 23 98 f2 95 3d 15 24 c4 37 de 39 49 3e
       1.8600256e-17 0.07321662 2.3381823e-05 0.19650981
0001a0 dd a8 12 3d 1c 70 7b 3d 73 46 07 3e 51 15 0a 3d
       0.03580557 0.061386213 0.13210468 0.033711735
0001b0 f0 3a 27 3c af 7c 2b 3e 71 dd 57 3d 42 76 96 39
       0.010206923 0.16746782 0.052701417 0.00028698338
0001c0 b7 ba d6 3d 5d 00 00 00 68 7b dc 3d ec dd 9f 3c
       0.10484832 1.3e-43 0.107657254 0.019515
0001d0 39 77 7e 3d 58 3d 14 3d db 6b 7f 3d 16 49 c9 3d
       0.06212542 0.036191314 0.06235872 0.09828393
0001e0 dc db a4 39 15 ea a5 3d 11 22 fe 2e 61 5d 24 3e
       0.00031444326 0.08101288 1.1556634e-10 0.16051246
0001f0 3e fb 40 3e a1 50 f4 3d 48 98 4a 3e 97 a6 da 3d
       0.18845841 0.11929441 0.19784653 0.10676306

net.4.weight f4 [64, 128]
000000 43 08 f7 3c 7d 55 97 3a f1 34 d8 3d c4 79 10 3d
       0.030155307 0.0011545863 0.10556973 0.035272375
000010 7d 10 2b bd a8 b3 ac bd 81 ef b0 bd 6e 5e 2f 3d
       -0.04176377 -0.08432704 -0.08639432 0.042814665
000020 d2 26 f4 3c 98 b6 37 bd f5 f3 4b bd 21 8e 3b 3d
       0.029803667 -0.04485187 -0.049793202 0.04578984
000030 00 de 8a bd ae af 17 bc e8 4e 06 3d c9 a1 4c bd
       -0.067806244 -0.009258194 0.032790095 -0.049958978
000040 09 61 89 3c 66 5d 6d bd 57 57 51 bd 11 75 a1 3d
       0.016769903 -0.0579504 -0.051108684 0.07883657
000050 10 a9 93 bd 3e d1 47 bd a3 ee dd 3a 84 13 0e bd
       -0.072099805 -0.048783533 0.0016932081 -0.03468658
000060 b4 3e 60 3d 94 d5 c6 3d 0b 44 09 3d 61 fc 9d 3d
       0.0547473 0.097087055 0.033512156 0.07714153
000070 1f 26 8a 3d fc e0 c4 3c 8c 6f 85 3d 5a fd cb 3c
       0.06745552 0.024033062 0.065154165 0.02490108
000080 87 6f 6b bd 7f c3 36 bd 09 6b f1 bc 89 2f ab 3d
       -0.057479408 -0.044620033 -0.029469984 0.08358676
000090 0a a5 09 3d 8a 92 d4 3c 91 8d 98 bc 9b 7d b1 bb
       0.03360466 0.025948782 -0.018622192 -0.0054165847
0000a0 e0 f9 f9 bc bf da 04 bd 12 b1 c3 bc 7c 12 22 3d
       -0.030514657 -0.032435175 -0.023888145 0.03956841
0000b0 a4 4c 8b bd 21 1b d0 bd 13 cd 72 bc c6 84 3d bd
       -0.068017274 -0.101614244 -0.014819401 -0.0462692
0000c0 51 3b a9 bd 38 03 7b bd 15 dc 5e 3d d0 b3 1a bd
       -0.08263267 -0.061282367 0.054409105 -0.03776914
0000d0 70 ac 23 3d 0f d8 74 bc 32 ee 96 bc 5d d4 8e 3c
       0.03995937 -0.0149440905 -0.018424127 0.017435247
0000e0 35 ee 7e bb 49 aa 9b 3d 99 a0 8f bd f0 b0 dd 3d
       -0.0038899307 0.07600839 -0.070130534 0.10824764
0000f0 6b 47 89 bc 64 6e 14 be 44 b3 67 bd b7 47 c5 bc
       -0.016757688 -0.14495236 -0.056567445 -0.024082048
000100 b0 61 b3 bb b0 d9 07 bd e6 bd 2a bc a8 31 ce bb
       -0.0054742917 -0.033166587 -0.010421252 -0.0062925406
000110 00 19 fa bc 70 1e 0f be fe 2f 8a bd cf 8a 57 3d
       -0.030529499 -0.13976455 -0.06747435 0.052622613
000120 84 a8 59 3d ae 6f 91 3d f3 53 ae bc ed f0 b2 bc
       0.053139225 0.07101379 -0.021280264 -0.021843398
000130 6b c7 32 bd f6 89 cb bd 6a 12 26 3d 5e 24 69 3d
       -0.04364721 -0.09938423 0.040544905 0.056919448
000140 d7 bf 17 bd 7c a4 21 3d ed 96 ca 3b 15 fa 30 bd
       -0.037048187 0.039463505 0.0061825425 -0.043207247
000150 63 64 58 3d ee 83 a6 bd 7b c3 2f bd b9 ed 51 3d
       0.05283011 -0.08130632 -0.042911034 0.0512521
000160 84 fa 35 3d 8d 09 5a 3d 4e f5 2c bd 8a f6 24 bd
       0.044428363 0.053231765 -0.04222613 -0.04027418
000170 0e e8 17 3d 14 07 24 bd 16 44 a9 bd 48 f8 10 3d
       0.03708654 -0.040045813 -0.082649395 0.03539303
000180 64 92 14 bd 17 2a 04 be de d3 61 3d c3 9f 55 3c
       -0.03627242 -0.12906681 0.055133693 0.013038578
000190 42 b9 3e 3b f0 63 12 bb 2f 09 2b 3c d3 15 b8 3c
       0.0029102121 -0.00223374 0.010439201 0.022471344
0001a0 f5 a7 46 bc be ef 69 3d 0d 55 b3 3d e9 3c ba 3d
       -0.012125005 0.0571134 0.087564565 0.09093649
0001b0 b5 dc be bc 90 78 94 bd e4 4b d7 3c 62 f0 94 bd
       -0.0232986 -0.07249558 0.026281305 -0.07272412
0001c0 0d 63 e9 3c 8e 73 6a 3d 1a 6b 6f 3d c9 5f 80 3d
       0.028489614 0.057239108 0.05845175 0.062682696
0001d0 60 d1 47 bd fc 47 00 3c d6 68 22 3d f9 47 73 3b
       -0.04878366 0.007829662 0.03965076 0.0037121756
0001e0 d9 f5 99 3c 26 f6 2a bd e5 99 93 bc 0f fc c7 bc
       0.018793987 -0.04173865 -0.018017719 -0.024412183
0001f0 16 aa 21 bd 89 cf 82 bd 88 99 75 3d eb 14 69 bd
       -0.039468847 -0.063872404 0.059960872 -0.056904715
000200 b2 d8 d1 3c 03 f5 3e bd da 69 3b 3c c8 b8 78 3c
       0.025616024 -0.04662038 0.011438811 0.015180774
000210 b3 b0 cf 3c 5b eb a6 3b 5f 7d 50 3d 22 69 1d bc
       0.025352811 0.0050939745 0.050900813 -0.009607585
000220 2a 28 96 bc d5 27 5e bd f5 75 37 3d 8a e1 1d bd
       -0.018329699 -0.054237206 0.044790227 -0.03854517
000230 ba 22 59 bc d7 2c 0b bd 96 85 6c 3d a6 78 95 3d
       -0.013252908 -0.03397831 0.057744585 0.072984025
000240 9b 26 8e 3b 35 bc 8f 3c e4 bc c4 bc d4 ba 1a 3d
       0.004338098 0.017545799 -0.024015851 0.03777583
000250 41 57 89 3d e8 b1 d1 bc ce 6c 5e 3d f1 c5 2c bd
       0.067060955 -0.025597528 0.054302983 -0.04218096
000260 8e 83 c1 bd 89 69 86 bb c5 aa 1f bc 8b 2e 99 bb
       -0.0944892 -0.0041019362 -0.0097453045 -0.004674738
000270 bf 09 b3 bc 87 62 1f bd 7c 71 7f bc 98 cb cd 3d
       -0.021855233 -0.038912322 -0.015591022 0.10048598
000280 21 bb 37 bc 5a fa cc bc 26 c8 f7 bc bb 6e c3 bd
       -0.011214049 -0.02502172 -0.030246805 -0.095426045
000290 91 df 2b bd 38 50 87 bb a5 85 07 bd 18 0d a3 3c
       -0.041961256 -0.004129436 -0.033086438 0.019903705
0002a0 3d 4d 34 bd 62 f1 81 3c d3 55 60 bd d0 66 88 3c
       -0.044018973 0.01586217 -0.05476935 0.016650587
0002b0 14 63 fd bd 2a 42 a0 bb 61 19 96 3c 4b 6e 1a bd
       -0.12372413 -0.0048907 0.018322648 -0.03770284
0002c0 9c 91 f5 bd e0 da e4 3d e7 d1 0f bd 57 3b 01 be
       -0.119906634 0.111745596 -0.035112288 -0.12620293
0002d0 b5 fe c5 3b 41 be c9 bb be ad a3 3c e6 5a 87 3c
       0.0060423263 -0.0061567132 0.019980308 0.016522836
0002e0 2e fe be bd 89 62 92 3c cf 1a 90 bd 41 99 23 3d
       -0.09325825 0.01786925 -0.07036363 0.039941076
0002f0 a3 41 91 bc 04 5a 25 bd 83 01 97 3d c1 6f 99 3b
       -0.017731493 -0.04036905 0.07373335 0.0046825116
000300 26 f3 cc bd fd 34 db 3d 4b 19 67 bc a2 94 5b 3d
       -0.100073144 0.10703466 -0.014105151 0.053608544
000310 3e a6 ad 3d d2 c3 0f 3d e2 b2 b2 bc df 9c eb 3c
       0.08478974 0.03509886 -0.021813814 0.028761325
000320 3e 84 22 3d a9 61 c3 bc ef 2f ac bc bc c5 be bd
       0.039676897 -0.023850279 -0.02101895 -0.093150586
000330 55 09 7c 3c 29 52 06 be 21 97 ed 3c 58 8d d9 3d
       0.015383084 -0.13117279 0.029002728 0.10622662
000340 0d 7f b2 bb 55 33 94 bd 25 cd a4 3d 48 30 a8 bd
       -0.0054472745 -0.07236353 0.08046941 -0.08212334
000350 d5 f1 bc 3d 3d 2c 11 bc 41 08 c0 3d 9d 45 55 3d
       0.09225813 -0.008860645 0.09376574 0.05206834
000360 a0 7b ba bd 3b 60 a2 bc 89 53 49 bd 90 96 07 bd
       -0.09105611 -0.019821277 -0.04915193 -0.033102572
000370 96 a9 01 3c 48 e1 16 bd bc 4e a5 3c 1d 69 70 3d
       0.007913968 -0.03683594 0.020179145 0.058693994
000380 e6 db 63 bd 6e 5e 5c 3d 0e 53 d8 3d 27 98 36 bc
       -0.055629633 0.053800993 0.105627164 -0.011144674
000390 b8 5d 8f bd e0 0f 83 bc ba 7c 46 bd 21 de 7b 3d
       -0.07000297 -0.01599878 -0.048458792 0.061491136
0003a0 de 14 c7 bd 85 ed 8f bd a3 b3 93 bc 6c a1 1d bd
       -0.09720777 -0.07027725 -0.018029993 -0.038484022
0003b0 c6 6d f8 bc b7 98 0e bd a4 d6 96 bc 9f fb b8 3d
       -0.030325782 -0.03481361 -0.018412896 0.09032368
0003c0 9a 31 4c bd e0 ae 8f 3d 0f 44 e7 ba 30 1b 1c bc
       -0.04985199 0.07015777 -0.0017644184 -0.009527966
0003d0 b6 34 6a 3d 5c 5a d3 3c 18 65 eb bc 14 80 86 bc
       0.057179175 0.025799923 -0.028734729 -0.016418494
0003e0 21 64 be 3c 6e 51 bf bc ab 38 2d bd eb 4b 63 3d
       0.023241105 -0.023354258 -0.04229037 0.055492323
0003f0 33 b0 36 bc f4 7e 5a bc ff c9 8d 3c ae 75 03 bc
       -0.011150408 -0.013335932 0.017308233 -0.0080236625

net.4.bias f4 [64]
000000 0b 4e c9 bc 5e 80 98 bd a4 98 24 bb 41 8e 0a 3e
       -0.024573347 -0.07446359 -0.0025115395 0.13530828
000010 43 fc 92 3d 31 37 6d bd b9 6b 2f 3d 13 a3 9c 3d
       0.07177021 -0.057913963 0.04282734 0.076482914
000020 e2 c9 4d bd a4 3a 32 3c dd 83 cc 3d c1 ee d0 bc
       -0.05024136 0.010878239 0.099860884 -0.025504472
000030 54 ee 0b be ed d0 26 3d d1 80 9a 3d e4 cb b1 3c
       -0.13665134 0.04072659 0.07544101 0.021703668
000040 43 38 c1 3c 9f 1e cd 3d 7b c4 16 bc 1d 46 58 bd
       0.023586398 0.10015606 -0.009202118 -0.05280124
000050 6e 16 63 3d 3d e2 14 3d 44 ab da bc 0f c2 40 3d
       0.055441312 0.03634857 -0.026692994 0.04706007
000060 bc d3 8c bd d7 94 a3 3c 11 c6 5e bc a7 54 1f bd
       -0.068763226 0.019968433 -0.013597027 -0.03889909
000070 96 a4 f0 3d f8 b9 23 bd 10 7f 5a bd 20 6e b4 3d
       0.11750142 -0.039972275 -0.053343832 0.08810067
000080 6f 1b fd 3d 27 66 80 3a 43 b0 d7 3d b4 85 37 3d
       0.12358748 0.0009796069 0.10531666 0.044805244
000090 aa 4f a1 bc ec 43 36 3d 56 ad de 3b 0b b2 13 3d
       -0.019691307 0.04449837 0.0067955656 0.036058467
0000a0 aa 1e 35 3c a5 42 ba bc 59 b5 85 3d 98 ea f1 3d
       0.011054674 -0.022736857 0.0652873 0.11812323
0000b0 1c 08 83 3c 6d 9e 95 ba d3 dd d3 3d 90 cd 83 3c
       0.015995078 -0.0011415012 0.10345044 0.01608923
0000c0 ad 0b 31 bd 9f c7 ac 3c 9d 0a 8d 3d 0b 4d e4 bd
       -0.043224026 0.02109128 0.0688679 -0.11147507
0000d0 c1 6d ad bd ac 14 03 3d 93 74 b7 bd 9d dc 2f 3d
       -0.084681995 0.032002136 -0.08957782 0.042935003
0000e0 cb 89 77 3a f6 0b af bd 09 7e 93 bd d9 13 91 bc
       0.0009442835 -0.08547203 -0.07201774 -0.01770966
0000f0 90 77 87 ba a8 0f dc 3d 06 00 61 3d 62 d2 a2 bd
       -0.0010335315 0.10745174 0.054931663 -0.079502836

net.6.weight f4 [64]
000000 b7 c0 76 3f 7a 9c 76 3f 8c 7b 6a 3f 1c 78 81 3f
       0.9638781 0.96332514 0.9159477 1.011478
000010 92 8d 6e 3f 61 8d 6e 3f 57 d9 78 3f 1c 2b 64 3f
       0.9318477 0.9318448 0.97206634 0.8912828
000020 a0 d5 7e 3f 91 04 70 3f f0 78 76 3f 8e 31 83 3f
       0.99544716 0.9375697 0.96278286 1.0249498
000030 52 4d 70 3f 29 30 7f 3f 0b 39 6d 3f ba bf 67 3f
       0.9386798 0.9968286 0.92665166 0.90526927
000040 33 d3 74 3f b1 06 73 3f 76 df 6d 3f 76 9d 83 3f
       0.95634764 0.94932085 0.929191 1.0282428
000050 5a 40 85 3f eb 52 78 3f f2 68 83 3f 32 4a 6e 3f
       1.0410264 0.9700152 1.0266402 0.93081963
000060 1f 68 77 3f 8a 31 74 3f 1f a0 69 3f 49 dc 79 3f
       0.9664325 0.9538809 0.9125995 0.97601753
000070 5f 7f 7a 3f e1 6d 76 3f 47 90 6f 3f 50 41 74 3f
       0.978506 0.9626141 0.93579525 0.9541216
000080 a0 01 6e 3f 80 e7 73 3f e3 3f 69 3f 32 51 81 3f
       0.9297123 0.95275116 0.9111311 1.0102904
000090 e9 e8 81 3f 0a fe 75 3f 51 4c 81 3f 39 d8 7d 3f
       1.0149204 0.9609076 1.0101415 0.99158055
0000a0 14 04 82 3f c8 c2 70 3f 0a 6b 7a 3f 7e 05 7b 3f
       1.0157495 0.9404721 0.9781958 0.98055255
0000b0 0a 9c 6c 3f b3 07 6c 3f 19 0a 68 3f 3c 25 69 3f
       0.92425597 0.9219925 0.9064041 0.9107244
0000c0 5f ff 74 3f 7b f6 77 3f bd 30 85 3f 26 3c 6c 3f
       0.95702165 0.96860474 1.0405499 0.9227928
0000d0 e2 f9 7d 3f 59 8e 76 3f d5 50 7b 3f 1e dc 82 3f
       0.99209416 0.96310955 0.98170215 1.0223424
0000e0 fd 79 7d 3f 3e 72 6d 3f 4d 03 74 3f 65 37 79 3f
       0.99014264 0.92752445 0.95317537 0.9735015
0000f0 9f 1f 81 3f 42 40 79 3f 0f 4a 79 3f 73 60 70 3f
       1.0087775 0.97363675 0.9737863 0.9389717

net.6.bias f4 [64]
000000 02 a7 19 bd 39 77 0c bd 3b c2 a8 bd 47 e9 a2 3b
       -0.037512787 -0.034293387 -0.082401715 0.0049716565
000010 14 bb 23 3b 79 6b 2b 3c 50 f9 d8 3d b5 ac 12 3b
       0.0024983333 0.010462635 0.105944276 0.0022380773
000020 f6 f4 c1 3c 62 ee 1b 3d 99 cb b1 bc 5b 92 32 3c
       0.023676377 0.038069136 -0.021703528 0.010899152
000030 ef 12 60 bc f9 cf 2b bd d9 0e f5 3c 3d d5 5b ba
       -0.013676389 -0.041946385 0.029914306 -0.0008385962
000040 37 4c 1f bd b9 d8 90 ba 2c 30 16 3d 01 f7 80 3d
       -0.038891044 -0.0011050917 0.036667034 0.06297112
000050 06 20 5b 3d 1b 70 71 bc 3c 42 0e 3c 02 84 1f 3d
       0.053497337 -0.014736201 0.008682784 0.03894425
000060 03 42 a1 3b cf 5f a0 bc 92 44 8b 3d 2d 78 90 3d
       0.0049211993 -0.019576935 0.06800188 0.07054172
000070 88 1e 22 3d d5 ba 59 bc 1c b6 67 bd c9 c7 45 bc
       0.039579898 -0.013289173 -0.056570157 -0.012071558
000080 a1 5c 12 bd 85 1c e7 3c f3 37 ad bc b6 d2 8f 3d
       -0.03573287 0.028211841 -0.021144843 0.07022612
000090 7f 00 09 be 34 a1 df 3d db 4b 07 3d 73 80 54 bc
       -0.13379095 0.10919419 0.033031326 -0.012970078
0000a0 44 ce 50 3d 65 1d a8 3d 25 f5 c3 bc 4a 70 6e 3d
       0.05097796 0.082087316 -0.023920605 0.058212556
0000b0 f5 8c a3 bd 82 e0 e2 3b 3d 21 4c 3c 0a d1 82 bb
       -0.0798587 0.006923736 0.0124590965 -0.0039922046
0000c0 ec 9f 59 3d f8 5a 23 bd e0 f7 0c 3c 76 64 52 bb
       0.05313103 -0.039881676 0.00860402 -0.0032103336
0000d0 13 2a 36 3d 92 e7 eb bd e9 bb e0 bd 11 40 db 3d
       0.04447372 -0.11518778 -0.10973341 0.10705579
0000e0 1f a9 29 bd e3 a7 3d bd 46 25 51 bd ce 66 39 bc
       -0.041421052 -0.046302687 -0.051060937 -0.011316014
0000f0 88 fb a0 3c e9 9f da 3b f1 88 44 bd b4 2d bb bc
       0.01965119 0.006671895 -0.04798216 -0.022848941

net.6.running_mean f4 [64]
000000 9f 94 02 3f 12 ca 4e 3e fe f2 a7 3e 23 53 23 3f
       0.5100803 0.20194271 0.32802576 0.6379873
000010 7f 3e b1 3e af 07 bc 3e 3a c3 f9 3e 67 32 e2 3e
       0.34617993 0.36724612 0.4878176 0.4417908
000020 ac 7d f4 3e b5 f7 a5 3e 19 9c 0f 3f 7a b7 10 3f
       0.4775213 0.32415548 0.5609756 0.56529963
000030 e0 d6 7d 3e fa 31 c9 3e 06 21 10 3f 84 3d c3 3e
       0.24789 0.39295942 0.5630039 0.3813287
000040 ba bc c2 3e bb a5 b7 3e 30 ae b0 3e bf 8a 16 3f
       0.38034612 0.3586863 0.34507895 0.5880546
000050 51 8d eb 3e e7 3a a6 3e be 7d d5 3e 6e a9 a9 3e
       0.46006253 0.32466814 0.41697496 0.33137077
000060 ab 91 d9 3e d6 17 ad 3e 8a c8 db 3e 80 f5 8f 3e
       0.42493948 0.33807248 0.42926437 0.2811699
000070 4a 7f 00 3f 68 37 9a 3e 74 ef 98 3e dd 14 df 3e
       0.5019423 0.30120397 0.29870188 0.43570605
000080 f3 e7 01 3f 5d 94 94 3e 70 9f c1 3e 61 93 03 3f
       0.5074455 0.29019442 0.37816954 0.5139676
000090 5a 69 b5 3e 14 49 f1 3e 07 1d f2 3e 77 0c d9 3e
       0.3543194 0.47126067 0.4728777 0.42392322
0000a0 ee 69 10 3f 01 d9 03 3f 33 26 ab 3e 8a fe 0c 3f
       0.56411636 0.51502997 0.3342758 0.55075896
0000b0 ee 48 a3 3e dc 64 b8 3e c7 c7 cb 3e b9 7c b9 3e
       0.31891578 0.3601445 0.39800856 0.36227968
0000c0 50 e8 99 3e e0 51 05 3f 5d 5c 26 3f c6 48 a6 3e
       0.30060053 0.52078056 0.64984685 0.32477397
0000d0 b9 7f 7c 3e b2 f6 cd 3e d6 62 de 3e e5 b4 03 3f
       0.24658097 0.40227276 0.4343478 0.514479
0000e0 a0 47 91 3e fe 26 a2 3e 36 14 d9 3e 1a d2 a1 3e
       0.28374958 0.31670374 0.42398232 0.31605607
0000f0 42 dd d6 3e 1b e5 c7 3e a2 ca e1 3e 51 5c 9e 3e
       0.4196568 0.3904198 0.4409991 0.30929807

net.6.running_var f4 [64]
000000 95 9d 0e 3f c3 67 de 3d 58 c5 5d 3e fb 32 32 3f
       0.557092 0.10859635 0.21657312 0.6960904
000010 29 6a 80 3e c7 21 8a 3e 7e f6 14 3f 77 38 fb 3e
       0.25080994 0.26978895 0.5818862 0.49066517
000020 21 7a f1 3e 2b 85 6a 3e d3 f9 ea 3e 98 2c 32 3f
       0.4716349 0.22902362 0.45893726 0.69599295
000030 06 25 8b 3e 5d 8d bf 3e 15 1d 07 3f b6 0a 8f 3e
       0.27176684 0.3741254 0.5277875 0.2793786
000040 ff 1c 8c 3e 52 fd 99 3e 8d 51 90 3e 8f 83 3f 3f
       0.27365872 0.3007608 0.28187218 0.7481012
000050 10 cb 21 3f 04 7b 88 3e 2d 10 1e 3f 41 6b a6 3e
       0.63200474 0.26656353 0.6174343 0.32503703
000060 58 87 b5 3e 88 a1 ed 3e 47 78 d4 3e d7 db 67 3e
       0.35454822 0.464123 0.41498014 0.22642456
000070 fb 8f df 3e df 74 3f 3e 7b c3 63 3e a8 fb bd 3e
       0.43664536 0.18696927 0.22242539 0.3710606
000080 ea 16 e8 3e f9 c1 97 3e 25 ad 73 3e 70 68 e2 3e
       0.45329982 0.29640177 0.23796518 0.44220304
000090 05 b2 a4 3e bc 17 1c 3f 7f 08 c7 3e 69 3d ec 3e
       0.32167068 0.60973716 0.3887367 0.46140602
0000a0 53 7b 0b 3f f4 ba fd 3e 0e 99 85 3e 55 f9 38 3f
       0.5448505 0.49556696 0.26093334 0.7225545
0000b0 bd 9e 6b 3e a9 b9 9a 3e 6c f1 b5 3e 95 6c 9b 3e
       0.23009773 0.30219772 0.35535753 0.3035628
0000c0 39 89 b3 3e ba 83 eb 3e 6c 9b 47 3f b9 21 9a 3e
       0.3506563 0.45998937 0.7797153 0.30103853
0000d0 f7 b6 6d 3e ed f6 a4 3e d1 4d 18 3f 10 d6 1e 3f
       0.23214327 0.3221964 0.5949374 0.62045383
0000e0 1d 84 7b 3e 36 3d 83 3e 97 9f d9 3e a2 e5 b8 3e
       0.24562116 0.25632638 0.4250457 0.36112696
0000f0 bb 48 c6 3e 56 a9 a9 3e ea 40 cb 3e 3e df a4 3e
       0.38727364 0.33137006 0.39697963 0.3220157

net.8.weight f4 [32, 64]
000000 53 8c 86 bd b6 76 be 3d 7f e8 ad 3d e1 22 31 3d
       -0.065697335 0.09299986 0.08491611 0.043246154
000010 68 5a ae bd 28 68 2f bc 2f 66 9c 3d ee b9 b6 3d
       -0.085133374 -0.010705985 0.076366775 0.08922182
000020 a6 18 c1 bd c1 39 72 bc 20 d6 57 bd 3c 2b df bc
       -0.094285294 -0.014784277 -0.05269444 -0.027242295
000030 c1 3d 42 3c 9a 30 13 3e b0 43 99 3b 93 b9 a0 bd
       0.011855544 0.14374009 0.0046772584 -0.078478955
000040 54 78 19 be e6 d4 f0 3d ba 16 23 be 55 5a 2c 3c
       -0.14987308 0.11759357 -0.15926638 0.010519584
000050 7e 6f 91 3d f6 52 bf bd 8f 18 0f bd 20 eb b4 bd
       0.071013436 -0.093419954 -0.03493553 -0.08833909
000060 5e 5e 3c bd 8d 8c f0 3c 06 10 f9 bd f1 bb a9 bd
       -0.045988433 0.029363895 -0.12161259 -0.082878
000070 11 cc 66 3d d3 a0 f2 bc cf 6a f0 bb cb 55 18 bd
       0.056346957 -0.029617703 -0.0073369513 -0.037191194
000080 18 e5 8a bd 8d 33 e3 3d 2b f7 a9 3c 5f b0 78 3c
       -0.067819774 0.11093817 0.020747742 0.015178769
000090 e6 3e 1f bd 77 7a 87 3c 88 ae c1 bd d3 ee d7 3d
       -0.038878344 0.016537888 -0.09457117 0.10543599
0000a0 d1 66 e8 bd f4 bb e3 bd ed 58 84 3c 2d a6 18 3d
       -0.11347736 -0.111198336 0.016155684 0.037267853
0000b0 7d 60 d8 bd 61 04 6a 3d 40 22 6c 3b 69 d6 2e 3d
       -0.10565279 0.057133082 0.0036031157 0.042684946
0000c0 48 ed 2b bd ad 67 f8 3b a9 02 e7 3b f1 1e 9d b9
       -0.041974336 0.0075807185 0.0070498777 -0.00029968427
0000d0 32 61 43 bc 94 7a dd bc 59 d5 01 3e a5 b1 9d 3d
       -0.011925029 -0.027035989 0.12679042 0.07699899
0000e0 c9 b4 5a 3d 63 48 d4 3b e9 38 37 3d 25 64 05 3e
       0.053395066 0.0064783557 0.044732008 0.13026483
0000f0 93 43 29 3e 4e 7a 5b bd 08 35 a8 3d b4 8b 0e 3e
       0.16529684 -0.053583436 0.0821324 0.1392048
000100 2e 03 d3 3d ec 0c 01 3e 3a b5 96 bd cc 3e df bd
       0.10303341 0.12602586 -0.07358785 -0.109006494
000110 36 b4 61 bd 7c 1e 90 3d ea c1 5a 3d 38 8d f3 3d
       -0.055103503 0.070370644 0.053407587 0.1189217
000120 eb 7b 20 3e b7 39 ff 3d b9 38 72 bd 7e c8 bd bc
       0.15672271 0.1246218 -0.059136126 -0.023166891
000130 26 be 69 3c 5b db e3 3d c9 e9 0a 3e 9f 8c a9 bd
       0.014266526 0.11125823 0.13565744 -0.082787745
000140 0f 13 c1 3d 41 b2 ff 3d 72 cd cb bd 6e 26 19 bc
       0.09427463 0.12485171 -0.09951295 -0.009347541
000150 53 a8 00 3e bf 3b 12 bd c2 7c ad 3d fc 77 fb bc
       0.1256421 -0.03570151 0.08471061 -0.030696861
000160 c5 69 4d bd 6e 55 f1 3d 09 eb 9f 3d da 02 29 3c
       -0.050149698 0.117838725 0.07808501 0.010315621
000170 56 6c 8a bd 3e 8a 4c bd 52 83 53 bd 24 e5 e5 ba
       -0.06758945 -0.049936526 -0.05163891 -0.0017539603
000180 f3 91 ea bc 07 f7 0a 3e 58 18 10 bc 56 79 db bc
       -0.028634047 0.13570796 -0.0087948665 -0.026791256
000190 72 80 df 3c 11 6d ed 3d d3 e6 0b 3e 0f ee a4 bd
       0.027282927 0.115930684 0.13662271 -0.080532186
0001a0 48 da 04 bd 89 c2 2a 3d 02 1b b4 3d 63 8b 7b bc
       -0.03243473 0.04168943 0.08794214 -0.015353057
0001b0 79 2d 37 ba 86 80 97 3d 68 70 ed 3d 0e f8 62 bb
       -0.0006987672 0.07397561 0.115937054 -0.0034632715
0001c0 d4 71 86 bd f8 2a e7 3d 77 61 06 bd c1 e7 99 bd
       -0.0656468 0.112874925 -0.032807793 -0.07514907
0001d0 80 fb 85 3d e9 ad 81 bd 58 89 88 bd ac e4 78 3b
       0.065421104 -0.06331999 -0.06666821 0.0037978096
0001e0 72 7f b8 ba 50 8b a0 bd 06 e7 19 bd 05 40 df 3d
       -0.0014076068 -0.07839072 -0.037573837 0.10900883
0001f0 0e 09 2d bd 01 66 df bd a0 a1 4b 3c 7a fc cc bc
       -0.042244963 -0.109081276 0.012428671 -0.025022734
000200 20 f4 8b 3c 3b 1a d4 3d 0c b8 41 bd 3b 87 38 bc
       0.017084181 0.103565656 -0.04729466 -0.01126271
000210 19 1f 15 bc ce 21 c0 3d fa d0 86 3d c2 f8 64 3c
       -0.009101653 0.09381448 0.06582828 0.013975324
000220 86 bb 4d bd 81 eb 81 bc 87 55 52 bd d2 57 d7 bc
       -0.050227664 -0.015859367 -0.051351096 -0.026286993
000230 f4 5e be bc 71 3b 2d 3e 16 20 ec 3b 85 09 1f bd
       -0.023238637 0.16917206 0.0072059734 -0.038827438
000240 8e 48 e5 3d 2a e4 31 3d 40 9d b7 bd 2e cc 10 bc
       0.11195479 0.043430485 -0.0896554 -0.008837743
000250 fa 8b 85 3d 77 36 30 be 56 4c 2c bd 7d dd 45 3c
       0.06520839 -0.17208277 -0.042064987 0.012076733
000260 30 58 01 bc ec 9b 7d 3d 2a 04 99 bd 17 7e 40 bd
       -0.007894561 0.061916277 -0.07471497 -0.04699525
000270 36 73 20 be f7 45 e3 3d 54 09 10 3d d6 5b 45 3d
       -0.1566895 0.11097329 0.035165146 0.048183285
000280 26 08 56 bc 0b c6 17 3d fb b5 4c 3e ff 5d 1a bd
       -0.013063466 0.037054103 0.19991295 -0.037687298
000290 23 fd fb bc 94 27 79 3d 52 15 ed 3d e4 6f 83 bc
       -0.030760353 0.06082876 0.11576332 -0.016044565
0002a0 bb f2 79 3a 6f 24 b6 3d 8f 84 f2 3d b1 e6 0d bd
       0.0009534766 0.08893668 0.1184169 -0.034643833
0002b0 c4 04 ea 3c c4 e7 62 3d 73 2b 10 bc a5 c6 0e be
       0.028566726 0.05539681 -0.008799422 -0.13942964
0002c0 2c 17 9b bd c2 38 88 bc 81 1f 02 3c ba 59 86 bd
       -0.07572779 -0.016628627 0.007942081 -0.06560083
0002d0 40 be e6 3d 72 da 6d 3d 86 85 cc 3d 0e ad 24 3d
       0.11266756 0.058069654 0.09986405 0.0402041
0002e0 a8 79 23 be 0f 10 81 bd f8 ad a1 bd c6 8e cf 3d
       -0.15964377 -0.06301891 -0.0789451 0.10134654
0002f0 3e 9e 6c 3c 4b 06 a7 bc e8 2f 48 3d a3 4f d4 bc
       0.014442025 -0.020388743 0.048873812 -0.02591688
000300 a7 04 21 3d f4 a3 0b 3e 20 00 d9 bd 20 df be bd
       0.039311077 0.13636762 -0.10595727 -0.093199015
000310 d3 66 6a 3d 94 a2 4f 3d a5 b5 a5 bd 7e f0 8a bd
       0.057226967 0.050692156 -0.080912866 -0.067841515
000320 d3 3e a3 3d 7b f7 64 bd d5 a7 52 be 30 d3 9a bd
       0.07970967 -0.05590008 -0.20571835 -0.07559812
000330 ee c6 47 3d b9 f9 8f 3d d4 64 c0 bd c7 8c 04 3d
       0.0487737 0.07030053 -0.093942314 0.03236082
000340 86 7b 8c bc 36 ff 8f 3c 5d b4 e2 3d 53 0c ea 3d
       -0.017148744 0.017577749 0.11069558 0.11428132
000350 35 cc cb bd 0f 7b e4 3d 1b 20 08 be 05 d0 c7 3d
       -0.09951059 0.11156284 -0.13293497 0.097564735
000360 40 55 9e 3d 8f ad 95 bd 3b bb 3f 3d f4 c2 84 3d
       0.07731104 -0.07308494 0.046809416 0.06482497
000370 cc 84 99 bd fb b8 a6 bd 4c 2b 54 3c ea 08 52 3d
       -0.07496032 -0.08140751 0.012949776 0.051278032
000380 2f 5a a9 3c ac de b3 3d dc 29 d8 bd 7a 89 42 3e
       0.020672886 0.08782706 -0.10554859 0.18997756
000390 0a 13 98 3d 5f ca a7 3c 0d 2c 2e be 4f 6a 77 bd
       0.074255064 0.02048224 -0.17008992 -0.06040412
0003a0 4c 97 f2 3d 9a 86 07 3e 02 9b e5 3d a1 a9 a0 3d
       0.11845264 0.1323494 0.11211206 0.07844854
0003b0 2e 6b 2b bd cb 2b 86 3d 9b 5e 8d 3d c9 a1 7b bd
       -0.04185026 0.065513216 0.0690281 -0.061433587
0003c0 1e 77 2d bb 33 0a 5d bd 78 26 07 bd e8 ce 19 bd
       -0.0026468704 -0.053964805 -0.03299567 -0.037550837
0003d0 46 e8 18 bd 21 89 8d bd f6 07 c8 bc c1 d7 05 3e
       -0.03733089 -0.06910921 -0.024417859 0.13070585
0003e0 f5 b8 89 ba 5a 38 15 be a9 a5 07 be 8d 5e 3f bd
       -0.0010507392 -0.14572278 -0.13246788 -0.04672103
0003f0 08 aa d7 3d 5a d8 9a bd c1 bc 96 bd f1 cb a5 bd
       0.10530478 -0.07560797 -0.07360221 -0.08095539

net.8.bias f4 [32]
000000 ff 62 c6 bd ce 4e 62 3d 88 6a 54 3e 5f 7a d1 3b
       -0.09686851 0.055250935 0.20743763 0.0063927616
000010 21 95 4d 3e 87 7e 4d 3e 5c 25 b4 3d 9d cb 1e 3e
       0.2007642 0.20067798 0.08796188 0.1550736
000020 0a 8c 32 3e 2d 89 1b 3c 03 98 85 bc fb a3 0c 3d
       0.17436233 0.0094931545 -0.016307836 0.03433607
000030 ac 52 07 3e b1 df a9 3c 79 47 be 3c 58 19 b9 3d
       0.1321513 0.020736547 0.02322744 0.09038037
000040 1b d8 05 3e be ca c2 3d b5 8b a5 3d 20 5d 00 bd
       0.13070719 0.09511326 0.080832876 -0.03133881
000050 9a 8a 5a 3c 1b 5b e3 3d ee b5 57 3e 5f 88 0c 3c
       0.013338709 0.11101361 0.21065494 0.008577435
000060 99 80 12 be 88 9d fa 3d 1b eb 84 3d d8 98 d2 3d
       -0.14306869 0.12237078 0.06490155 0.10283059
000070 59 85 b8 3c 70 f2 80 3d ae e9 48 bd 49 b8 01 be
       0.022524523 0.06296241 -0.04905098 -0.12667955

net.10.weight f4 [32]
000000 09 eb fa 3e 90 a0 01 3f 41 28 cc 3e 2e 75 c3 3e
       0.49007443 0.50635624 0.3987446 0.38175339
000010 28 14 d5 3e 0c 4c cc 3e 7b 28 c7 3e c7 2a f5 3e
       0.4161694 0.3990177 0.38898072 0.478842
000020 1a d4 d5 3e f0 5e ab 3e d1 da ef 3e 76 90 e8 3e
       0.41763383 0.3347087 0.4684663 0.45422715
000030 f3 d4 b6 3e 64 ce 94 3e a3 88 0e 3f eb 09 a4 3e
       0.35709342 0.29063714 0.5567724 0.32038817
000040 f4 3c d7 3e 73 e1 b6 3e bc e7 e1 3e 3a e4 c7 3e
       0.4203869 0.3571888 0.44122112 0.3904131
000050 73 0b c5 3e a0 00 e2 3e 73 3a c2 3e da 72 0e 3f
       0.38485298 0.44141102 0.37935218 0.55644
000060 ce bb ca 3e 6a ee f7 3e d2 c3 cf 3e c9 78 fb 3e
       0.3959641 0.48424083 0.40579087 0.4911559
000070 00 d8 ef 3e 3b fd df 3e 9a c8 a8 3e 94 9f 06 3f
       0.46844482 0.43747887 0.32965547 0.52587247

net.10.bias f4 [32]
000000 88 ea e3 3e 31 e9 e5 be 3d 37 fe 3e 05 2c 04 3f
       0.4451487 -0.44904473 0.49651518 0.5162967
000010 3f 6d 20 3f 7e 3e 1f 3f 3f 59 08 bf b1 67 d5 3e
       0.62666696 0.6220473 -0.5326118 0.41680673
000020 4b 0e d6 3e b2 8a 03 3f b1 53 cf be 69 8c e3 3e
       0.4180778 0.5138351 -0.4049354 0.44443062
000030 b6 df e9 3e 3f 67 1e 3f 4f 9b d2 be 87 af fd 3e
       0.4567849 0.6187629 -0.41134116 0.4954798
000040 f4 21 03 bf 09 b8 fd 3e 67 c3 fb be 89 52 e8 3e
       -0.51223683 0.4955447 -0.49172518 0.4537547
000050 c4 1c 25 3f 00 c3 07 3f 0e 73 0f 3f d6 bb f5 be
       0.6449702 0.5303192 0.56034935 -0.4799487
000060 94 66 e2 3e 70 5b f5 be d7 34 e0 3e c1 30 d4 3e
       0.44218886 -0.47921324 0.43790314 0.41443446
000070 f6 3f e0 be af a8 0b bf 97 ee 03 3f b6 89 cc be
       -0.43798798 -0.54554266 0.51535934 -0.39948815
