src/final_models/best_custom_model.pth (torch, 821966 bytes, 21 tensors)

net.0.weight f4 [512, 50]
00000000: ce97 a63f 52fd 00bf 45f3 d13e eca1 91be
00000010: edec 1b3e 4bb6 a63f f439 c93e 05e2 b7be
00000020: 0750 ba3e 6f64 603f b551 adbe 31fe aabe
00000030: a6c3 b53f 7791 0f3f 2676 9bbf ad8e 143f
00000040: 477f 7a3e 517f 52be 8b51 a1be 48cd 8a3f
00000050: 8b96 27bf 5700 0bbd b201 82bf 67c7 2a3f
00000060: c121 d13f 4fc7 2e3f d41b 233f d60c f83c
00000070: c10d 74bf 718d ed3e 7db5 5dbc 35df 8c3d
00000080: f710 023e b217 57bf 7bea a8bd aad8 ad3c
00000090: 648d e6bf 68cf c93d 26e6 863f 7482 fbbe
000000a0: 0f24 bc3e 1e29 9e3f c8cf d4be b241 58be
000000b0: f88e d5be 3c1e 29be 4994 c9be 7f44 223e
000000c0: b087 afbf 736d 90bf 74ff 263f 5ac4 e03e
000000d0: 00d4 9fbf d00e 0d3e fa29 0ebf fb38 1b3f
000000e0: 4f48 95be eeb3 8bbf 6e4e dcbf 641a 463f
000000f0: a161 b4be fc12 0b3f fb45 ba3c 6dec 473f
00000100: c815 8dbf 9fd6 e7bf a9b6 5cbf ae3e 77be
00000110: f6d7 883f 5ced 363f fbaa 12c0 be5b 443f
00000120: 4783 c83f 53ab 513f 3738 5b3f b709 90bf
00000130: 1651 a63d 5c93 fdbd 491c 47bf 6bac aabe
00000140: 6182 1fbd f154 39be 0edf 81be a66e f43e
00000150: 5f7c 603f edac 3dbe 9a20 d63e b98e 5b3f
00000160: 47a5 143e ba83 b8be 82f2 c4be d990 b23e
00000170: fd6b 8b3f 1828 87bf 29df 7bbe 991b f9bd
00000180: 61e4 abbe 3318 94be ae96 3ebf 8cf7 11be
00000190: 274c efbf 5aa3 d3bf 32a8 923d 57d8 753e
000001a0: bedc 54bf 150c cc3e a2a9 adbe 5968 2abc
000001b0: 57f9 b7be 3f59 623f 569d e33e 707f bd3e
000001c0: 994f d53e 552f 81bf 4f06 f23d 6388 95bf
000001d0: 0fcb 423f 2beb a7be ae0b e13f 738c 20bf
000001e0: 2371 2c3e 0054 b53e 978e 0d3f 2572 e6bd
000001f0: eee1 f6bf 1e34 aebd a350 06bf 5761 9cbe
00000200: e12d 90be 7e54 62bf 3e0e fdbc 25c3 b33a
00000210: b605 aa3d ffb6 aa3f d0ea 423d 6069 51bf
00000220: 1174 a0be 3428 233c 46c8 0140 aae2 8a3e
00000230: 9003 03be 8269 6a3e 6c75 a53e 9ccb dd3c
00000240: 4d63 73bf b651 373f 9151 d83e 542c 523e
00000250: 934d 803f d5f9 903f 2015 d6be b5bd 993f
00000260: 5b7a 843e a104 aebe 3edb 053e 2992 9ebf
00000270: 73d8 883e 19d7 1c3f 8f07 32bf e04b f93e
00000280: dd5c b0bf 8550 4cbf 1826 013e 3afd a1be
00000290: 15f9 8bbe 2f63 733f 25e1 b03f 6bf6 dcbe
000002a0: 63b0 6fbe 9c4c 3cbe 175c c63e 29b4 7b3f
000002b0: de67 833f 5c85 2d3e d7de 4b3f c84a 59bf
000002c0: 07db c93f aef8 f7be e6b4 84bf 1526 c83e
000002d0: 42f6 9bbf 4ab3 163f 74e4 8fbf ddaa 303f
000002e0: 5925 12bf 3c0b 9ebf a508 c4be 3e5e 14c0
000002f0: 76bc 11bf adef abbe 7a82 8bbe 406a 87bf
00000300: d5a1 67bf 7f92 883f 68b8 d13e 5b5e 503f
00000310: 4f65 17bf de8b 2e3e bae4 993e 75fc d13e
00000320: 7e78 ae3f 6b81 8bbe 8e77 c0bf 7eea 8d3e
00000330: 99d6 5e3e 8e81 04bf 86ea 03be 0cb3 383f
00000340: 5642 74bf 6843 6f3f 5b28 2abe da4b c9bd
00000350: cd0e 83bd 18e5 1ebf 74e4 4dbf 9e57 7dbf
00000360: dd26 14bf b3ef 533f 9f24 933f 8ddc 123f
00000370: 057b 393d 4593 9a3f eeab d73b a0a5 8fbf
00000380: fec3 f2bd 1f6f a6be 5525 09bf 7595 423e
00000390: 81f7 a2bf 7bfa 83bf f3e6 11be f76f 69be
000003a0: c8f0 99bf 98c0 46bf 0aee 41be dc0f 59bf
000003b0: 6f9b d9be 2af1 a03f 4a9b d83e 96a9 073d
000003c0: 2d1b 23bf c12c 8ebe f8aa 91be 7515 9fbf
000003d0: 0393 f43e 2ae2 87bf e335 433f 6f79 81be
000003e0: 1922 66bd 3b6b bd3f 600e 7f3e 5b6d 963f
000003f0: b64a 953c a9ed d93e 957f 8cbe c287 6abf
1.3015077 -0.50386536 0.41005912 -0.2844385 0.15227099 1.3024381 0.39302027 -0.35914627
0.3638918 0.8765325 -0.338514 -0.33397058 1.4200332 0.56081337 -1.2145431 0.58030206
0.24462615 -0.2055638 -0.31507525 1.0843897 -0.65464085 -0.03393587 -1.0156767 0.66710514
1.6338426 0.6827287 0.6371434 0.030279558 -0.95333487 0.46396974 -0.01353204 0.06878511
0.12701784 -0.8402053 -0.082478486 0.021221478 -1.8011899 0.09854013 1.0538986 -0.49122965
0.3674626 1.2356298 -0.41564775 -0.21118811 -0.4171064 -0.1651544 -0.39370945 0.15846442
-1.3713284 -1.1283401 0.6523354 0.43899804 -1.2486572 0.13775182 -0.555328 0.6063382
-0.2915673 -1.0914285 -1.7211435 0.7738402 -0.35230735 0.5432584 0.022738447 0.7809513
-1.1022272 -1.8112372 -0.8621622 -0.24145004 1.0690906 0.7145593 -2.2916858 0.7670249
1.5665063 0.81902045 0.8563265 -1.1252965 0.08120935 -0.12381622 -0.77777535 -0.3333467
-0.0389427 -0.18098809 -0.2536549 0.47740668 0.87689775 -0.18522997 0.41821748 0.8576465
0.14516173 -0.36038 -0.3846627 0.34876135 1.089233 -1.0559111 -0.24596848 -0.12163467
-0.33572677 -0.28924713 -0.7444867 -0.14254588 -1.8695115 -1.6534226 0.07160987 0.24008308
-0.83149326 0.39852968 -0.33918482 -0.010400855 -0.3593242 0.8841743 0.44455975 0.3701129
0.4166229 -1.009257 0.118176095 -1.1682247 0.7609109 -0.32796606 1.7581689 -0.6271431
0.16840033 0.3541565 0.552957 -0.1125224 -1.9287698 -0.08506034 -0.5246679 -0.30543014
-0.28160003 -0.88410175 -0.03089058 0.0013714774 0.083018705 1.3337096 0.047587216 -0.81801414
-0.31338552 0.009958316 2.0278487 0.27126056 -0.12794328 0.2289181 0.32316148 0.027074628
-0.95073396 0.71609056 0.4224973 0.20524722 1.0023674 1.1326243 -0.41812992 1.2011019
0.258746 -0.33987907 0.13071916 -1.2388355 0.26727638 0.6126571 -0.69542783 0.486907
-1.377834 -0.79810363 0.12612188 -0.3163851 -0.27338472 0.9507322 1.3818709 -0.43156752
-0.2340713 -0.18388599 0.38742134 0.9832178 1.0266073 0.16945404 0.796369 -0.8487973
1.5769967 -0.48431915 -1.0367706 0.39091554 -1.2184527 0.58867323 -1.1241593 0.69010717
-0.5708824 -1.2347178 -0.38287845 -2.318252 -0.56928194 -0.33581296 -0.27247983 -1.05793
-0.9048131 1.0669707 0.40961003 0.81393975 -0.5913896 0.17045543 0.30057317 0.41012922
1.3630521 -0.27247176 -1.5036485 0.27717966 0.2176155 -0.51760185 -0.12882432 0.72148204
-0.9541372 0.9346223 -0.16616957 -0.09828921 -0.063993074 -0.6206832 -0.80426717 -0.9896182
-0.578718 0.82787627 1.1495551 0.57367784 0.045283336 1.2076193 0.006581775 -1.122242
-0.11853789 -0.32506654 -0.5357259 0.19002326 -1.2731782 -1.0310816 -0.14248256 -0.22796617
-1.2026606 -0.77637625 -0.18938461 -0.84789824 -0.425014 1.2573597 0.42305976 0.033120714
-0.6371334 -0.2776852 -0.2845075 -1.2428423 0.4776841 -1.0615895 0.762541 -0.2528796
-0.05618486 1.4798349 0.24907827 1.1752123 0.018224102 0.42564133 -0.27441087 -0.916134

net.0.bias f4 [512]
00000000: a260 053e be69 d83c 140f 023c 51f2 6d3c
00000010: f658 053e beea 9c3d 5b65 c3bd 1326 90bd
00000020: 4eca cebd 654f d23d b189 273c 47ac e0bd
00000030: 9aea 9ebd accb fdbd 4ede 5d3d c996 f73d
00000040: dda1 8cbc eedb aabd f135 e0bd 467e 8dbc
00000050: 9a5d 5c3d 107b 0ebe 005a 2a3d 028b 8a3d
00000060: 850e e0bd 24ba d4bd 0a5e 013e a195 d2bd
00000070: 3e51 febd 1da9 103c fdf5 ef3d 653a 1f3d
00000080: eebc 0dbe 24a6 0ebc 663f e63d 0425 64bd
00000090: c8fe 0d3e 16cf 7a3c dc81 d13d 8d9f 043b
000000a0: 7830 3c3d 36c3 9cbd f7ef b63d 0c7c b0bd
000000b0: 01ff 10be 5205 f8bd 25eb a23d 37b6 06be
000000c0: 502f 8bbd ccf3 09bb f2d5 cebc 3f4e eebb
000000d0: 503f 3f3d 4c6f abbd dba2 f03d 7610 00bd
000000e0: fd1b 6cbd 472e 823d 74a6 6c3d 8ed9 ce3d
000000f0: cc18 6fba 3e1a 1d3d b77b dcbd 2342 11be
00000100: 129f c13c f041 11bd 6e1b 9abd db5b 023e
00000110: 1daf 033e a67c 6fbd 7dcf c4bd 448c 4a3d
00000120: eb2c 9bbd 4071 c9bd 339a babc f37f 6fbd
00000130: 88af a4bc ff25 3a3d 53e2 fdbd c4cd e1ba
00000140: 452e 19bc 24b1 53bd 2233 b5bd 9ae6 6a3d
00000150: b8f9 fb3d 30d6 67bd 69ab 1c3d d84b 5a3d
00000160: 7aa5 40bd f69e c93d 9118 d5bd 6974 75bd
00000170: 7ca3 9b3d 6ac4 053d 73bc a5bd bdee e23d
00000180: 698d fe3d 07f2 a43d 895d 2c3c 04f6 f43d
00000190: 7069 f23d 2e3b 06bd cc2b 86bc 679f 3a3d
000001a0: e799 643d 8a49 cdbd 9153 60bc e411 833d
000001b0: 51ac 03be 0ac9 0e3e a641 23bd 6c62 06be
000001c0: 652d f03d 38ab 053e e0f9 0c3e 5e11 85bd
000001d0: 5e04 1ebd 3788 52bc 9886 083e a3be d9bd
000001e0: e8f8 f63d 65ad 31bd d93f b43d dcd1 12bd
000001f0: fc31 b23d 404f e8bd 20a8 b0bd 9dbf 37bd
00000200: 1cbf edba 7b57 9b3b fb87 c5bd 21d8 8e3d
00000210: 640e 68bd 16b9 f43b 405a 8cbb 21bf 92bd
00000220: f11d e1bd 8d68 d8bc b974 433b aaae b93d
00000230: 369b c9bb d48c e6bd 57e6 ddbb fd49 993d
00000240: e0f6 88bd 3f4d bebc 7d68 103e 42fd 803d
00000250: ad33 c5bd 855e 9cbd 6b33 7c3d 6dfa 0fbe
00000260: 107e e43d f14a e3bd c7e9 bf3c 5d43 bf3d
00000270: 341f 05be 9d7b 853c fb1b b83d 4ab8 bdbd
00000280: 6d2f c73d eb25 cabd b229 c9bd 6dec a9bd
00000290: f4a2 5cbd aaf0 dabd da29 243d 4371 05be
000002a0: b275 c3bc 517b abb9 3cd5 cdbd fb3e 02be
000002b0: 670c cbbd 5339 53bd 1e15 f3bd 23f2 083d
000002c0: 6659 4abd c6ad 6cbd 3f95 9b3b 4a37 09be
000002d0: 7675 6e3d 3cec d53d 2fac 413c 250c 043e
000002e0: 5db8 043e afde cebd b59d db3d 3704 07bc
000002f0: 000e 4b3d 9592 ec3d 50f1 5f3b 0e1b edbd
00000300: e791 fbbc 055e b8bd a9a7 07be e3bc 9c3d
00000310: 5c1a aa3d 394d 8abd 0276 06be 8125 97bd
00000320: 28ac a7bd f1ee 6cbd da12 783d 7c1d 3a3d
00000330: 1432 44bb 9371 84bb fa8f 13bd a8af fbbd
00000340: f62e 62bd a8e6 213d 331f 0f3d a8c8 a6bd
00000350: 2179 dd3d 1aa4 dd3c 3dae d8bd f791 1cbd
00000360: 4afa 0e3d 0f1a e2bd c52c bbbd e8c8 ad3d
00000370: 5b45 d8bd dd62 643d f626 c23d a55b 1fbc
00000380: 24b3 f8bd aa5e 02be 64cc d1bd ef92 90bd
00000390: 8465 db3d a67c 4b3d 760d f13d caa6 9b3d
000003a0: f138 f33d a5b7 b33d 8047 813d 13b9 073e
000003b0: 3bc9 95bd 2d5f b8bd 72a8 643d 4600 32bd
000003c0: ba90 b63d 43dd a53c c6be c5bd ef02 b43d
000003d0: bf1f 9c3d b4a7 8d3b 72d8 863d edf4 29bd
000003e0: 4331 ef3d 855a 0d3d f9fd ae3c b011 673d
000003f0: a34f 0a3d 2ae5 973b f412 a83c 2da5 083d
0.13025144 0.02641761 0.007938165 0.014523105 0.13022217 0.07661961 -0.095408164 -0.07038512
-0.1009718 0.102690496 0.010225699 -0.10970359 -0.077595904 -0.12392363 0.054167084 0.12089307
-0.017167026 -0.083427295 -0.109477885 -0.017272126 0.053800203 -0.13914132 0.041589737 0.06764795
-0.109402694 -0.10387066 0.1263353 -0.10282446 -0.124178395 0.008829382 0.117168404 0.03887405
-0.13841602 -0.008706603 0.11242561 -0.055699363 0.13866723 0.015308162 0.10229847 0.0020236701
0.04594466 -0.07654421 0.089324884 -0.0861741 -0.14159776 -0.1211039 0.079550065 -0.13155447
-0.067961335 -0.0021049855 -0.025248501 -0.0072725113 0.04669124 -0.083708376 0.11749812 -0.0312657
-0.05764388 0.06356483 0.05777593 0.10100089 -0.00091208215 0.038355105 -0.10765784 -0.14185385
0.023635421 -0.035463274 -0.07524763 0.12730353 0.12859769 -0.058468483 -0.09609888 0.049450174
-0.07576927 -0.09836054 -0.022778606 -0.05847163 -0.020103231 0.045446392 -0.123966835 -0.0017227461
-0.00934941 -0.051682606 -0.088476434 0.057348825 0.123034894 -0.05660075 0.038249407 0.053294986
-0.04703281 0.098447725 -0.10405076 -0.05992547 0.075995415 0.03265802 -0.080925845 0.11080692
0.124293156 0.080539756 0.010520347 0.11960986 0.11836517 -0.032771282 -0.016378306 0.045562174
0.055810835 -0.10023792 -0.013691799 0.06399897 -0.12858702 0.13943878 -0.03985753 -0.13123482
0.11727408 0.13053596 0.13767195 -0.06497453 -0.038578384 -0.012849859 0.13332593 -0.10632064
0.12059194 -0.043378253 0.088012405 -0.03584467 0.0870094 -0.11343241 -0.08625817 -0.04486047
-0.001813862 0.004740653 -0.09645077 0.06974817 -0.05665435 0.007468353 -0.0042832196 -0.07165361
-0.10992039 -0.026417041 0.002982421 0.09066518 -0.006152536 -0.112573296 -0.0067718434 0.07484815
-0.06687713 -0.023230193 0.14102359 0.06298305 -0.09628997 -0.07635216 0.061572473 -0.14060374
0.11156857 -0.11098278 0.023426903 0.093390204 -0.13000184 0.016294295 0.08989712 -0.09263666
0.097258426 -0.098705135 -0.09822406 -0.08297048 -0.05386634 -0.10690434 0.040078975 -0.13031487
-0.023859832 -0.0003270754 -0.10050437 -0.12719338 -0.09914475 -0.05156834 -0.11869262 0.033434045
-0.049401663 -0.05778291 0.004748016 -0.13399997 0.05821749 0.10445449 0.011820837 0.12895258
0.12960954 -0.10101067 0.107234396 -0.008240751 0.0495739 0.11551396 0.0034170933 -0.11577426
-0.03070922 -0.09002308 -0.13247551 0.07653215 0.08305809 -0.0675301 -0.13130954 -0.073802
-0.08187133 -0.05784506 0.060564853 0.045438275 -0.0029937075 -0.0040418594 -0.03602598 -0.12289363
-0.055220567 0.03952661 0.034941863 -0.08143741 0.10814119 0.027055789 -0.10580108 -0.03822514
0.034906663 -0.110401265 -0.091393985 0.084855855 -0.105601035 0.055758346 0.094800875 -0.00972644
-0.12143543 -0.12731424 -0.102440625 -0.07059275 0.10712722 0.04967942 0.117701456 0.07600172
0.11876095 0.08775262 0.06312466 0.13254194 -0.07313772 -0.09002528 0.055824704 -0.043457292
0.08914323 0.020247107 -0.09655528 0.08789622 0.076232426 0.0043229703 0.065842524 -0.041493345
0.11679318 0.034510154 0.021361338 0.056413352 0.033767354 0.004635473 0.02051685 0.03336065

net.1.weight f4 [512]
00000000: d17a ba3f dd24 ad3f 222a a03f fd66 a43f
00000010: a940 9c3f cd16 b23f 5a46 ad3f 0fe4 bc3f
00000020: 62e6 d03f bdaa c13f 5f31 bb3f 7f5d 793f
00000030: 2ead 903f efca bd3f 19e3 a83f 0f76 a03f
00000040: 1e36 9a3f b7be 993f e1be 6a3f 3749 8f3f
00000050: 3127 a03f c8fd 903f 8906 9d3f a801 a73f
00000060: 8826 c33f d43b ad3f 281e af3f 586d 753f
00000070: f6c8 d33f 0eef a23f dd47 7e3f b0b2 9a3f
00000080: a7b2 bc3f 4fd3 823f 1f53 a63f 7416 a43f
00000090: 937b 8f3f d691 a83f 81a3 bb3f c026 943f
000000a0: 58fa 563f b512 bf3f 35eb 9e3f 3338 b53f
000000b0: 935f d83f 0c43 d33f ffd8 a33f a508 853f
000000c0: f4aa 733f 5bbd 9d3f daff c03f 59f8 a53f
000000d0: 7fcf 863f 3f41 853f 94a4 983f b2f1 b23f
000000e0: bf66 a23f 0130 c83f a35c d33f 47a0 be3f
000000f0: 6a1f a43f 34ce c73f dce0 a13f bb23 b83f
00000100: 4c35 db3f 2562 bc3f 55fa ab3f 39f5 a93f
00000110: e3e1 863f 8480 a33f 51ff c13f 6fe9 8c3f
00000120: 038a b53f 5be5 923f ba8f b23f c1b7 a63f
00000130: 4d79 603f e0f9 933f 15be 593f bb93 bd3f
00000140: 3d07 ad3f edf0 873f 7e99 993f 37bb 983f
00000150: b92f a13f 4f7e bb3f 3e7c a93f e096 8f3f
00000160: 05cc aa3f d50c a83f 376c a33f 9db5 693f
00000170: a086 173d 74ad 5c3f ba68 a83f 2005 b33f
00000180: ac60 9a3f 1ab0 c43f 4296 7a3f 1c78 bc3f
00000190: accc 8a3f c304 8b3f 0829 ac3f 8a9d ad3f
000001a0: 09fc 9a3f cc91 873f 7678 b73f d962 873f
000001b0: 08d8 663f 92fc b73f ebdc 803f a6bb 933f
000001c0: c2ee a83f 6701 cb3f c7e2 963f 28b4 903f
000001d0: 21dd a83f b37a 873f 1a3c bc3f ff8d aa3f
000001e0: 160f 813f f35f cd3f aa6a be3f 31f0 a03f
000001f0: 0cd0 9c3f 643f 993f f3b2 843f db8a bb3f
00000200: a967 8f3f 17da 8a3f ba6f 3f3f 26ff 613f
00000210: e229 e23f ce30 a03f 148f 8b3f 4fa4 ac3f
00000220: 5034 b93f d6e4 aa3f 2931 b23f 4ae1 b43f
00000230: 07bf a83f 94c8 be3f e464 883f ccf4 be3f
00000240: 0ecb 8a3f 33a5 9e3f 63fa b63f 6010 983f
00000250: 55e5 9e3f 4e48 a53f 527e 413f 5a62 a13f
00000260: 6d09 a83f 71e8 b33f 15c7 a23f ee34 bb3f
00000270: 0dbc a03f 238a 7d3f 077f 873f 5d05 bc3f
00000280: 2717 953f e7c0 a23f 9e3e 833f 71ab a93f
00000290: 21d8 b63f e33a 823f 453e 8d3f 4fb8 bf3f
000002a0: f1ba a43f 5c5c 963f baf7 b33f 76a5 a23f
000002b0: d789 a23f b1be ac3f 4a37 993f 6b63 a13f
000002c0: fff6 dc3f 44d1 a93f ee9c 9e3f 14cc b53f
000002d0: d925 ac3f fbba d83f fb66 1a3f 9744 923f
000002e0: ce71 433f 603e b23f dc81 883f 5738 843f
000002f0: 1b42 a53f fb47 c03f d8ce c93f e718 ac3f
00000300: e19a c53f e610 a33f 5f8d bf3f 911c 503f
00000310: 5d33 bd3f c033 853f b66d 893f 801e 9d3f
00000320: 4f79 823f f8a2 9d3f f13b a03f 67c9 933f
00000330: 46ba a93f 64d0 bb3f b267 a83f 2acb 9d3f
00000340: 8f8e 813f 3d81 b93f 000b da3f de50 963f
00000350: a370 ab3f eba0 953f a48e a73f c706 b33f
00000360: baf7 c53f 07ac dc3f 32f2 833f 8c1b b03f
00000370: 4edb d93f 966b 8f3f 014d a73f 8a08 b23f
00000380: ed99 cb3f 173d a53f 0173 933f dc7d a53f
00000390: f9d2 913f 2527 983f 83d4 b33f 1130 a43f
000003a0: 27ca af3f 624d cd3f bc45 b23f fbdc ac3f
000003b0: 3cbc 943f 7f96 873f 03c0 c73f 678e 733f
000003c0: d8e1 993f 1b21 a63f 2b63 8d3f 7067 613f
000003d0: 694d 8c3f 3502 6a3f 0d76 8b3f 2dda 8f3f
000003e0: 9ed4 9d3f 8052 b23f 1f84 a33f 575b 933f
000003f0: 8615 bc3f 93f7 9e3f 34e0 a73f 82c4 c23f
1.456873 1.3526875 1.2512858 1.284393 1.2207233 1.3913208 1.3537095 1.4757098
1.6320307 1.513023 1.4624442 0.9740829 1.130285 1.4827555 1.3194305 1.2536029
1.2047765 1.2011327 0.9169751 1.1194218 1.251196 1.1327448 1.2267619 1.304738
1.5246134 1.3533883 1.3681078 0.9586997 1.6545703 1.2729204 0.99328405 1.2085781
1.474202 1.0220736 1.2994117 1.2819352 1.1209587 1.3169506 1.4659272 1.1574326
0.83975744 1.4927584 1.241553 1.4157776 1.6904167 1.6504836 1.2800597 1.0393263
0.9518273 1.2323412 1.507808 1.2966415 1.0532073 1.0410537 1.1925225 1.398001
1.2687606 1.563965 1.6512645 1.4892663 1.2822087 1.5609803 1.2646747 1.4385904
1.712564 1.4717451 1.343577 1.3277961 1.0537685 1.2773595 1.5156041 1.1008738
1.4182743 1.1476244 1.3950112 1.3024827 0.8768509 1.1560631 0.8505567 1.4810709
1.3517834 1.06204 1.1999967 1.1932133 1.2592689 1.4647921 1.3241041 1.1217918
1.3343512 1.3128916 1.27674 0.91292745 0.036993623 0.8620217 1.315696 1.3985939
1.2060752 1.5366242 0.97885525 1.4724154 1.0843711 1.0860828 1.3450022 1.3563702
1.2108165 1.0591369 1.4333637 1.0577041 0.9017339 1.4373953 1.0067419 1.1541641
1.3197863 1.5859803 1.1787957 1.1304979 1.3192483 1.058432 1.4705842 1.3324584
1.0082729 1.6044906 1.4876301 1.2573301 1.2250991 1.197247 1.0367111 1.465175
1.120351 1.0847806 0.74779856 0.8827995 1.7669032 1.2514894 1.0903039 1.3487643
1.446909 1.3351085 1.3921252 1.4131253 1.3183297 1.4904962 1.0655789 1.4918456
1.0843217 1.2394165 1.4295162 1.1879997 1.2413737 1.2912691 0.75583375 1.260814
1.3127877 1.405531 1.2717005 1.4625528 1.2557389 0.99038905 1.0585641 1.4689137
1.164769 1.2715119 1.0253484 1.3255445 1.4284707 1.0174221 1.1034628 1.4978122
1.286955 1.1746936 1.4059975 1.2706745 1.2698315 1.3495694 1.1969998 1.2608465
1.7262877 1.3266988 1.2391641 1.4202905 1.344905 1.6932062 0.60313386 1.1427182
0.7634553 1.3925285 1.066463 1.0329694 1.2910799 1.5021967 1.5766249 1.34451
1.543789 1.2739532 1.4965018 0.8129359 1.47813 1.0406418 1.0736606 1.2274933
1.019327 1.2315359 1.2518293 1.1545838 1.3259971 1.4672971 1.3156645 1.2327626
1.012163 1.4492565 1.7034607 1.1743429 1.3393749 1.1689733 1.3090405 1.3986443
1.5466225 1.7239999 1.0308287 1.3758407 1.7020051 1.1204708 1.3070375 1.3908856
1.590635 1.2909268 1.1519471 1.2929034 1.1392509 1.1886946 1.4049228 1.2827169
1.3733567 1.603924 1.3927531 1.3504938 1.1619945 1.0592803 1.5605472 0.95139164
1.2022047 1.2978853 1.1045889 0.8804846 1.0961124 0.9140962 1.0895401 1.1238457
1.2330511 1.3931427 1.2774695 1.151225 1.4694068 1.2419304 1.3115296 1.521622

net.1.bias f4 [512]
00000000: d1d2 afbf 82c4 92bf ddcd 49bf 738b 69bf
00000010: c423 9abf 5b0c 8bbf dd25 37bf c98f adbf
00000020: fa1a f5bf a05b c3bf b3e0 8cbf c50d 03bf
00000030: 1165 d5be 069b a4bf fa38 94bf 9ed5 a5bf
00000040: cffa 8cbf 94ee 60bf 5ff6 6bbf 7afe 85bf
00000050: 0ea8 84bf 7969 9cbf e256 9ebf 27ed 96bf
00000060: cad3 9fbf c8b8 a7bf 9233 95bf ed7b 47bf
00000070: ea93 b3bf 55e1 6bbf 9a59 5dbf 8c07 54bf
00000080: ccb7 b7bf 2bd7 d3be 842f 82bf 8b36 1bbf
00000090: 4882 7bbf 35a2 65bf 0e40 a4bf 8117 a3bf
000000a0: c7c6 04bf d93b 9cbf bb66 81bf e2e0 8dbf
000000b0: 06fb 97bf 5ec5 babf 0b9f 97bf 8b5b 34bf
000000c0: ba04 d7be 87ec 7ebf 40a2 95bf 9c5e 81bf
000000d0: 2514 2abf 84b5 87bf 1cd9 8bbf 6215 a2bf
000000e0: 4b2a a3bf decf a7bf 9808 8dbf 1c99 a1bf
000000f0: ff1b 5fbf eae3 89bf 8421 46bf 7c7f bcbf
00000100: 076e acbf 24ae a1bf 513b 8fbf 3297 9bbf
00000110: ada1 4cbf b368 a0bf 94f4 8abf 9845 5dbf
00000120: 4781 c0bf bc2a 64bf 2256 adbf 5286 56bf
00000130: a747 4abf 4096 64bf 1202 42bf e48f d3bf
00000140: 94df 97bf 187e 8cbf 8e6b 8cbf 4bb1 81bf
00000150: 4f52 a0bf 9de6 8cbf 2fd8 8bbf fa1e 81bf
00000160: b6df 6dbf 8b50 60bf 12d5 7cbf 0556 61bf
00000170: 1040 cebe c6a4 16bf 9c45 38bf 8851 98bf
00000180: 6a6d 92bf edf2 98bf 9789 07bf bea9 c0bf
00000190: afd8 92bf d1c7 7dbf 0629 afbf 4f7e a0bf
000001a0: 7b84 57bf 3395 83bf aeaf a8bf 83e5 0cbf
000001b0: 6f77 4fbf 410f 6ebf bc3c 63bf 1eab 22bf
000001c0: 345f 7ebf 1a48 b1bf 9ef5 47bf 85ab e2be
000001d0: 076d 9ebf d756 5bbf 5164 76bf 6ad2 98bf
000001e0: 7676 53bf 3ae0 d3bf cc4c acbf 03ab 85bf
000001f0: af4d a1bf 0fab 9cbf 26ab 3bbf 9a59 a1bf
00000200: 533c 4fbf fc18 4dbf dcb0 63be f9e7 d6be
00000210: a533 dfbf b6f5 78bf 6798 74bf d920 b4bf
00000220: ba23 b0bf 4d9c 93bf 7349 8bbf 5dfe 9ebf
00000230: a105 b5bf 876b a5bf 570f 8ebf d35c cfbf
00000240: 159e 77bf 81ac 69bf 3f14 73bf af78 28bf
00000250: 8f6c 97bf 99dc 6fbf fe64 d5be 8903 55bf
00000260: d158 85bf 368b a0bf 14f2 96bf 70cd 97bf
00000270: e3f5 b7bf 8611 4bbf 9774 68bf cd8e bbbf
00000280: c202 5abf ba40 9bbf 0e81 17bf 6c21 adbf
00000290: 6e75 a2bf ff14 2abf 6db8 38bf dc05 b0bf
000002a0: d383 31bf bea1 34bf e1ad 89bf 2a19 85bf
000002b0: c718 9cbf 1b8c 94bf 19f6 50bf bff5 9fbf
000002c0: cde7 9fbf 3802 96bf dcc2 28bf 67be 9cbf
000002d0: 4e61 57bf 4b9d ccbf 610b 81be d157 7fbf
000002e0: e13f b3be b100 71bf 4130 49bf 1af0 74bf
000002f0: 6597 5cbf 6053 94bf e3d5 b2bf 2c15 93bf
00000300: c752 adbf ee12 a0bf ee14 7bbf a97e 76be
00000310: 62c8 8bbf b5f0 1fbf 2c3e 63bf 35d4 8cbf
00000320: f6cf 3abf d6ce 4abf cfe1 b3bf 5e8b 8cbf
00000330: e152 56bf fa24 abbf 1dec 94bf 9649 b5bf
00000340: 6d0b 67bf c783 afbf 9d18 c1bf 44a8 78bf
00000350: 24ad 8fbf 6d53 63bf 5c2a 81bf a789 a8bf
00000360: 2b48 8ebf dbbb b6bf b891 c0be 00a9 54bf
00000370: dff4 a9bf 365e 65bf a4dc 61bf 3c07 a9bf
00000380: 2a0d c4bf a6f7 8ebf 5a3d 1bbf dada 71bf
00000390: 7117 86bf c60b 53bf 7c5c 9cbf e4c2 9bbf
000003a0: 94d7 8bbf 9c05 c5bf 6516 5dbf 1f32 96bf
000003b0: ab08 57bf 3b81 35bf 6822 a1bf b387 0dbf
000003c0: 72af 82bf 9aca 6bbf 9aae 54bf a2d8 40bf
000003d0: 8b57 47bf 6b40 4bbf bdbd 81bf 4d80 a2bf
000003e0: 2e6f a3bf 4d16 9abf 98c8 5abf d817 5abf
000003f0: d187 b9bf 6922 48bf f3b5 67bf 9c47 bcbf
-1.3736211 -1.146622 -0.7882975 -0.9122841 -1.2042165 -1.0863146 -0.7154215 -1.3559505
-1.9148858 -1.5262337 -1.1006073 -0.51192886 -0.4167867 -1.2859809 -1.1579888 -1.2955816
-1.1014041 -0.8786404 -0.9217281 -1.0468285 -1.0363786 -1.2219688 -1.2370265 -1.1791123
-1.2486508 -1.3103266 -1.1656363 -0.7792347 -1.4029515 -0.92140704 -0.86464846 -0.82824016
-1.4352965 -0.41375098 -1.0170751 -0.606301 -0.9824567 -0.89700633 -1.2832048 -1.2741548
-0.5186581 -1.2205764 -1.0109476 -1.1084254 -1.1873481 -1.4591482 -1.1845411 -0.70452183
-0.41995794 -0.9957966 -1.169014 -1.0106997 -0.6643699 -1.0602269 -1.0925632 -1.2662776
-1.2747282 -1.3110311 -1.1018248 -1.262485 -0.87152094 -1.0772679 -0.7739489 -1.4726405
-1.3471078 -1.2631269 -1.1189977 -1.2155516 -0.799342 -1.2531952 -1.0855889 -0.86434317
-1.5039452 -0.8912771 -1.3541911 -0.83798707 -0.7901558 -0.89291763 -0.7578441 -1.6528287
-1.1865106 -1.0975981 -1.0970323 -1.013223 -1.2525119 -1.1007878 -1.0925349 -1.0087578
-0.9291948 -0.876229 -0.9876262 -0.8802188 -0.4028325 -0.58845174 -0.71981215 -1.1899881
-1.143964 -1.1949135 -0.5294432 -1.5051801 -1.1472377 -0.9913302 -1.3684394 -1.2538546
-0.84186524 -1.0279907 -1.3178613 -0.5503771 -0.81041616 -0.92992026 -0.8876455 -0.63542354
-0.9936402 -1.3850129 -0.7810916 -0.44271484 -1.2377023 -0.8567938 -0.9624682 -1.1939213
-0.8260263 -1.6552804 -1.3460937 -1.0442814 -1.2601832 -1.2239703 -0.73308027 -1.2605469
-0.8095142 -0.8011625 -0.22235435 -0.41973856 -1.7437636 -0.97249925 -0.9554505 -1.4072524
-1.3760903 -1.1532074 -1.088179 -1.2421376 -1.4142343 -1.292344 -1.1098431 -1.6200203
-0.9672559 -0.91278845 -0.9495277 -0.6580915 -1.1830004 -0.9369598 -0.41678613 -0.8320852
-1.041773 -1.2542484 -1.1792626 -1.185957 -1.4371914 -0.79323614 -0.908029 -1.4652954
-0.8516046 -1.2129128 -0.59181297 -1.3525825 -1.2692087 -0.6643829 -0.7215641 -1.3751788
-0.6934177 -0.705593 -1.0756189 -1.0398304 -1.2195061 -1.1605257 -0.81625515 -1.2496871
-1.2492615 -1.1719427 -0.6592233 -1.2245606 -0.8413285 -1.5985502 -0.25203994 -0.9974337
-0.35009673 -0.9414168 -0.78589255 -0.95678866 -0.8616851 -1.1587944 -1.3971523 -1.1490836
-1.3540887 -1.2505777 -0.9807881 -0.24071755 -1.0920527 -0.62476665 -0.8876674 -1.100226
-0.72973573 -0.79221857 -1.4053286 -1.0980031 -0.83720213 -1.3370659 -1.1634556 -1.4163082
-0.9025181 -1.371209 -1.5085636 -0.9713175 -1.1224713 -0.8879917 -1.0091052 -1.3167008
-1.1115774 -1.4276079 -0.37611175 -0.83070374 -1.3277854 -0.8959688 -0.88227296 -1.3205333
-1.5316517 -1.1169326 -0.6064049 -0.94474566 -1.0475904 -0.8243984 -1.2215724 -1.2168851
-1.0925164 -1.5392337 -0.86362296 -1.1734046 -0.839976 -0.70900315 -1.2588625 -0.55285186
-1.0209792 -0.9210602 -0.8307892 -0.75330555 -0.77867955 -0.7939517 -1.0136029 -1.2695404
-1.2768304 -1.2038056 -0.8546233 -0.8519263 -1.4494573 -0.78177506 -0.9051201 -1.4709353

net.1.running_mean f4 [512]
00000000: 99ef 92bc 384e 19be 9023 cbba 4f83 92bd
00000010: 2833 c93d d021 afbc c81d 61be 9457 20bc
00000020: 8185 c2be fee5 893d 8000 a13d f7a5 5ebe
00000030: e0f1 f4bd b795 8bbe aaa0 f8bc e814 463d
00000040: 64be 89bd ff7c 54be 78cb 51be c065 38bc
00000050: e8af a5bc 49a3 8dbe 72d1 803d 6099 0bbb
00000060: f85a 23be d6b3 7fbe 5cc4 11bd 552a 9dbd
00000070: c001 453d e948 463e 4457 2e3d 60c0 4b3e
00000080: e096 afbe c8e5 ef3d 802a 653e 2a15 a5bd
00000090: c960 3b3e b2a4 27bd b316 d9bc c330 84bd
000000a0: 1ce1 fdbd 8fdc 4bbe d82c a7bb 5ebd 7dbe
000000b0: 26e2 b3be 33ed 1fbe a673 a03d 8a60 0ebd
000000c0: 180a b73d 19c1 4e3d f30b 2bbe 95b7 c2bd
000000d0: 92eb a2bc 9d4b a6bd 7c89 4c3e 0e25 e4bd
000000e0: 646a 05be 4bb4 af3d 6269 7f3e 2327 303e
000000f0: 0442 393e e61a 473d 27b6 b6be 953c b4bc
00000100: 6e2b f5bd 3958 153e 1214 f9bd 7a01 153d
00000110: 2454 c73c 57a5 10be 1f5d 023d ca5c f53d
00000120: 3439 d8bd cc5a c1bd 1df3 c8bd 9ae7 04be
00000130: 7d86 01be 7c76 d53d 96dd 8abd 2700 a0be
00000140: 76e2 25bd da8e 653d 39cb febd 45c6 7cbe
00000150: e52f 273e 78b5 1c3c 4ef4 963d a4d8 5dbd
00000160: 46da fbbd b8db 37bd 19f5 7bbe 180f f3bc
00000170: 8154 103e 605f 1e3e 1a74 2dbe b4cb 603e
00000180: 9cff 093e b819 173e f403 b0bc 1854 a03d
00000190: 9e96 863e d461 1a3e 58ad ff3d 939e 07be
000001a0: adc1 f2bd 3385 adbd baa9 a5bd 7fa7 373e
000001b0: c70f 89be 22e6 da3d 703d 7b3d b469 83bd
000001c0: 3c42 483d 57f0 fd3d 0622 4c3d d84c 11ba
000001d0: 2c8a 04bd 4d2f 013e cc76 943d 14a2 f0bd
000001e0: 4262 9e3d 80a2 8a3c 7c19 1b3e fe28 55be
000001f0: 72bb 163e 7311 a7be aa7f d0bd daf8 283e
00000200: 4170 053e 7872 2e3c 847f d1bd b2fd ccbc
00000210: 99a2 4fbe 70b9 c0bd 108c 17be 0e74 1dbd
00000220: 371a 10be f37b a7be 4f4e 2abe 14b5 a1bd
00000230: 409b 203b 782a 0dbe e0f1 043a 439d b83c
00000240: dce5 6bbe 7cd1 b5bc 9038 783e 1659 a23d
00000250: 1956 57be 1059 1dbd b7a3 783d 5d64 2cbe
00000260: fc22 0d3e 9160 09be 053b 0a3d b726 14be
00000270: 0c4b a03d bac0 dfbd 92bf dc3d 3340 0bbe
00000280: d871 b03d ea92 3abe cd03 78be 36e8 62be
00000290: cc4c 76be 55fe b93d 78ec 4cbe 9c15 4ebe
000002a0: 004d 0abe afb4 c2bd c109 d1bd f413 8dbd
000002b0: aa19 9fbd fb28 97bc ed73 2ebe bb9a 51bd
000002c0: c45f 183d 502d 1e3d a178 b93d eeb6 4abe
000002d0: 3234 ea3d da3b 233e 2161 163d d8d7 8a3e
000002e0: 9edb 723e 606b 66be 45df 9f3d 66e7 b7bc
000002f0: e069 70bc 003e b1bd c323 e8bd 459f e8bd
00000300: 6203 953d a107 2c3d 6918 8cbe dc9c c43d
00000310: 6261 d33d e029 30bc c0b9 1c3e ac26 de3b
00000320: 2438 423d aff7 f0bd 134f 0e3e 2002 73bc
00000330: 0093 553d f888 b13c 2e0d dfbc 85cd 72be
00000340: a22d 72be 2c73 653d 1c91 57bc e5ad 96bd
00000350: 26ba b33d 44ff 4b3e 0857 f6bd 2ce5 0cbe
00000360: b7f3 65bd 086b 84bd 4c87 353d a80b 2cbe
00000370: 9a4c 15be 77fb 173e 89be 973e 9c92 2ebd
00000380: b881 75be 1e97 13be 707a 073c 280c 01be
00000390: 50fa a8bc 5a7c 703d 9c84 cf3e 395b bebd
000003a0: d6b3 353e 4d13 423e f668 55bd 51e5 833e
000003b0: e759 88be 06b5 5abc 580c cf3d 80d0 653b
000003c0: 103f 9c3d f48c ea3d 0625 44bd 60e7 b2bd
000003d0: 449d 833d f319 5cbe 9887 573c 11ef 34be
000003e0: 2cca d53d bc1f 1fbe 9b56 1cbe 3e73 1d3d
000003f0: 337c 7a3e 555b 8d3d 1cd6 debd ee7c 34bd
-0.017936515 -0.14971244 -0.0015498269 -0.071539514 0.098242104 -0.021378428 -0.21984017 -0.009786505
-0.3799248 0.06733321 0.078614235 -0.21742998 -0.119601965 -0.2726266 -0.030350048 0.04835978
-0.06725767 -0.20750807 -0.20487773 -0.011254728 -0.02022548 -0.2766364 0.062899485 -0.0021301135
-0.1595267 -0.24970946 -0.035587654 -0.0767409 0.048097372 0.1936375 0.04256369 0.19897604
-0.34294796 0.11713749 0.22379494 -0.08060677 0.1829864 -0.04092855 -0.026500082 -0.06454613
-0.12396452 -0.19908355 -0.0051017813 -0.24779269 -0.35133475 -0.15617828 0.07834558 -0.034760036
0.08937472 0.05047712 -0.16703777 -0.09507672 -0.01988772 -0.08119891 0.19974321 -0.1113988
-0.13028866 0.0857931 0.24942544 0.1720243 0.18091589 0.048609637 -0.35685846 -0.022001544
-0.11971174 0.14584436 -0.12162031 0.03637836 0.024332114 -0.14125572 0.03182709 0.11980589
-0.10557786 -0.09441146 -0.09811995 -0.12978974 -0.1264896 0.1042299 -0.067805454 -0.31250116
-0.040499173 0.056044437 -0.124411054 -0.24685009 0.16326864 0.00956475 0.07370816 -0.054161683
-0.12297492 -0.044887275 -0.24605216 -0.029670283 0.14094736 0.1546607 -0.1693882 0.21952707
0.13476413 0.14755905 -0.02148626 0.078285396 0.26286787 0.15076381 0.124842346 -0.13244085
-0.11853347 -0.08472671 -0.080890134 0.17934988 -0.2676985 0.106884256 0.06133789 -0.06416646
0.04889129 0.12399357 0.049837135 -0.00055427616 -0.032358333 0.126157 0.07249221 -0.11749664
0.07733585 0.01692319 0.1514644 -0.20816419 0.14719942 -0.326305 -0.101806 0.1650118
0.13031103 0.010647409 -0.102294 -0.025023315 -0.2027687 -0.094103694 -0.14799523 -0.038440756
-0.140725 -0.32711753 -0.16631435 -0.07895866 0.0024506599 -0.13785732 0.00050714426 0.022535926
-0.23036903 -0.022194616 0.24240327 0.07927148 -0.21028937 -0.038415015 0.060703006 -0.1683516
0.13782877 -0.13415743 0.03374769 -0.14467894 0.07826814 -0.109254315 0.10778727 -0.13598709
0.08615464 -0.18220106 -0.242202 -0.22158894 -0.24052733 0.09081713 -0.2001208 -0.20125431
-0.13505936 -0.09507119 -0.102069385 -0.068885714 -0.07768567 -0.018452158 -0.1703641 -0.051172953
0.037200704 0.038617432 0.09056211 -0.19796345 0.11435737 0.159408 0.036713723 0.271178
0.2371659 -0.22501898 0.07806257 -0.022449207 -0.01467368 -0.08654404 -0.11334946 -0.11358503
0.07276036 0.041999463 -0.27362373 0.09600231 0.10321309 -0.010752171 0.15305233 0.0067795124
0.04741682 -0.11765992 0.13897352 -0.01483205 0.052142143 0.021671757 -0.027227964 -0.23711212
-0.2365022 0.05601804 -0.013157155 -0.073573865 0.08775739 0.19921595 -0.12028319 -0.13759297
-0.056140628 -0.06465727 0.044318482 -0.16801322 -0.14580002 0.1484202 0.29637554 -0.042620286
-0.23975265 -0.14413115 0.0082689375 -0.12602293 -0.02062717 0.05871234 0.4053086 -0.09294743
0.17744383 0.18952675 -0.05210205 0.25760892 -0.2663109 -0.013348823 0.10109776 0.0035066903
0.07629216 0.11452666 -0.04788687 -0.087355375 0.064264804 -0.21494274 0.013154887 -0.17669322
0.10438952 -0.1553945 -0.15267412 0.03843998 0.2446144 0.06902186 -0.10880682 -0.044064455

net.1.running_var f4 [512]
00000000: 7474 8641 5494 de41 46f8 ba41 5e27 c141
00000010: ce76 ff41 f273 b341 724d c341 bfad d241
00000020: 4cad e441 c9f4 aa41 f3c8 c441 efd1 9d41
00000030: 62db 9741 a90f c341 d90d 8541 2190 7441
00000040: fb05 be41 ea58 b841 0058 2242 9236 6341
00000050: e551 a541 49f5 ae41 c8c4 b541 6999 a941
00000060: e9c5 bd41 3e47 fb41 1f7e 8c42 363e b041
00000070: 2c89 ee41 0ebe ed41 8b89 cc41 a096 c141
00000080: e2ee 7841 7fc1 c241 f816 bc41 d65b bc41
00000090: 4977 d141 3324 d641 6838 0f42 0b93 a341
000000a0: 98ad 3b42 8b23 9541 7a5b 9b41 1f03 c941
000000b0: e798 ea41 8659 d941 3938 9d41 bd94 ba41
000000c0: 206c 9d41 ad5e a141 9bac 8c41 9252 a841
000000d0: 3032 b041 3714 5f42 d53e e441 2a3d a441
000000e0: ebde 9a41 5a2d 9f41 738b e241 10e8 c541
000000f0: d535 bc41 03c9 7c41 732c bc41 0338 b041
00000100: 4285 da41 1611 b041 faa4 ed41 a059 8d41
00000110: 2323 a341 02f9 1942 ccb9 8441 68a7 9041
00000120: bb7c c041 9549 e141 82b5 4e42 4b32 9e41
00000130: 1ea2 b642 3134 1042 85f0 3e42 668a 0742
00000140: 3f37 a541 e587 7142 8318 f941 f1b2 d441
00000150: 6dd6 b341 c0c6 9f41 54c4 e241 5a01 9641
00000160: bb70 bb41 bed3 1742 fc55 a041 61cd 8f42
00000170: 4567 6a41 eb55 8f41 01d7 a741 442f b241
00000180: 6d07 fa41 ac74 d641 575d 0042 84d1 9e41
00000190: 2f1c ea41 e32c c341 8d93 8941 e346 d941
000001a0: c772 3842 3d99 ae41 3a1c a841 9b70 9841
000001b0: e733 d041 a0a3 bb41 0014 bc41 20f2 ea41
000001c0: 2d18 aa41 5d4b a241 ff49 0a42 b98a d241
000001d0: a69b 8441 4c33 ff41 15cb ad41 fc5a 0242
000001e0: 10ca e041 c4d1 b441 9ab2 c241 44c6 c441
000001f0: ba1a 8441 adf7 d141 a8a3 df41 4e0d b041
00000200: 2fca 9341 20f1 a241 161e 1042 3779 bb41
00000210: d68a e141 5354 ff41 6364 9e41 dfb6 9e41
00000220: 214e 8941 1cbe 5b42 8b37 cc41 d3ff 8a41
00000230: 893f 1042 b5e3 a741 54d5 8241 b7bb d841
00000240: 2053 cd41 3c3c fe41 bc16 af41 f21f b241
00000250: 2e72 c741 acc1 9341 2325 e941 e091 a441
00000260: 0b04 9441 ecd7 bc41 16bf fc41 88a5 af41
00000270: 3cd2 8d41 9275 1c42 50b1 e241 bd0a 8541
00000280: a79a 8e41 7f92 c141 6e09 8a41 92da a841
00000290: 8e0e 8e41 02e5 1942 35a7 ee41 9d20 e641
000002a0: 3291 dd41 6bf0 d341 670c ed41 6aef b741
000002b0: 32a7 a141 fef4 b341 b5fc 8541 6599 0642
000002c0: 2c26 e841 621b be41 f70e c141 b868 b241
000002d0: a501 e741 6490 c541 631b 0342 b104 8541
000002e0: d452 d241 6536 ad41 1a0f 8d41 ca38 b141
000002f0: 4e03 b641 b6c4 a241 fc78 be41 54e9 ed41
00000300: b991 9841 1add 3742 9b80 fc41 10ba ca41
00000310: f10e 7b41 6ee4 e341 f235 0042 66f2 6941
00000320: 71de b541 8026 ac41 f3fe 8841 38a4 9741
00000330: 9299 bc41 8caf 7041 0a5a e941 0c13 9641
00000340: c477 0c42 02c1 9b41 548f 8b41 b733 f841
00000350: b6fe db41 57d9 2442 1c68 a141 2db6 a841
00000360: 668c 8141 06bd 8841 192d d741 1662 ce41
00000370: fa01 d341 dfd2 c441 0756 de41 fdfe a841
00000380: c906 dd41 cbe0 8541 a050 9941 cce9 ae41
00000390: baa2 6642 b49f dc41 4a66 ad41 5b07 b141
000003a0: 606d c041 2903 7041 9e93 9341 2c9c da41
000003b0: b7bb dd41 341e 9a41 40cf d041 f648 cc41
000003c0: 9c2c b541 7b74 ad41 a1e3 c641 0502 b041
000003d0: f5b4 8341 c298 2b42 e243 9b41 0b74 ee41
000003e0: 76a5 cd41 7a49 a241 a8f0 7341 70ec ad41
000003f0: c8a8 bd41 08fb 7e41 b1b9 b941 7f12 c741
16.806862 27.822426 23.371227 24.144222 31.93301 22.431614 24.412815 26.334837
28.584618 21.369524 24.59812 19.727507 18.98212 24.382647 16.631762 15.285188
23.75292 23.043415 40.585938 14.200823 20.664988 21.869768 22.721085 21.199907
23.721636 31.409786 70.24633 22.030376 29.816978 29.7178 25.56716 24.198547
15.558321 24.34448 23.511215 23.544842 26.183245 26.767675 35.805084 20.446798
46.919525 18.642355 19.419666 25.126524 29.32466 27.168713 19.652452 23.322626
19.677795 20.171228 17.58428 21.040318 22.024506 55.76974 28.53068 20.529865
19.358847 19.897144 28.31809 24.738312 23.526285 15.799075 23.521704 22.02735
27.315067 22.008343 29.705555 17.668762 20.392157 38.49317 16.590721 18.081741
24.060904 28.160929 51.677254 19.774557 91.316635 36.05097 47.734882 33.885155
20.651976 60.38271 31.136969 26.587374 22.4797 19.972046 28.345863 18.75066
23.430044 37.95678 20.041985 71.90113 14.650212 17.916952 20.979982 22.273079
31.253626 26.806969 32.091152 19.852303 29.263762 24.396917 17.197046 27.159613
46.112087 21.824823 21.013783 19.054983 26.025343 23.454895 23.509766 29.368225
21.261805 20.286798 34.57226 26.317736 16.576 31.900047 21.724161 32.588852
28.098663 22.602425 24.337208 24.59681 16.51305 26.245935 27.95491 22.006496
18.473722 20.367737 36.02938 23.434187 28.192791 31.916174 19.799017 19.839293
17.163149 54.935654 25.52712 17.374914 36.062046 20.986185 16.354164 27.091658
25.665588 31.779411 21.8861 22.265598 24.930752 18.469566 29.143133 20.571228
18.501974 23.60543 31.593304 21.955826 17.727654 39.114815 28.336578 16.630243
17.825514 24.196531 17.254604 21.106724 17.757107 38.47364 29.831644 28.765924
27.695896 26.492392 29.631056 22.991901 20.206638 22.494625 16.748392 33.6498
29.018639 23.76337 24.132307 22.301132 28.875803 24.695503 32.776745 16.62729
26.290443 21.65156 17.632374 22.152729 22.751614 20.34605 23.809074 29.73893
19.071154 45.96592 31.562796 25.34085 15.691148 28.486538 32.05268 14.621679
22.733614 21.518799 17.124487 18.955185 23.574986 15.042858 29.168964 18.7593
35.11696 19.469242 17.444984 31.025251 27.49937 41.212246 20.175835 21.088953
16.193554 17.092297 26.89702 25.797894 26.375965 24.602964 27.792006 21.124506
27.628313 16.734762 19.164368 21.864159 57.658913 27.57798 21.674946 22.128592
24.053406 15.0007715 18.447079 27.326256 27.716658 19.264748 26.101196 25.535625
22.646782 21.681875 24.861147 22.000986 16.463358 42.899178 19.408146 29.806662
25.705791 20.285877 15.246254 21.740448 23.707413 15.936287 23.21567 24.884031

net.4.weight f4 [256, 512]
00000000: dd52 da3e f950 223f c25b 08bf fde0 b3be
00000010: 73df 593e 982a 833f 4b8e cdbe 8927 583e
00000020: de96 f63d 9215 dcbe 0824 b0bf 52f2 1cbe
00000030: 390d b0bf 4f5e 15bd 1d89 d03e a5b2 8a3f
00000040: a443 83be ab97 923e 7a9f 2bbd 3723 abbd
00000050: 0b96 e1be 4a89 893f d42c f43d 01e0 b03e
00000060: 0a59 243f cb7b 373d fe19 693e 0baa 4c3f
00000070: 32c8 9dbf 6ef9 f8be d570 f93d 8c0c 963e
00000080: ee9b 103f 3bb3 89bf 1855 acbe d1ff 73bd
00000090: 3036 11bf 63b6 41bf cf79 853e 2216 8a3e
000000a0: 3e78 3f3d 90a7 10bf 4dbe cd3d f47b f3be
000000b0: 616a 363f fd92 6abf b86c f63e 55dd 553f
000000c0: 3d75 3abf 80b3 68be 3734 eebf af9f 063c
000000d0: 02d2 cb3e 0503 483e a189 b5bd 481b 9f3e
000000e0: 905d 95bc 01d1 873f a166 0abf 4d35 58bf
000000f0: edbc 7f3f 7900 b0bf d0d6 2b3d 36a5 523f
00000100: 5f2b 40bf 2baf c5bf e319 f7be 857a 87bf
00000110: 7f86 67bf 8af0 61bf 2c9e 43be f8c4 05bf
00000120: 128d 56be 9008 80be d745 333e a415 49bf
00000130: 11ea 373f db46 303e f20e 523f 1031 57bf
00000140: 089a ab3c 9e3d 17be 9d87 3bbf 547e cabd
00000150: 2dd0 53be 6cc2 3cbf 30cd 003f a852 cc3e
00000160: 5f1d 353e 2eb6 2bbf 5f66 33bf 11f4 b83e
00000170: c46a 193d 81e6 283f cdb6 f2bf 7363 b9bd
00000180: 2029 bbbe 7c90 ba3e 7902 c13e c3ed b9bf
00000190: 86c6 68be 182a 84bf ece0 dbbe 1e35 8bbe
000001a0: f5ee a2be 7da5 e3bd 91af 0cbf 6fd4 283f
000001b0: fb23 be3c bdc8 e9be babe 213f d240 bc3e
000001c0: 5e67 703f a7f3 8abf c30f fdbd 94bd 1cbf
000001d0: 48cc 033f 8eb0 723e 1377 dabf 83ea 83bf
000001e0: c2c8 d6bd be75 a0bd 0c4c 9cbd f919 393e
000001f0: 8334 a03f 5365 473f a056 4ebe af73 2bbe
00000200: f0db 27bf d482 fe3e 4bbf 6bbf 4d99 d33d
00000210: 0ed6 87bf 1e41 98be 30e7 223c 026e c6be
00000220: fe05 a1be 5f74 d6be 014f ff3e c22e 9f3f
00000230: 7229 7a3f c12d f83e 2d01 ad3e f89d 203f
00000240: e1c3 8b3f 2afa cfbe 4229 7dbf 6bda e4be
00000250: 654d 4c3f 4fca 4abe 5eb6 ae3e f1ec b73e
00000260: c960 853f 85e8 1ebf 9233 61bd 6a47 323f
00000270: 3cc2 12bf d35a 383f 58ab 773f 82e8 113e
00000280: 6b86 e5bd 0558 ec3e 58f8 5b3f d8e4 ce3e
00000290: 2c77 14bf 7d40 253f dbd3 0ebd 9658 80bf
000002a0: 49fc 3cbe b577 76bf 75c3 5cbf cf63 bebe
000002b0: 34ca 32bf ed3d f0bf 0d9f 363e 2a66 363f
000002c0: c51d 73bf bbb7 193f 6868 17bf 04e6 10be
000002d0: d994 293f 4272 c03d 03eb a1bd 67ed 05bd
000002e0: 088f 47bf d5da 53be 979c afbc 8c65 ee3e
000002f0: 13b0 8d3c cec9 833e a0c6 7fbf 03ff 7cbf
00000300: 6baf 58bf d907 993f 8dab 88bc 03d6 673f
00000310: 66fb 1a3f 04f4 a3be 27e2 5a3b ebf9 0f3f
00000320: bac7 17bf ab4c 00bf b7df 47be 2a0a cc3e
00000330: 826c 71bf 06e0 963f 7832 9abe 8d46 b13f
00000340: 6cc0 dd3f 1366 4c3f 4cdd d83e 15c3 1e3f
00000350: 7cb2 bfbd 56c3 333d 2d1b 413e 6ef9 803c
00000360: 32e3 793f 476c 603e c674 073f 23e1 c3bd
00000370: a9aa 57bf d54d c53e dbf6 8a3e 2d03 1fbf
00000380: 91e5 c6bf 5bd7 01bf 8658 90bd b067 333f
00000390: 8098 4c3e 99e8 50bf ab19 e33d aaba 44bf
000003a0: a521 f33e 39d5 1c3f 5065 99bc cc09 ea3d
000003b0: 46ef f33d 8a5f 433f 32eb 433f 8815 30be
000003c0: 6440 533e 7465 ddbe 1e29 14ba 13d7 5b3e
000003d0: 27ab 473f d12d 593f 334b 263f 28fd 9a3e
000003e0: 428e fbbe 1838 20bf 617b 0b3d bfa3 853f
000003f0: 461f ebbe 6b33 273e 10b7 e6bd f9c8 263f
0.42641345 0.63404804 -0.5326501 -0.3513259 0.21276645 1.0247374 -0.40147623 0.21108831
0.120404944 -0.42985207 -1.3760996 -0.15326813 -1.3754035 -0.036466893 0.4072961 1.0835768
-0.25637543 0.28631338 -0.041900136 -0.08356326 -0.44059786 1.0745022 0.11922613 0.345459
0.6419836 0.044795793 0.22763821 0.79946965 -1.232672 -0.486278 0.12179724 0.29306448
0.5648793 -1.0757822 -0.3365867 -0.059570137 -0.5672331 -0.75668925 0.26069495 0.2697001
0.04674553 -0.5650568 0.100460626 -0.47555506 0.7125607 -0.91630536 0.4812982 0.8354085
-0.7283514 -0.22724724 -1.8609685 0.0082167825 0.3980866 0.19532402 -0.08864141 0.310755
-0.01823309 1.0610658 -0.5406285 -0.8445633 0.9989765 -1.3750144 0.041952908 0.8228334
-0.7506618 -1.5444082 -0.48261937 -1.0584265 -0.904396 -0.8825766 -0.19103307 -0.52253675
-0.20952252 -0.25006533 0.1750711 -0.78548646 0.7184153 0.17214529 0.82054055 -0.8405924
0.020947471 -0.14769599 -0.73253804 -0.098873764 -0.20684882 -0.73734164 0.5031309 0.39906812
0.17686985 -0.6707486 -0.7007808 0.36123708 0.037455335 0.6597672 -1.8962036 -0.090521716
-0.36554813 0.36438358 0.376972 -1.4525684 -0.2273198 -1.0325346 -0.4294504 -0.27188963
-0.31822935 -0.11115549 -0.54955393 0.6594915 0.023210516 -0.45660964 0.6318165 0.36768204
0.93907726 -1.0855607 -0.12356522 -0.61226773 0.51483583 0.23700163 -1.7067589 -1.0305942
-0.1048751 -0.078349575 -0.07631692 0.18076314 1.2516025 0.77888983 -0.20150232 -0.16743349
-0.65569973 0.4970919 -0.92088765 0.10331974 -1.0612199 -0.2973718 0.009942815 -0.38755804
-0.31449884 -0.4188566 0.49864963 1.2436144 0.9771949 0.48472407 0.3378996 0.6274104
1.0919152 -0.40620548 -0.9889108 -0.4469789 0.79805595 -0.19803737 0.3412351 0.3592296
1.0420161 -0.62073547 -0.054980822 0.6964022 -0.5732763 0.72013587 0.96745825 0.14248851
-0.11207279 0.46160904 0.8592582 0.4040897 -0.5799434 0.64551526 -0.03487001 -1.0027034
-0.18455614 -0.9627641 -0.86235744 -0.37185523 -0.6983979 -1.8768898 0.1783411 0.7124964
-0.949673 0.60045975 -0.59143686 -0.14150244 0.6624275 0.09396793 -0.07906153 -0.032697108
-0.77952623 -0.20688947 -0.021436973 0.4656185 0.017295873 0.25739902 -0.9991245 -0.98826617
-0.84642667 1.195552 -0.016683364 0.9056093 0.60539854 -0.32022107 0.0033398957 0.5624072
-0.59289134 -0.50116986 -0.19518934 0.39851505 -0.94306195 1.1787117 -0.3011663 1.3849655
1.7324347 0.7984325 0.42356336 0.6201642 -0.09360215 0.04388746 0.18858023 0.015743937
0.976123 0.21916305 0.5291256 -0.09564426 -0.8424478 0.38535944 0.2714146 -0.6211422
-1.5538808 -0.5071923 -0.070481345 0.7008009 0.19980049 -0.81604916 0.1108888 -0.76847327
0.47486606 0.6126285 -0.018725067 0.1142765 0.11910872 0.76317656 0.76530755 -0.17195714
0.20630032 -0.43241465 -0.0005651879 0.21468763 0.7799553 0.84835535 0.64958495 0.30271268
-0.49131972 -0.6258559 0.03405321 1.0440596 -0.45922297 0.16328208 -0.11265385 0.6515041

net.4.bias f4 [256]
00000000: ff4e 9f3c 6310 80bb 599e 423b eebd d33c
00000010: 8afe 1d3b f559 823b 6eaa 04bd a708 aebc
00000020: 4695 443c 5aab 11bc a94d 17bd de37 9f3c
00000030: f24e 98bb da67 1f3d 30a3 2dbd bac2 99bc
00000040: 8e7a 8e39 5aa1 e73c 72c3 e4bc 4182 47bc
00000050: 98c9 513c 3055 413c 7234 9f3c 4e45 f53c
00000060: c52e 0cbd e45b 0b3d 5963 52bc 9ce3 223c
00000070: 8107 75bc 4d68 c039 cc46 19bd 76f5 bd3b
00000080: b91d f23c acc5 cb3c 1f61 dd3c fe97 c23c
00000090: 59f7 97bc 663e 163d 2b7c 17bd 6c00 edbc
000000a0: 7d05 16bc 8b9c ce3a 9aa6 d23b 70da 313d
000000b0: d98f 1e3d 731c 08bd 0e3f fd3b 0c7d b23c
000000c0: db7c b6ba c770 0fbc 14e3 3e3c 0a3c 52bc
000000d0: 7cee 0d3d 2493 8c3c ecf5 2dbc 207f ae3c
000000e0: 28a2 f2bc b0e8 e73b 2a45 fc3b 3ecc 1ebd
000000f0: b5c1 f03b 2905 f2bc 9fa0 b33c 8fda 15bb
00000100: 9a5b e1bc db66 153d 72c6 77bc 09b7 6f3c
00000110: 4aeb cbbc 2489 323d 6a8b 493c 2db1 8b3c
00000120: d6eb 043d 649f 24bd 491b 273d 19f8 c1bc
00000130: 5501 4b3b f4ca 063d e567 4a3b 6507 ffbc
00000140: a523 58bc 6241 0d3c 1541 b73b a37f d0bc
00000150: 2c52 51bb 6ac4 27bd 5bad ff3c b24f 05bd
00000160: 7a5c 323d 139c e4bc 42a6 0d3d 48e4 9ebb
00000170: 99e2 c1bb 1d69 88bb 005f 533c fd51 d93c
00000180: 0fdf df3b b9e9 873c 7142 293d caea 8e3c
00000190: f6a4 f53c 2caf dabb bb90 90bc 593e 893c
000001a0: a1d5 913c 0f83 3b3b 0d11 bcbc b988 a5bc
000001b0: a131 c7bb b390 733c fcdf 44bc 2efd 60bc
000001c0: c6bd 18bb 8644 2a3c a2a1 b63b 89af 16bc
000001d0: d13d 933c d521 083c 2fe0 1bbd 7839 053d
000001e0: 42ef 73bc c057 1bbb 8112 8fbb 045d 7dbb
000001f0: 50a6 223d 80fb ab3a e37f 60bc 769e 1ebd
00000200: eb98 2d3d e355 c8bb 23a1 753c db72 29bd
00000210: 95d0 de3b bec5 c7bb 1a38 2abd 38cd 25bd
00000220: 19cb 153c 4b12 87bc 99a1 fd3c 3564 c73b
00000230: e1f0 df3b dfc8 f9bc 401e 00bc 9118 45bc
00000240: a2ea 7bbc 545e 0a3d 4417 88bc fb08 263d
00000250: e95e 9cbb 9d91 b4bc a7e0 223c e33a a93c
00000260: cddd 6bba a06b e5ba 42d1 fcbc 157b 453c
00000270: 357a 03bc c3bd 9dbc 32cd 333d 894a 6e3c
00000280: 7090 05bd 99bc b83c 4c65 e7bb 2ed3 0ebd
00000290: 37d5 92bc 03b6 ce3c 3c7f d2bc e735 bd3c
000002a0: 9586 f9bc 6010 1fbb 9c57 03ba 3235 0e3d
000002b0: 15cf 76bc 45a6 3f3c a33d f53c 7fba 46bc
000002c0: d27a 103d 1fb4 7c3c de4a 4abc d315 07bd
000002d0: 684e dd3c 4c6a af3c d66e 633c d893 c5bc
000002e0: fab0 32bc 916c 023d 6df7 a73b eae1 d03b
000002f0: a4d1 403c 5d2e 2a3d 6d12 14bd 1c53 e63c
00000300: 33e3 ec3b 535a aebc e448 27bd e1fe 95bc
00000310: 0408 f4bb a8b4 ef3c af1c 8e3c c50b a9bc
00000320: ab69 b73c 5fe3 f53c ae50 be3a c5d7 23bd
00000330: 3ffe 2bbd 7c10 98bc 2fb8 0f3d e228 193d
00000340: 7f96 a43b ee08 1d3d bad5 8dbc d0ce 0abd
00000350: c970 8c3c 0bf1 fdbc 79b9 6ebc 5b71 ba3c
00000360: 8945 26bd 6eca d6bc 36af 943c 0709 d2bc
00000370: cf2f a03c 6168 183d 6b26 113d 38fe 1d3d
00000380: 2e34 b1ba dc1e b7bb 5547 c73c 6f58 d03c
00000390: 3e61 18bd 2d2f 69bc 4c32 b6bb cee7 033b
000003a0: 67ba 0ebd 6d71 0f3d aeff f0bc e2fe 15bd
000003b0: 9294 87bc 989f 553c 214d df3c 476a d7ba
000003c0: 388c f53c 9955 a93c c9a3 4a3c 1d38 18bd
000003d0: 337f 3abc 8fce 97bc 13a3 4d39 894f 17bd
000003e0: 2883 dd3c 4dd5 ac3c 291d 323c 7bf5 93bc
000003f0: df41 14bd a070 0cbc ec2a b2bc 2694 2e3d
0.019446848 -0.0039082034 0.0029696433 0.025847401 0.0024108016 0.003978009 -0.032389097 -0.02124436
0.01199848 -0.008890951 -0.036939297 0.01943582 -0.004648083 0.0389174 -0.042391956 -0.01876961
0.0002717566 0.02827518 -0.027925227 -0.012177051 0.012804411 0.011800095 0.019434188 0.029940274
-0.03422429 0.03402318 -0.012841069 0.009941962 -0.014955402 0.00036698804 -0.037421033 0.0057970835
0.029555188 0.02487453 0.02702385 0.023754116 -0.018550562 0.0366806 -0.03698365 -0.028930865
-0.009156582 0.0015763206 0.006428552 0.04342121 0.038711403 -0.033230256 0.007728464 0.021788143
-0.0013922708 -0.008754916 0.011650819 -0.012831697 0.034651265 0.017160006 -0.010617714 0.021300852
-0.029618338 0.007077299 0.0076986747 -0.038769 0.0073473104 -0.029543476 0.021927176 -0.0022865867
-0.0275095 0.036475044 -0.015122997 0.014631041 -0.024892468 0.04358782 0.012301305 0.017052257
0.032451473 -0.04019107 0.040797506 -0.023677872 0.0030976136 0.032908395 0.003088468 -0.031131456
-0.013192092 0.0086215455 0.005592475 -0.025451487 -0.0031939847 -0.0409588 0.031210592 -0.032546706
0.043545224 -0.027906453 0.034582384 -0.0048489906 -0.005916905 -0.004162921 0.012901068 0.026528353
0.0068320106 0.01659094 0.04132313 0.01744594 0.029985886 -0.006673714 -0.017647138 0.016753362
0.017802062 0.0028612053 -0.02295735 -0.020206796 -0.0060789143 0.014866042 -0.012016293 -0.013732238
-0.0023306473 0.010392314 0.0055734674 -0.009197124 0.017973812 0.008308847 -0.038055595 0.03252551
-0.0148885865 -0.0023703426 -0.0043662195 -0.0038660178 0.03970939 0.0013121217 -0.013702366 -0.03872534
0.042382162 -0.006113754 0.014992031 -0.0413693 0.0067997673 -0.0060965708 -0.04155741 -0.040478915
0.009142661 -0.016488215 0.030960845 0.0060849437 0.006834135 -0.03049129 -0.007819712 -0.012029783
-0.015375765 0.033781365 -0.016612656 0.04053591 -0.0047720564 -0.02204209 0.009941257 0.020657962
-0.00089975895 -0.0017503388 -0.0308615 0.012053271 -0.008024742 -0.019255525 0.04389686 0.014544138
-0.03260845 0.022550868 -0.007061636 -0.034869365 -0.017923934 0.025233274 -0.025695436 0.023096992
-0.030459682 -0.0024271235 -0.0005010308 0.0347187 -0.015064021 0.011697357 0.029936617 -0.012129425
0.03527338 0.015423804 -0.012346951 -0.032979798 0.027014926 0.021412991 0.013881406 -0.024118349
-0.010906452 0.03184182 0.005125931 0.0063745873 0.011768732 0.04154812 -0.036150385 0.028115802
0.0072292327 -0.021283304 -0.040841 -0.018310012 -0.0074472446 0.029260948 0.017347662 -0.020635495
0.022389254 0.030015646 0.0014519894 -0.040000696 -0.041990515 -0.018562548 0.03508776 0.037392505
0.0050228233 0.038338594 -0.017313827 -0.033888638 0.017143624 -0.030998727 -0.014570587 0.02275913
-0.040593658 -0.026219573 0.018149953 -0.02563907 0.019554047 0.03720892 0.03543703 0.03857252
-0.0013519579 -0.0055883955 0.024326006 0.025432793 -0.037202112 -0.014232439 -0.005560195 0.002012718
-0.034845736 0.03502028 -0.029418793 -0.03662003 -0.016550336 0.013038538 0.027258458 -0.0016434871
0.029974088 0.020670699 0.012368151 -0.03716289 -0.011382866 -0.018531112 0.00019611073 -0.036941085
0.02704008 0.021097803 0.01087121 -0.01806139 -0.036195632 -0.008571774 -0.021748982 0.042621754
