src/best_model.pth (torch, 79157 bytes, 19 tensors)

net.0.weight f4 [128, 50]
00000000: 6040 dcbd 203e 85bc 8d67 3fbb 1b87 0ebe
00000010: 8de5 3dbe 6e8f 043e 18f8 8cba 0ac5 d53d
00000020: 37ab 2e3d 3b72 ccbc e2aa 1d3e e594 e1bd
00000030: bfe9 1a3d 0d57 09bd e1f6 0fbe 8858 953d
00000040: e3d8 db3d baf0 05be d25a 153e 6a4a 90bd
00000050: d012 75bd 905d 313e 7f0d f93b 7abb 2fbc
00000060: 30d1 fe3d 6df1 e3bd c4f7 53bd 5ebe 863d
00000070: c543 423d f928 adbd 3131 81bd 5ff0 98bd
00000080: 54ff 733e d1e7 523b fd76 a13d 551f a23d
00000090: 8621 a6bd 2120 0abc 3553 043d 1cad 46be
000000a0: 7754 6abd 5c85 003d 9415 26be bba0 b13d
000000b0: 8931 0a3e 6b62 2a3d df2b 83bd 3333 58bd
000000c0: 6c9a f6bc 37c0 04be f36b 5fbe 2ca2 203b
000000d0: 7950 eebd d8a1 d2bd 9e85 1cbe b081 2c3d
000000e0: 203a 51bc 4425 eabd 18c1 a53d ec77 993b
000000f0: fabc 85bd 48d3 04be 4790 343d 9f3d 4abd
00000100: 55aa 5bbe 9ada cfbd 12a5 e5bb 28ec 8cbd
00000110: 39ca 2c3c da20 e03b 22a4 d33c 6974 a83d
00000120: 59ab 793d 6b83 a0bc 30b3 8dbd 76b6 c23d
00000130: 0de3 b23d 825e c63d 674d 413c cd5b 373d
00000140: ac19 6f3d 7f46 b4bd e8d3 073e fa6f 88bd
00000150: 5ea0 66bd 7a4d fb3d c1f0 ecbc f9b0 21be
00000160: 002f 40bd c9f0 a1ba 534d 473d 437e c8bd
00000170: 935d 363e 98d6 9bbc 35cd 20be df95 f83b
00000180: cb9e a53d 9655 8a3d 2d62 38bd b186 5d3d
00000190: 0973 86bc dfc3 983c 6264 b8bc 0fce da3d
000001a0: b4bb 4ebd 83f1 13bd fa44 723d ffeb dabd
000001b0: 3763 9a3d 27c2 263e 496a a63d 5022 163e
000001c0: 6ca1 17be 00a4 4cbb c1f5 ea3d 3bc1 4d3b
000001d0: 62f2 1c3d b59a eabd fd86 5cbd 991a dfbd
000001e0: 9aa3 f3bd 50d7 c13d 6e42 9abc d08c a5bc
000001f0: 4fc1 61be e957 373d 3e0f 73be d25d 1b3e
00000200: b14a d03d e442 d3bb 8a21 8c3c dc93 88bd
00000210: 4ba5 123c 0428 e43d b391 5ebd e73f a3bd
00000220: a681 52bd 15a4 b13d d790 a4bd 594c c1bd
00000230: 39eb ae3d 6e10 d3bc e0dc 74bd 2a42 a2bd
00000240: e9c7 83bd 61f5 bbbc 1121 1c3d 98e2 0c3d
00000250: f60d e23d bfb6 373e f0ec edbc 6614 4cbc
00000260: ef04 f2bd 70a4 e73d 165d 11bc b217 0b3e
00000270: 28e8 fdbd a2a0 193e 6af9 86bb fd07 a2bd
00000280: ac55 2ebe a894 03bc 7932 363d e659 0cbd
00000290: c7ba 43bd ed39 5dbd ac9e f73d 9c8a cb3d
000002a0: 98a8 be3d f563 cabd 95aa 8fbd cdd3 6ebd
000002b0: 0c78 babd bab1 81bd a3ed 333c 3c31 b83d
000002c0: 2085 013e ed80 233e 31b4 41be 481d a9bc
000002d0: adc4 7b3d 4056 3fbd 38ed 953d 68ba f9bd
000002e0: cd6a bcbd 4058 1bbe 5b97 c83b 9692 2cbc
000002f0: 6c5f 063e 0480 a03c e561 273d 45ab 28bd
00000300: 48fa d33d 900f 57bc c18c 83bd b7c7 f23d
00000310: fe26 7dbd 9c2d bcbd 5cd1 f0bd 441f 763e
00000320: a026 58bd ef83 e5bd 2b1e 963d 690e e9bd
00000330: 875e 7cbd 570b 9abd 0e54 e63d 0a34 74bd
00000340: baf9 c53d ac4a 25bd 14d3 1cbe 8c80 bdba
00000350: 2d14 c43d d3ea db3c 649c 903d 456e af3d
00000360: 0594 12bd f413 a3bd 444d bfbd 2465 d8bd
00000370: 1055 2f3e 328a 8c3c 22a2 efbd 4130 cc3d
00000380: 39b8 e5bd 7e40 9f3c 6a35 e037 af7f 973d
00000390: 90ab 923c c94a 383e b2ec e63d f074 c9bc
000003a0: 6450 38be a8b6 c5bd 74fd 57bd 9d41 d3bd
000003b0: cc7c 843d 701c e43d 2eaa 08be 96f2 ee3b
000003c0: d0b9 9d3c 450c b03d 8683 aa3d a1be bebd
000003d0: b8ef 26be 45d1 9a3d c524 913d aed2 823d
000003e0: 7b56 cdbd d65c b83b 0a29 c0bd a774 d4bd
000003f0: 0b2f c3bc 1d84 79bd 9544 67bd 59ee ce3c
-0.10754466 -0.016264975 -0.0029206008 -0.13918726 -0.18544598 0.12945339 -0.001075509 0.10437973
0.042643752 -0.024956813 0.15397218 -0.110147275 0.037820574 -0.033530284 -0.1405902 0.072922766
0.10734727 -0.13080111 0.14585426 -0.07045443 -0.059832394 0.17320848 0.007600486 -0.01072585
0.12442243 -0.11130033 -0.05174996 0.065792784 0.04742791 -0.084550805 -0.06308211 -0.07467722
0.23827869 0.003218163 0.07884023 0.07916132 -0.08111863 -0.008430512 0.032305915 -0.19401973
-0.05720946 0.03137718 -0.16219169 0.08673235 0.13495459 0.041597765 -0.06404852 -0.052783202
-0.030102931 -0.12963949 -0.21818523 0.0024510724 -0.11636443 -0.102847755 -0.15285346 0.042115867
-0.012770206 -0.11432889 0.0809347 0.0046834853 -0.06530185 -0.12971222 0.044082906 -0.049375173
-0.21451695 -0.10149117 -0.0070082033 -0.06880981 0.0105462605 0.0068398537 0.0258351 0.082253285
0.060954425 -0.019593915 -0.06918943 0.09507458 0.08734713 0.09685995 0.011798239 0.044765282
0.058374092 -0.088025086 0.1326443 -0.06661983 -0.05630528 0.12270637 -0.028923394 -0.15790166
-0.046919823 -0.0012355085 0.048657726 -0.097897075 0.17809133 -0.019023225 -0.1570328 0.0075862254
0.08086928 0.067546055 -0.045015503 0.05408353 -0.016412275 0.018648086 -0.022508804 0.10683834
-0.050471976 -0.036118995 0.059147812 -0.10689544 0.07538455 0.16285 0.08125741 0.14661527
-0.14807671 -0.0031225681 0.11472655 0.0031395692 0.03831709 -0.11455289 -0.053839672 -0.10893745
-0.11896439 0.09464896 -0.018830504 -0.020208746 -0.22046398 0.044761572 -0.23736283 0.15172508
0.10170496 -0.006447183 0.017105836 -0.06668827 0.008950542 0.11140445 -0.05433817 -0.07971173
-0.051393174 0.08673874 -0.080354385 -0.0943839 0.08540959 -0.02576467 -0.059780955 -0.07922776
-0.06434614 -0.022944154 0.038117472 0.034395784 0.11037819 0.17940806 -0.029043645 -0.012456035
-0.11817347 0.11310661 -0.008872291 0.13583258 -0.12397796 0.15002683 -0.004119088 -0.0791168
-0.17024869 -0.008031048 0.04448173 -0.03426542 -0.047785547 -0.05401032 0.12090811 0.09938547
0.093095005 -0.098823465 -0.07014958 -0.058307458 -0.091049284 -0.06332727 0.01098195 0.08993766
0.1264844 0.1596715 -0.18916394 -0.020643845 0.06146686 -0.046713114 0.073206365 -0.12193757
-0.09200058 -0.15170383 0.0061215586 -0.010532996 0.13122338 0.019592293 0.040864844 -0.04117896
0.10350472 -0.013126269 -0.06423331 0.11854499 -0.061804764 -0.09188387 -0.11758682 0.24035364
-0.05277121 -0.11206805 0.07329973 -0.11379702 -0.061613586 -0.07521694 0.11246501 -0.05961994
0.09666772 -0.040354416 -0.15314895 -0.0014457866 0.09574161 0.026845371 0.07061079 0.08565954
-0.035785694 -0.0796279 -0.09340909 -0.10566166 0.17122293 0.01715574 -0.11700846 0.09970141
-0.11216778 0.019439932 2.6727754e-05 0.073974006 0.017904073 0.17997278 0.11275615 -0.024591893
-0.17999417 -0.096539795 -0.052731946 -0.10315249 0.064691156 0.111382365 -0.13346168 0.007292102
0.019253641 0.0859609 0.08325867 -0.09313703 -0.16302383 0.07559446 0.07087091 0.0638784
-0.100262605 0.0056263013 -0.093828276 -0.10373812 -0.023826143 -0.06091701 -0.05646189 0.025260137

net.0.bias f4 [128]
00000000: 8584 a6bd 65d1 9a3b e57b 37be 06db 95bc
00000010: 193a 5d3b 3917 6cbd 70cd 68be d481 febd
00000020: a2c7 86bd 74e7 8fbd 886d 923b a5be cabd
00000030: 1b46 f8bd 3395 0fbe fde7 66be 2482 1dbe
00000040: 8451 5dbe 237b 9a3d a2ae 2dbe ea0d 633d
00000050: 8c3e 1bbd 4d0b 13be 378e 7cbd 2eb4 84bd
00000060: 497d 5d3c 0f2e c4bd 05c9 583c 3ae3 68bd
00000070: cdac 76bd 1297 dd3d 5684 4f3d 2c57 7ebd
00000080: cd56 24bd 8903 93bd 3d3f 553d fd29 60bd
00000090: b775 bebd d3e1 6ebe be9d 79bd b851 fabd
000000a0: 97cd 7bbc 741f 383d 0fb1 27be 2e0d d73d
000000b0: facd 8c3c c960 ed3d f40c 4cbc ca54 aa3c
000000c0: 6402 0dbd abcb e0bb 91ab 01be bf72 bfbd
000000d0: fe24 7dbe c829 0dbe 7854 60be 6ff1 95bd
000000e0: 2daf 74bd c050 d8bb f834 02be f016 023e
000000f0: c06d 6dbe 3f59 073d 6229 31be b901 c6bd
00000100: 427f 283c b206 5cbd 4c1c bcbd d8af 3fbd
00000110: 8db3 da3b 04fb 27be 96b1 dfbb aace a4bd
00000120: 2bfc fdbc d870 05be e8ca 3439 fe97 93bc
00000130: a848 a63d 857c b1ba 4ad3 b2bb f7d5 02bc
00000140: 07de cc3d a4aa 2cbe ec99 ee3b 48d6 143d
00000150: 9ec5 e63d 8974 78be b6a6 75bd 08ba 9cbd
00000160: 28da 273d 0e33 38be d04b 213d 19fe 81bd
00000170: 802e f9bc 0937 00be 500c b83d 9ab3 40bd
00000180: 6c3f f5bd 179f cbbd 3d19 7ebe 1d17 21be
00000190: 86ea d43d bbca 0fbc 7493 e3bc 8078 0f3c
000001a0: 8a10 e93d 64f6 e338 a7da 03be 4539 dd3c
000001b0: dc6c b4bc 3cd3 a0bd 6bc5 c03d 797b 3dbd
000001c0: 0e59 84bd 1ef5 6e3d ae01 043d 185b 06bd
000001d0: 7634 9abd e601 d0bd 6d4f 82bd 8cae 13bc
000001e0: 5299 253e e390 b1bd 488e 9ebc e467 76bd
000001f0: 0c86 51be 0f04 28be a731 c03c e9c4 f73c
-0.08130745 0.004724669 -0.17918356 -0.018292915 0.0033756553 -0.057639334 -0.22734618 -0.124271065
-0.06581046 -0.07026568 0.0044686235 -0.09899644 -0.121227466 -0.14021759 -0.22549434 -0.15381676
-0.21613127 0.07543018 -0.16961148 0.05543319 -0.037901446 -0.1435978 -0.061659064 -0.06479679
0.01351864 -0.095790975 0.013231521 -0.056857325 -0.06022339 0.1081983 0.050663315 -0.062094852
-0.040121842 -0.07178409 0.05206226 -0.054727543 -0.09299796 -0.23328333 -0.06094145 -0.12222618
-0.015368841 0.04495187 -0.16376136 0.10500561 0.017188061 0.11590726 -0.01245426 0.020792384
-0.034426108 -0.0068602166 -0.12663104 -0.09348058 -0.24721143 -0.1378547 -0.21907222 -0.073214404
-0.059737373 -0.006601423 -0.12715518 0.12704062 -0.23186398 0.033044096 -0.17300943 -0.09668297
0.010284247 -0.053717323 -0.09185085 -0.046798557 0.006674236 -0.16404349 -0.00682659 -0.080472305
-0.031004032 -0.13031328 0.00017241726 -0.018016811 0.08119327 -0.0013541138 -0.0054573165 -0.0079855835
0.10003286 -0.16861969 0.0072815325 0.036337167 0.11268161 -0.24263205 -0.05997344 -0.0765267
0.040979534 -0.17988226 0.03937894 -0.063472934 -0.03041768 -0.12520994 0.089867234 -0.04704628
-0.119749874 -0.09942453 -0.24814315 -0.15731473 0.10396294 -0.008776362 -0.027780272 0.008756757
0.11380108 0.00010870097 -0.12876378 0.027004847 -0.022024564 -0.0785279 0.094126545 -0.04626033
-0.06462298 0.05833923 0.032228164 -0.032801718 -0.075295374 -0.10156612 -0.063628055 -0.009013783
0.16171768 -0.08670213 -0.019354954 -0.06015767 -0.20461291 -0.16407798 0.023461176 0.030245261

net.2.weight f4 [128]
00000000: e9be 7a3f 09d2 623f 4560 653f 332a 723f
00000010: 13ec 533f c17c 473f fb74 773f e26c 613f
00000020: fcf7 5b3f a19a 5b3f a0c4 5a3f 2704 753f
00000030: c581 6a3f 458a 683f 3329 683f 707a 833f
00000040: df46 573f 6d63 673f 1925 4f3f 343c 5f3f
00000050: 791d 723f 7f41 6b3f ca09 593f 1fd3 4d3f
00000060: b1c1 683f 5e12 743f e76b 743f 7ea0 543f
00000070: e6fa 623f e1f7 5c3f dceb 593f d09f 723f
00000080: 5209 673f 1dc3 703f 550a 723f 292c 593f
00000090: 9770 633f 8cf3 773f acc2 543f 0b48 633f
000000a0: d676 593f c36e 653f 2bb0 6c3f bf21 553f
000000b0: b244 653f 0461 5a3f 2f12 563f 37a0 593f
000000c0: c2b4 5b3f bc32 623f 97fa 703f 2530 743f
000000d0: 7290 773f b90d 6a3f e7d4 5b3f 9cd3 7c3f
000000e0: ac6d 643f e7db 713f 1569 5e3f f0e3 5f3f
000000f0: 2b0c 703f a705 663f 7c1a 5d3f 4a28 633f
00000100: 474d 653f 8897 563f a9b7 693f a8d4 6a3f
00000110: e9da 773f 71be 653f 5ea1 723f dddf 5d3f
00000120: 5f7a 6a3f 3c10 723f f6ae 553f d320 683f
00000130: f319 553f 988c 563f 41c7 633f 5839 5d3f
00000140: aaef 643f 4219 6a3f 4ea8 5c3f f02d 453f
00000150: f45c 523f 83cf 5d3f 300b 673f d06a 5f3f
00000160: 2adb 6f3f 243c 6f3f a380 6c3f 3a11 5a3f
00000170: d411 6c3f 7dda 5d3f 5ef9 713f 1361 7a3f
00000180: cb91 6d3f 3d57 4a3f 4ad6 703f 4420 743f
00000190: 9ffb 5c3f de02 593f d960 783f 5582 5c3f
000001a0: f436 483f 349a 5c3f 1d73 643f 3a01 493f
000001b0: 9763 713f 4b6a 683f a507 523f 7189 6b3f
000001c0: 4a9d 593f 2f76 6e3f ccac 543f 11cc 543f
000001d0: 9f71 6e3f 6d81 6c3f 172e 7a3f 8ddb 5c3f
000001e0: ca52 593f ffdc 6d3f b922 6c3f 5762 613f
000001f0: 6bcd 683f 4993 623f a64e 603f 4b65 5e3f
0.97947556 0.8860174 0.8960002 0.9459564 0.82782096 0.77924734 0.96662873 0.88056767
0.8592527 0.8578282 0.85456276 0.9570946 0.9160426 0.9083598 0.90687865 1.027174
0.84092516 0.90386087 0.8091598 0.8720124 0.9457622 0.91896814 0.8478056 0.8040027
0.9092055 0.95340526 0.95477146 0.8305739 0.8866409 0.86315733 0.8512552 0.94775105
0.90248597 0.9404772 0.94547015 0.8483301 0.88843673 0.96856 0.83109546 0.88781804
0.84946954 0.89622134 0.9245631 0.8325462 0.89557946 0.85304284 0.83621496 0.85010093
0.8582269 0.88358665 0.9413237 0.9538596 0.9670478 0.9142719 0.8587174 0.9876039
0.89229846 0.9447617 0.8687909 0.8745718 0.93768567 0.89852375 0.86368537 0.8873335
0.8957104 0.8382497 0.9129587 0.9173074 0.96818405 0.89743716 0.94777477 0.86669713
0.91592973 0.9455602 0.83470094 0.90675086 0.8324272 0.8380828 0.8897591 0.86415625
0.894282 0.9144479 0.8619431 0.7702322 0.82173085 0.8664476 0.90251446 0.8727236
0.9369379 0.9345114 0.92383784 0.85182536 0.92214704 0.8666151 0.9452113 0.97804374
0.9280059 0.79039365 0.9407698 0.95361733 0.86321443 0.8477 0.9702278 0.8613637
0.7820885 0.86172795 0.8923815 0.78517497 0.9429259 0.9078719 0.82042915 0.92006594
0.8500563 0.93149084 0.8307617 0.8312388 0.9314212 0.9238499 0.9772658 0.8627251
0.8489195 0.9291534 0.9224048 0.8804068 0.9093844 0.8850599 0.8762001 0.8687331

net.2.bias f4 [128]
00000000: 57c3 bebd 5b02 d93c 357d bfbd 8f50 f1bc
00000010: 2058 29bb 9fd7 323c e506 063d ccb5 fc3b
00000020: 66ba 153e 5ecd 5c3d 0713 973d 0e6c ca3b
00000030: cfcd 99bc 6e05 a6bd b9ed 9f3b 59f2 d03c
00000040: 55ea d53b 0499 88bb e2fb 05be ffde 5bbd
00000050: 3a73 153e 9aa9 67bd 1d6c 88bd 2b51 bd3d
00000060: d632 973d 361b 13bc 2437 83bd df74 03be
00000070: 4940 023e 0c7c 973d 1c1a d03c 222d cebd
00000080: 782e 4bbd 5632 563d 4056 09bd 5f45 513d
00000090: 43e2 0dbb 0353 673c aea0 00bc 6d8c e0bd
000000a0: eff9 8ebd bc19 80bc fc82 cebc 52b4 b73d
000000b0: a6d3 9e3d 8c00 dabd 035f f1bb a079 683d
000000c0: 2797 0c3e ba8f 81bd 8b17 c83d e1fa 3d3d
000000d0: 7713 47bc 467b 433d 5517 ee3d 0fa6 eb3d
000000e0: f0eb 8cbd 1241 353c c285 77bd 650d 873d
000000f0: 7414 fabd 0e00 4abd f30b 9dbc 25f5 abbd
00000100: 8cb1 693d 2ff6 243c 1aca 43bb 7ca8 67bd
00000110: 2421 bc3c 2ea7 0f3b d6a5 863d d944 72bc
00000120: 6a70 20be 6529 a1bd 2b03 d23d bfe5 a23c
00000130: a14f 923a 9cf2 293a 000a 54bd 04fc 20bd
00000140: 16fd 303c b475 803d 4de9 31bd ddad 20bd
00000150: cb00 e33d de7a de3c ad05 863d 56a7 db3c
00000160: f807 873d ebfe c53d e23b 1b3e d9da 9bbc
00000170: 118d e63d fdbf f5bc 1fe2 733d e326 dc3d
00000180: 8a65 e1bd 3ca1 f4bc 3b37 6ebc 6533 2c3d
00000190: 1bb7 433d 213a f4bc 2601 283d ee7e d53c
000001a0: 616f 95ba 86d6 fb3d f4cc b0ba 1727 ff3c
000001b0: 9340 023e f17c 393c ea77 063a f55d edbd
000001c0: 5154 8ebd 7319 a9bd 3f29 b9bd af96 86bd
000001d0: 208c e1bd a9c9 bebb 6932 b03d 4825 fbbc
000001e0: 31d0 f4bd cdd6 033e a4c3 6cbc fae7 24bd
000001f0: c0fe 2cbe f176 a73d 6839 a83d a69d 69bd
-0.09314602 0.026490381 -0.09350053 -0.029457359 -0.002583988 0.010915666 0.03272142 0.0077121016
0.14621887 0.05390679 0.07376676 0.006177432 -0.018774895 -0.081065044 0.0048806337 0.025506185
0.0065281787 -0.0041686315 -0.13084367 -0.053679463 0.14594737 -0.05655823 -0.06661246 0.09243997
0.07382743 -0.008978656 -0.064070016 -0.12837552 0.12719835 0.07396707 0.025403075 -0.10067202
-0.049604863 0.052294098 -0.03352952 0.051091548 -0.0021649755 0.014118913 -0.007850809 -0.10964284
-0.06981265 -0.015637271 -0.025208943 0.0896994 0.077552125 -0.106446356 -0.0073660626 0.056756616
0.13729535 -0.06326242 0.097701155 0.046381835 -0.012150637 0.047724985 0.11625544 0.115062825
-0.06880939 0.011062877 -0.060430296 0.06594352 -0.122109324 -0.04931646 -0.019170737 -0.08396367
0.057054088 0.01006846 -0.00298751 -0.056557164 0.022965021 0.0021919715 0.065745994 -0.014786922
-0.15667883 -0.078692235 0.102545105 0.019884942 0.0011162647 0.000648299 -0.05176735 -0.03930284
0.010802528 0.0627245 -0.043435384 -0.03922831 0.110841356 0.027158197 0.06544051 0.02681319
0.06593317 0.09667762 0.15159562 -0.019025253 0.11257375 -0.029998774 0.059541818 0.107496046
-0.11005695 -0.029862039 -0.014539535 0.0420412 0.047782045 -0.029812874 0.04101672 0.026061501
-0.0011400991 0.122967765 -0.0013488815 0.03114657 0.12719946 0.011321292 0.0005129563 -0.115901865
-0.06949676 -0.08256807 -0.0904107 -0.06571709 -0.11013055 -0.0058223796 0.08603365 -0.030657426
-0.11953772 0.12874909 -0.014450941 -0.040260293 -0.16894054 0.08176983 0.082140744 -0.05703511

net.2.running_mean f4 [128]
00000000: 7af3 233e f465 893e f216 0c3e 9cfe 7e3e
00000010: ef8f b33e eb6d 483e 9719 6f3e 519a 263e
00000020: d660 1a3e fb6b 9e3e d9e6 7b3e 92b7 443e
00000030: 7634 353e c55e 393e 4d14 213e 3122 4f3e
00000040: ae3f 323e 5d7f c63e bbab 5c3e 946f bb3e
00000050: b0a8 663e 8067 353e 2f82 8e3e bd5c be3e
00000060: ee9b 9d3e 90fc 913e edff a53e b9d6 893e
00000070: 6e91 7e3e 731c 9f3e 9e39 823e b784 8b3e
00000080: 696e 803e 5631 453e 1bac 833e 2a36 8f3e
00000090: 3cfb 643e cabf 3a3e a0a7 a63e ef12 423e
000000a0: 98bf a63e 3385 a53e 9881 4e3e 6581 a43e
000000b0: 4704 8b3e b7d6 bc3e af4b a03e cfa0 923e
000000c0: 9333 643e 4811 833e 3382 5d3e 60cd 553e
000000d0: fc51 d73d f358 853e 1d5b 3e3e 483e 703e
000000e0: 44f4 653e c8d3 4d3e 75b8 773e f3ab 903e
000000f0: f612 483e dbc6 a33e 0bf4 793e e59a 8f3e
00000100: 29d3 9f3e 1c4a 7a3e c168 583e baa2 943e
00000110: fd39 613e adae 2b3e 69db 6a3e 250b 8f3e
00000120: bc23 613e da21 683e ea0c 523e b224 6c3e
00000130: 70d6 883e 29db 933e d797 7f3e 2a49 933e
00000140: 6a37 b43e b195 043e d5d4 7a3e 457f a83e
00000150: e1a9 a83e 86d0 163e ddd9 4d3e e01d 613e
00000160: 6ce8 833e 0103 3b3e 55d5 d23e 0397 6f3e
00000170: b364 9b3e 02ef 153e 20f7 a53e 3eff 3b3e
00000180: 9403 603e 6b72 663e b91a f93d 2de3 1f3e
00000190: 7948 993e 3f70 783e 38c0 573e 6973 883e
000001a0: dff9 c53e ad49 8d3e 8b87 2c3e 7c8e 963e
000001b0: c663 503e a363 353e c957 a23e 1ae7 763e
000001c0: c4fc 563e dae5 b03e 1a1e 843e f971 a23e
000001d0: 1cda 363e b6cf 513e 4e2c 383e 1da6 7c3e
000001e0: f3f9 a83e 5f8e 6a3e a984 773e 8ce1 283e
000001f0: 3ad1 193e 796d 313e 33d0 603e 103c ac3e
0.16010848 0.26835597 0.13680628 0.24901813 0.3507075 0.1957318 0.23349606 0.16269805
0.15076002 0.30941758 0.2459978 0.19210652 0.17695794 0.18102558 0.157304 0.20227887
0.17407104 0.38769045 0.21549885 0.36608565 0.22525287 0.17715263 0.27833697 0.3718013
0.30783027 0.28513002 0.32421818 0.26921633 0.24860165 0.31076393 0.25434583 0.2724969
0.25084236 0.19257101 0.25717244 0.2797101 0.22361463 0.18237224 0.32549763 0.18952535
0.3256805 0.32328185 0.20166624 0.3212997 0.271517 0.36882564 0.31307742 0.28638312
0.22285299 0.25599122 0.21631698 0.20879126 0.10513684 0.26044425 0.18589444 0.23461258
0.22456461 0.2010032 0.24191459 0.28256187 0.19538483 0.31987652 0.24409501 0.28047863
0.3121579 0.24442333 0.2113371 0.290304 0.21994777 0.16765852 0.22935261 0.2793819
0.21986288 0.22669163 0.20512739 0.23060873 0.26726103 0.28878143 0.24960266 0.28766757
0.35198528 0.12947728 0.24495251 0.329096 0.32942107 0.14727983 0.2010264 0.21984053
0.2576326 0.18262865 0.41178384 0.2339745 0.30350265 0.14641955 0.32415104 0.18359086
0.21876365 0.22504584 0.121633 0.15614004 0.29938105 0.24261568 0.2106942 0.2665055
0.386672 0.27595273 0.1684858 0.29405582 0.2035056 0.1771379 0.317076 0.24111596
0.2099486 0.34550363 0.25804216 0.3172758 0.1785664 0.20489392 0.17985651 0.24672742
0.33003196 0.22905873 0.241717 0.1649229 0.1502122 0.17326917 0.21954422 0.33639574

net.2.running_var f4 [128]
00000000: d9c0 893d 2e86 093e d67e 803d 2705 fe3d
00000010: f219 6e3e d231 c73d 38a1 103e fbc9 9e3d
00000020: a26a 943d 955d 4b3e f32c e23d a5c2 dd3d
00000030: 24cc af3d 5ab5 d83d 1d22 b23d 5061 c03d
00000040: e1a3 bd3d b8c7 603e eecf 1c3e 1a20 623e
00000050: 5696 c83d 6304 a83d ae54 1d3e 4265 863e
00000060: a6f5 3b3e 8676 273e 6d76 643e 068b 2d3e
00000070: c221 0b3e 6e0e 2c3e c4bf f03d 0eee 4f3e
00000080: 5cfc f63d 4a56 ae3d 1504 0c3e 35f9 393e
00000090: c94e da3d 3483 033e a700 703e 9752 c73d
000000a0: 2c68 703e ec1c 233e 8fea 193e 86ca 4c3e
000000b0: 6e1f 1f3e 9c49 813e 9ee4 533e 1f86 383e
000000c0: 5d90 c03d 77ef fe3d 3cf2 343e c8a2 c03d
000000d0: bfb2 1e3d be58 233e 56ff e93d 6c82 ee3d
000000e0: faaa 293e 4a91 e33d 037e 173e 1639 073e
000000f0: 7d50 4e3e 0098 243e 0ee3 2b3e d711 3a3e
00000100: 27ac 223e dbfb 0c3e 732b 143e 07fb 5c3e
00000110: 4971 0a3e 1cd3 af3d 5690 d73d 77d6 083e
00000120: 6e8f ec3d 893d 0e3e 4555 da3d 3303 c53d
00000130: 2430 ef3d c143 243e 84af 0f3e aba4 473e
00000140: 7030 153e 4822 843d 4ded dd3d a3b0 263e
00000150: 093c 4c3e b654 bd3d 5c08 eb3d 87ea 083e
00000160: bc17 f43d 7c12 c43d fcae a83e 2201 003e
00000170: ed70 2e3e a197 ac3d 5418 163e c111 993d
00000180: da12 f43d 8099 f83d c91e 813d 6b4f b73d
00000190: a549 123e bb68 033e 4cca d13d b052 d13d
000001a0: bedd 7e3e 42b0 2f3e f629 823d fc20 2f3e
000001b0: 79c2 cf3d f693 bc3d eff0 423e f04a 033e
000001c0: ff2b e83d 17f8 713e 5635 173e 4446 583e
000001d0: a56a c23d fac5 f33d 9a3a a13d 6735 063e
000001e0: bb73 223e 05e2 dc3d 2de1 f63d a2b2 803d
000001f0: cbb4 a73d 502e f33d 0113 d03d 0627 463e
0.06726236 0.13430092 0.06274192 0.124033265 0.23252085 0.09726299 0.14124 0.077533685
0.07246901 0.19859917 0.1104373 0.10828141 0.085838586 0.10581465 0.08697913 0.09393561
0.09259773 0.21951187 0.15313694 0.22082558 0.09794299 0.08203962 0.15364334 0.2624913
0.18355426 0.16353807 0.22310801 0.16947564 0.13587096 0.1680238 0.117553264 0.20305654
0.120598525 0.08512552 0.13673432 0.18161471 0.10659558 0.12843019 0.23437749 0.0973255
0.23477238 0.15929002 0.15030883 0.19999132 0.15539333 0.25251472 0.2069268 0.18019913
0.09402535 0.12448018 0.1767053 0.09406048 0.038744684 0.15951821 0.114256546 0.1164597
0.16569129 0.11111696 0.14794163 0.1320537 0.20147891 0.16073608 0.16785833 0.18170868
0.15885983 0.1376795 0.144697 0.21580134 0.13519777 0.08585188 0.10525577 0.13363062
0.115507945 0.13890661 0.10660795 0.09619751 0.11679104 0.16041471 0.14031798 0.1949641
0.14569259 0.06451851 0.10836277 0.16278319 0.19944777 0.09244673 0.11476204 0.13370715
0.119185895 0.09573838 0.32946002 0.12500432 0.17035265 0.084273584 0.14657718 0.074740894
0.11917658 0.12138653 0.063047 0.08950695 0.14285906 0.1283292 0.10243663 0.102208495
0.24889275 0.17157081 0.0635566 0.17102426 0.101445146 0.09207909 0.19037221 0.12821555
0.113365166 0.23629795 0.1476644 0.21120554 0.09492997 0.119029954 0.078725055 0.13106309
0.1586446 0.10785297 0.120546676 0.062840715 0.081887804 0.11874068 0.10159875 0.19350824

net.4.weight f4 [64, 128]
00000000: d387 8bbd a038 2bbc 98e7 9bbd 03b4 dc3d
00000010: bc61 8ebd 27cf 12bd fa15 2a3c 52af 573a
00000020: 7733 283d 55c7 9bbc b663 24bd 7eff b13d
00000030: 8919 be3d 1fd6 c13d e1a4 93bd 665a 87bd
00000040: 4755 523d c370 29bc 4657 ac3d 3f8f cd3d
00000050: d8f3 553d 9fc6 503d c2d8 f83d 6785 a3bd
00000060: a6df a43d d448 21bd 0e65 ccbd ed4a dd3d
00000070: 019a b1bd 1241 ec3c 58bd 93bc 3692 8fbd
00000080: 0fd6 00bd 3cf9 f93b 54c3 3f3d 122b 713d
00000090: f537 44bc ccd7 f03b 5b4c 87bc 6073 b6bc
000000a0: 1459 973d f6ce 2b3d daa1 20be fbce 973c
000000b0: e8e1 373e 85a4 503d bb19 52bd 19d4 d13c
000000c0: 9267 9c3d f62b b13d 4830 93bd 2a62 a4bb
000000d0: 82df 5fbd 7bc6 963d 1310 193d 87be 5abb
000000e0: 96b1 22bd 5c40 9cbd 798a 233e e631 c33c
000000f0: d125 5cbc 4014 033d 3a21 10bd 18ab 53bd
00000100: 1431 7d3a 3cbd 0b3d f374 19be e4fe d0bc
00000110: f051 d6bd 77e4 a23d 73b4 b2bb ffee adbd
00000120: 396c 8dbd e916 28bd a02e df3c 8b70 8e3d
00000130: f533 433b 5747 0d3d ee48 283c b04a 223c
00000140: fb65 2c3b b292 b9bd 9f1a 94bd ecb2 3f3d
00000150: fb8e c6bd fb7a 2f3d 02bd c4bd 9866 a7bd
00000160: 891f b3bc 4613 d0bd e2a7 b2bd a091 813d
00000170: 09c0 1c3d a366 0ebd d8c4 063e f89e b8bc
00000180: 9df2 9cbd db12 02bd e17d 8f3d 4be4 90bc
00000190: 45d2 083e c4a6 22bd a33c d23c 341d 3fbd
000001a0: 9777 573c f005 88bb 5f3c e33c eef7 3a3d
000001b0: c738 38bd ca63 cfbb c7ce dc3c 4c66 69bd
000001c0: 587a 953c 0e49 973c 9b88 a2bc 7534 813d
000001d0: ceca a3bd 2e7a debc fef9 6abd c638 ed3c
000001e0: 6e43 3f3d 93bc d0bc d40a bcbc 3598 473d
000001f0: f0a6 78bd 430c aebd fd3d e2bd 956f 193d
00000200: 3b8d 9abc f897 ddbb 0569 51bd 6e1a 863c
00000210: 90d4 1abd b840 c13d 5ea4 063d d648 bd3b
00000220: 8a94 81bd f836 f5bd 07e6 6e3d 9bad 373d
00000230: 1603 d83c 6622 3cbe 258d 3ebd b230 2f3d
00000240: dfd4 c1bc 9586 dd3d 7327 a33d bf23 59bd
00000250: 6f67 5f3d de6b 903c 5786 bf3d 900c b4bd
00000260: 2f3b eabc fcd2 dfbc e947 e3bd 8737 80bd
00000270: 3c1f 9fbd 9de1 d83d 30a2 5dbd aac0 893d
00000280: 021b 083c a33a 28bd b8de d03d 2c35 923d
00000290: e344 de3d cd9b 92bd 0c58 bcbd 9d22 c13d
000002a0: f535 acbd 5eee 4bbd fd2b e7bd 58d7 cfbc
000002b0: 2652 b93c 97ea c8bd 2744 a63d 42a3 c5bc
000002c0: 6676 a6ba b5e8 443d d778 73bd 72e4 8b3d
000002d0: 72e1 08bd b700 b8bd 227d c43d d11d 74bd
000002e0: 7737 adbd 9f5c e7bd 630d a3bd bd51 a03d
000002f0: 0974 4c3b 79c5 16bd 466f 033d 846d ab3d
00000300: c836 213d ffbe 4f3d bf0e 00bd 586b ff3c
00000310: 43cd 98bd 8d2f 013e 8afa e23a 26d8 2ebd
00000320: 9546 473d 7be5 fbbd 5800 a23d c74a 73bd
00000330: a705 60bd 5ea1 823d 26a6 4b3c 1230 3abc
00000340: 67cb 053d 12fb 32bd db7c 703b b584 58bd
00000350: a30a 92bd 8553 8b3d f84d 913d adf0 f93c
00000360: 9855 853d b951 ab3c e21d bebc 732d 9fbc
00000370: bed1 bc3c 10d5 10bd 69ff d23c 35db 903d
00000380: a66d 0dbd 0074 f0bd f684 f13c 0cfa afbd
00000390: 8cfb 9bbd 696e e5bc ee5f 6abd 658e 66bd
000003a0: 3ac8 0d3e 537c f0bd 1915 0d3d a509 08bb
000003b0: fe28 27bd 38a4 883d d5be 86bd 60cf 23bc
000003c0: 99a1 8cbd d964 eeb9 1845 dcbd 3228 acbc
000003d0: 27c2 4ebc 0cfc e3bd 4e42 e33d 55ad 0ebe
000003e0: 7613 1dbd df2b 233d ef39 de3d 948c 023e
000003f0: 22ad 95bc fa8d cc3b b48f 4e3d 923f 90bd
-0.06813016 -0.010450512 -0.076125324 0.10776522 -0.06952235 -0.035842087 0.010381216 0.0008227724
0.041064706 -0.019015947 -0.040134154 0.086913094 0.09282214 0.094646685 -0.072091825 -0.06609039
0.051350858 -0.010341826 0.084150836 0.10037088 0.0522345 0.05097067 0.12150718 -0.07984429
0.0805047 -0.039376095 -0.09980212 0.108053066 -0.08671952 0.028839622 -0.018034622 -0.070103094
-0.031454142 0.007628588 0.04681714 0.058878966 -0.011976232 0.0073499437 -0.016515901 -0.022271812
0.07390037 0.04194542 -0.15686741 0.018531313 0.1795727 0.050938148 -0.05129407 0.025613831
0.07636942 0.08650963 -0.07186943 -0.005016585 -0.054656513 0.07362076 0.037368845 -0.0033377723
-0.03972014 -0.07629463 0.15970792 0.023827504 -0.0134367505 0.032001734 -0.035187937 -0.05167684
0.00096584973 0.034116015 -0.14986019 -0.025512166 -0.10464847 0.079537325 -0.00545364 -0.084928505
-0.069054075 -0.041037474 0.027243912 0.069550596 0.0029785607 0.034491863 0.010271294 0.009905502
0.0026305902 -0.09061183 -0.0723164 0.046801493 -0.0969524 0.042841893 -0.09606363 -0.08173865
-0.021865623 -0.10159926 -0.08723427 0.06326604 0.038269076 -0.03476585 0.13161027 -0.02253674
-0.07663462 -0.031756263 0.07006431 -0.017686984 0.13361461 -0.03970982 0.02566368 -0.04665871
0.013151071 -0.0041510984 0.027738748 0.0456466 -0.044976022 -0.0063290345 0.026954068 -0.056982324
0.018246815 0.018467452 -0.01984053 0.063088335 -0.07997666 -0.02715787 -0.057367317 0.028957736
0.046695165 -0.025480544 -0.022954382 0.04872914 -0.06070608 -0.084984325 -0.110469796 0.03745993
-0.018866172 -0.006762501 -0.051125545 0.016370025 -0.03780037 0.09436172 0.032871597 0.005776505
-0.0632716 -0.11973375 0.05832484 0.044843297 0.026368659 -0.18372497 -0.046521325 0.04277105
-0.023661075 0.10816685 0.07966509 -0.053012606 0.054542 0.01762956 0.09351795 -0.087914586
-0.028592674 -0.027322285 -0.110977 -0.06260591 -0.07769629 0.10589907 -0.054109752 0.06726201
0.00830722 -0.041071545 0.1019873 0.07139048 0.10852983 -0.07158623 -0.09196481 0.0943043
-0.08408729 -0.04978787 -0.11287687 -0.025371239 0.02262218 -0.098103695 0.08118468 -0.024125699
-0.001270008 0.04807349 -0.059441414 0.06830682 -0.033418126 -0.08984511 0.0959418 -0.059598748
-0.08457845 -0.11296963 -0.07961538 0.0782809 0.0031197092 -0.03680942 0.03208854 0.08370498
0.039358884 0.050719257 -0.031264063 0.031179115 -0.074610256 0.12615795 0.0017317098 -0.042686604
0.048651297 -0.12299629 0.07910222 -0.059397485 -0.05469289 0.063784346 0.01242975 -0.011364
0.032664683 -0.04369647 0.0036695513 -0.052860934 -0.07130935 0.068030395 0.070949495 0.030510271
0.06510466 0.020912992 -0.023207609 -0.019430852 0.023049232 -0.035359442 0.025756555 0.070730604
-0.034528397 -0.11740875 0.029482346 -0.085926145 -0.07616338 -0.02800675 -0.057220392 -0.05628814
0.13845912 -0.11742463 0.03444395 -0.0020757702 -0.040810578 0.06671947 -0.06579367 -0.0099981725
-0.0686676 -0.00045470035 -0.10755366 -0.02101526 -0.012619532 -0.111320585 0.11096631 -0.13933308
-0.038348638 0.03983676 0.10850894 0.12748939 -0.018271033 0.006242511 0.050430015 -0.07043375

net.4.bias f4 [64]
00000000: 789e a2bc 7d69 8a3c 8a18 6fbd c972 273d
00000010: 57a7 953d 88b2 0c3d 42f8 323b 6ef9 f7bd
00000020: fb7b 003e 2685 d1bc b6f4 3cbd 1491 88bc
00000030: d561 bdbd 5ce7 51b8 f69e 18bd 058c ce3d
00000040: d012 9d3d c583 cabd e6db c7bc 91a3 cb3c
00000050: 4528 23ba 0922 0e3d cd8b 02bd 1da2 e6bc
00000060: 8e94 2c3d ad32 a2bc 976b 1cbe 3e3c 163d
00000070: 5075 b23d d762 2ab9 11d6 c33d cc0f a2bd
00000080: 42f7 2d3d daee 67bc 4892 cebd 5586 69bd
00000090: 5468 653d eefb 5dbd 3003 90bd a091 93bd
000000a0: a077 e8bd 20b9 fcbb 6e5b 2b3d e948 e43c
000000b0: bdd0 033d d7cf 73be 408c 23bd 5eaa bf3d
000000c0: 18d7 b8bd be2d 18bc c9b5 e3bd 40fc 13bd
000000d0: b96b a53d 4f53 f2bc 13a5 c4bd dc4a 3bbd
000000e0: ef40 35bd f168 b9bb 743f cabd b081 013d
000000f0: 1125 b33d d601 2cbd d2df b93d 6742 9ebd
-0.019850954 0.016896004 -0.05837301 0.040880952 0.07307308 0.03434995 0.0027308618 -0.12108122
0.12547295 -0.025576185 -0.046131812 -0.016670741 -0.092471756 -5.0044953e-05 -0.037260972 0.100853
0.07669604 -0.09888414 -0.024396848 0.024858268 -0.0006223957 0.034700427 -0.031871606 -0.028153474
0.04213386 -0.019799555 -0.15275417 0.036678545 0.08713782 -0.00016249284 0.09562314 -0.07913169
0.04247213 -0.014156068 -0.10086495 -0.057012875 0.0560077 -0.054195337 -0.07031858 -0.0720551
-0.11350942 -0.0077124983 0.04183524 0.027866798 0.03218149 -0.23809753 -0.039928675 0.09358667
-0.09025401 -0.00928825 -0.11118657 -0.036129236 0.08077187 -0.02958074 -0.09601798 -0.04572569
-0.04425138 -0.005658262 -0.09875384 0.03161782 0.08747304 -0.04199394 0.090758935 -0.07727509

net.6.weight f4 [64]
00000000: c219 663f dcec 6b3f 0807 7b3f f344 5e3f
00000010: a628 713f 3bb4 723f 134f 7a3f 81fa 743f
00000020: 6433 6d3f 73b7 783f 9ee0 5a3f a272 6a3f
00000030: aeb4 773f fcd6 6b3f f534 703f 1962 663f
00000040: e78f 633f 1835 5c3f 1f1a 5e3f 0050 713f
00000050: 71c9 5d3f 05eb 5c3f e735 6d3f 0058 813f
00000060: da87 603f bfef 6e3f 78b3 723f 1935 663f
00000070: de91 573f 2bcd 6e3f a3e9 6e3f 3060 593f
00000080: 4273 733f 57e6 6b3f 7d66 7d3f a149 733f
00000090: 2a62 803f 649a 613f 3938 653f e788 5b3f
000000a0: b45f 5d3f aa57 7a3f b366 523f 8c5a 633f
000000b0: 8627 663f dc3b 743f cfed 693f 0b39 693f
000000c0: 315e 6a3f 3cbf 5b3f 4949 633f 44dd 6f3f
000000d0: e935 753f 9efa 603f d28e 793f 364b 643f
000000e0: 9806 683f c3f0 793f 87bf 533f 7899 683f
000000f0: 179c 4d3f ccf9 683f bb29 773f d2c3 673f
0.89883053 0.92158294 0.98057604 0.8682396 0.9420265 0.9480626 0.9777691 0.9569474
0.9265654 0.9715492 0.8549899 0.91581166 0.9676007 0.92124915 0.93830806 0.89993435
0.8889145 0.86018515 0.8675861 0.94262695 0.866355 0.8629611 0.92660373 1.010498
0.87707293 0.93334574 0.948051 0.8992477 0.8420695 0.9328181 0.9332525 0.84912395
0.95097744 0.92148346 0.9898451 0.95034224 1.0029957 0.88126206 0.89538914 0.8575577
0.86474156 0.97790015 0.82187957 0.8881004 0.8990406 0.9540384 0.9137849 0.91102666
0.91549975 0.85838675 0.887837 0.93697 0.95785385 0.8788241 0.9748355 0.8917726
0.9063506 0.97633 0.8271412 0.90859175 0.803163 0.9100616 0.9654805 0.90533173

net.6.bias f4 [64]
00000000: 4f4e 28bb e539 833d 76e1 f9bd dda9 0cbd
00000010: 82bb 08bd 2ca2 9d3d 8195 79bd e363 10bd
00000020: cf3a 8a3d 1b31 c43d 4780 5e3d 5fc6 8c3c
00000030: a175 8b3d e3ff ed3d a45d 403d 69ae f8b8
00000040: 9e18 f5bd 049a 023d 2b2f 19bd ec4b 3fbd
00000050: 4e32 093d a5f1 8cbb e70e d3ba 649b 26bc
00000060: 937f 07bd 1e6d c33d f472 aabd 6f5d 7c3d
00000070: d061 833c 4b39 8ebd 7690 073e f5a3 f1bc
00000080: 3e87 913d cb8a 863d 8bee 5f3d 26b1 12bc
00000090: eda8 553d 1091 8b3d d7e9 efbc 4319 55bd
000000a0: 2084 fd3c d6a3 a73c 0075 273d e63a a03d
000000b0: 4241 963d 551c bebd 80b8 4a3d 5770 493d
000000c0: d654 41bc 3987 083d 008b d8bd 728b 29bc
000000d0: 4553 503d 1e11 b63d 1538 acbc d8b6 873d
000000e0: 2edf d73c ae38 c53b a443 e93a 9ce3 353d
000000f0: 13b6 eb3c 58c2 11bd e923 343e 0aec 91bd
-0.0025681441 0.06407527 -0.122012064 -0.03434168 -0.033381946 0.076969475 -0.060933594 -0.03525151
0.06749498 0.095796786 0.054321554 0.017184434 0.06809545 0.11621072 0.046964303 -0.00011858048
-0.11967586 0.031885162 -0.0373985 -0.046703264 0.03349524 -0.004301267 -0.0016102464 -0.010168884
-0.03308065 0.09542297 -0.08322707 0.061612543 0.016037852 -0.069445215 0.13238701 -0.029497126
0.071058735 0.065694414 0.05467085 -0.008953368 0.052163053 0.06814778 -0.029286308 -0.052026045
0.030946791 0.020463865 0.040883064 0.07823734 0.07336666 -0.09282748 0.04949236 0.0491794
-0.011800012 0.033332083 -0.10573387 -0.010348188 0.050860662 0.088899836 -0.021022836 0.066266716
0.026351538 0.0060187196 0.0017796648 0.04440652 0.028773343 -0.03558573 0.17591824 -0.07125099

net.6.running_mean f4 [64]
00000000: bdcb ae3e cdf0 133f fb47 aa3e 29e1 ce3e
00000010: d8de 013f 5c05 e23e a211 d13e e0c1 5f3e
00000020: f1a7 1f3f bb06 3a3f 07f4 ba3e d75c bf3e
00000030: a4f4 a03e 3d0b 033f 6639 ee3e 963f be3e
00000040: c57d e83e 9a4f d93e a34e a03e 8e0b cd3e
00000050: 6833 303f 5b9c a83e 33fe d53e 0a73 e23e
00000060: 2b21 d73e 90d2 953e 7aa4 813e a34e f73e
00000070: b803 ec3e 3796 1c3f 1352 323f 41c9 a23e
00000080: 8b2a 0e3f 481b 143f f210 cb3e c819 ab3e
00000090: 0c65 e33e 2cf7 113f d2c8 df3e ed98 c93e
000000a0: a290 c33e 6672 fc3e 4b6e 063f ebb5 da3e
000000b0: f91e 403f 2ee8 033e 83f7 183f 620f 363f
000000c0: 9fa8 d43e daa1 0e3f 288b ac3e ad51 e53e
000000d0: 4f0d 0f3f 06b4 e73e f8fb 953e 8e9a c13e
000000e0: 6fd3 f63e deb2 de3e fda1 7c3e 119f d63e
000000f0: cc39 003f 7bee f83e 3329 253f 71e1 cf3e
0.34139815 0.5778931 0.33258042 0.4040616 0.5073066 0.44144714 0.40833765 0.21851301
0.62365633 0.7266652 0.36514303 0.3737552 0.31436646 0.51189023 0.46528167 0.37157887
0.45408455 0.42443544 0.31309995 0.40047878 0.6882844 0.3293179 0.417955 0.44228393
0.42017493 0.2926221 0.25320798 0.48302183 0.46096587 0.6116671 0.69656485 0.3179417
0.55533665 0.5785413 0.39661366 0.33418107 0.4441303 0.5701778 0.437079 0.39374486
0.38196284 0.4930603 0.52512044 0.42716917 0.7504726 0.12881538 0.5975267 0.7111722
0.41534898 0.55715716 0.33699918 0.44788876 0.5587968 0.45254534 0.292938 0.37813228
0.48208186 0.4349584 0.24671169 0.41918233 0.5008819 0.48619446 0.6451599 0.40601686

net.6.running_var f4 [64]
00000000: b549 933e e2b2 093f a875 803e bdfc ce3e
00000010: 6fbe 113f d544 e73e d4a1 0a3f ba3f 5e3e
00000020: 62db 133f 7013 5f3f 5811 c43e 7dec 013f
00000030: 54cf 973e c439 033f 53f0 293f 3396 af3e
00000040: 1727 da3e b651 d73e 7732 993e 0c80 ae3e
00000050: 20c3 303f e8af 863e 74f4 033f ea35 da3e
00000060: e8b9 9a3e 15f2 913e 4bf2 933e 07bc d83e
00000070: 0ed6 ce3e 48d2 2c3f cb92 303f f345 eb3e
00000080: b53d 063f 1c53 073f 7c33 e83e a470 a83e
00000090: e6d7 d13e 7bee 273f 7c35 bb3e 7e79 a03e
000000a0: 8448 a23e cf80 d33e 9744 053f addb bd3e
000000b0: 8683 673f 793f cf3d 4218 283f 8da2 433f
000000c0: c5b3 e83e 6d9b 1e3f f222 df3e 2b6e e03e
000000d0: e79e f83e 2878 f63e eff6 8a3e a351 b73e
000000e0: 1b7d 203f bf70 183f 9e17 523e 4422 dd3e
000000f0: d9f7 d63e 8f35 103f 1029 083f 84e2 1c3f
0.28767172 0.5378858 0.25089765 0.404272 0.56931204 0.45169702 0.5415318 0.21703997
0.57756627 0.87139034 0.38294482 0.5075148 0.29650366 0.5126002 0.6638233 0.3429428
0.42607948 0.42054528 0.29921314 0.34082067 0.6904774 0.2630608 0.5154488 0.42619258
0.3021996 0.28505006 0.28895792 0.42330953 0.40397686 0.67508364 0.6897399 0.45951805
0.5243791 0.5286119 0.4535178 0.32898438 0.4098503 0.6559827 0.36564243 0.3134269
0.3169595 0.4130921 0.52057785 0.37081662 0.90435064 0.10119528 0.65662014 0.7641991
0.45449653 0.6195591 0.4358135 0.4383405 0.48558733 0.48138547 0.2714152 0.3580447
0.62690896 0.59547037 0.20516822 0.43190205 0.41985968 0.56331724 0.53187656 0.61283135

net.8.weight f4 [32, 64]
00000000: e5c9 92bc 36a9 fcbd beb5 0dbe 7214 83bd
00000010: d8f2 6d3c 5844 90bd a318 afbd e124 ccbd
00000020: efbd 2fbe 69f9 b2bd c4a4 f5bd 721d d43d
00000030: 1e0b 97bd 57b2 f1bd 02dd 44bd 2b7a 6fbc
00000040: df7a abbd 5a58 38bc 033a 51bc 2ad7 133e
00000050: 2f41 c13d fbe5 b0bd 3da0 b839 679a ac3d
00000060: d776 18bc 424b c63d 59c2 d5bd a136 973d
00000070: 48de 023e 9ea4 213e eb19 21bd d6f2 1f3d
00000080: acac c8bc e927 cb3d e1f0 aa3d 5494 95bd
00000090: d4a5 023e 386b 293d 8c53 08bd b868 d5bc
000000a0: c741 05bb 9d56 11bc d72f 8fbd c0d7 f23d
000000b0: 95bb 66bd 41b3 85bc 27cf 81bd d62a 42bc
000000c0: a6a0 ec3b 4b5b c73d ddaf 4dbd 6fce 0fbd
000000d0: b238 c9bd d964 cdbd 5b1e 0ebe c303 b03d
000000e0: ad7d 3dbd 7778 033e 3dcf eb3d ef84 b63d
000000f0: 00f4 193d 65e3 343e 528f 84bd bc96 4e3d
00000100: 75d2 203e c2e0 113d 0fa3 dc3c 7fed b33d
00000110: 33ef 34bd f419 6dbd 6585 4b3d da8e 94bc
00000120: 3fd2 caba 4a1a 0ebe 1966 85bd 0be7 6f3d
00000130: a460 1fbe 776c 0bbd e300 98bd e79c ad3d
00000140: dafe b5bd 1c7c b73c bfbd 23bd ecf3 ecbd
00000150: 6bfd 8cbb 6a31 e1bb e13c e23d aef2 1fbd
00000160: e55c a13d cc11 28be 3283 97bc f78c c9bd
00000170: aced 0cbe 70b1 723d 0056 ee3d 1b3b 76bd
00000180: f699 0d3e bf91 34bc 8539 0dbe b800 2e3d
00000190: efb0 203e 2eb7 70bd 4d25 ab3d 13a1 ebbd
000001a0: ad62 cc3d 4cae 873d 0f20 0d3d 38c8 1abd
000001b0: 7992 dc3b 6df0 66bd 4668 923d a569 00bd
000001c0: af97 283e ccca 3ebb 6595 21bd 84fc 4b3d
000001d0: 814e d5bb a54e cabd ff03 a63b 7628 52bd
000001e0: 845f 5ebc 84df be3d 55f6 71bd 338e dabd
000001f0: 76e8 89bd 5fa4 c33b 36c1 0fbe 0070 033d
00000200: 2fcf dcbd 1e85 fabd b8e1 be3d f273 d93d
00000210: bea5 043e 3d0a d93c 5264 f73d ecef 433d
00000220: 0ab3 3abd 6594 1a3e b6f8 363b e2c6 613d
00000230: acaa 133b 986d 6f3d f65b 89bd 12db 42be
00000240: cdb4 de3d 9e73 3f3e 87b4 88ba 51bc 1bbe
00000250: bc28 cc3d a350 d93d 095e c83d 9800 16be
00000260: ab6a 09bd 04c3 a53d d954 fd3c 6a0c 9fbd
00000270: db04 03be 0e7b 1e3d 5668 00be 370d 9e3d
00000280: fca0 a13c 3888 c0bd 88a1 5d3d 11b7 143d
00000290: f617 143d 7d7a 253e c7f4 6e3d 1b95 2cbd
000002a0: 1e94 353d 16ca f1bd a740 5bbd cce1 70bd
000002b0: 3be9 163d ab5e 98bd 956e 9ebd 7ec0 bcbc
000002c0: e166 95bd 9784 623d 3259 e1bc cb04 85ba
000002d0: ddda 5f3d 949c 96bd cb33 433d c7be 14be
000002e0: 0cc1 c93c 22d7 3cbd 6ca7 86bc ae4a dabd
000002f0: e03a aa3d de08 c53d 2601 67bd 464c 953d
00000300: 100b b23d 1657 f63d b903 433d 859b 353e
00000310: 2e7e d43c 6d7c 8fbd 25ca afbd 0a5f f0bd
00000320: 2e06 14bd 35d6 8bbd 1d2d b7bc 0deb 863d
00000330: 7308 78bd e866 563c d5ec c0bc cdc1 cdbd
00000340: 0422 cd3d 4a9a 84bc 35f2 863d 09a4 dcbd
00000350: 3450 c2bd 2616 1dbc 00a4 9cbb e4a6 343d
00000360: 03ed ddbd e682 8a3d 8fd8 6dbd a746 ffbd
00000370: 4635 2dbd 9d0c 2ebc 07b4 bbbc a85d 37bd
00000380: e94a c5bd 649e 8cbd 27de 2cbe 42a9 953d
00000390: ede5 0bbd 9b2c b03d 4412 543c fa0c e23d
000003a0: 9c99 6e3d a24a a8bd cd4f 323d 76d8 fdbd
000003b0: ccef 21bd bfda 06be 8a6e 563d 9f2b 7abc
000003c0: f340 fabc e447 a63d 6adc 0cbe 993e 03be
000003d0: 7f5c 7e3d 568e 1fbe 9c6f 1fbc 4e88 24be
000003e0: 4864 fa3d c277 bd3c ce96 5abb 1c87 dbbd
000003f0: be4a 1fbd ddf6 8ebd 4e89 a3bd a549 27bd
-0.017918536 -0.12336962 -0.1383886 -0.06400384 0.0145232305 -0.070442855 -0.08549621 -0.099679716
-0.17162298 -0.087389775 -0.11994317 0.10357179 -0.07375167 -0.11801594 -0.048062332 -0.014616529
-0.08373045 -0.011251533 -0.012770179 0.14437547 0.09436261 -0.08637615 0.00035214602 0.084278874
-0.009305677 0.09682323 -0.104374595 0.073834665 0.12780106 0.15785453 -0.039331358 0.039049946
-0.024496399 0.09919722 0.08346725 -0.07303682 0.12758571 0.041362017 -0.0332828 -0.02605091
-0.0020333396 -0.008870748 -0.069915466 0.11857557 -0.056331236 -0.016320826 -0.06338339 -0.011851033
0.007221299 0.097342096 -0.050216544 -0.03510898 -0.09825267 -0.10029001 -0.13878767 0.085944675
-0.046262432 0.12838922 0.11514137 0.08912074 0.037586212 0.17664869 -0.06472649 0.05043672
0.15705283 0.035614736 0.026933221 0.08785533 -0.04417343 -0.05788608 0.04968776 -0.018134523
-0.0015474035 -0.13877216 -0.06513614 0.05856995 -0.15564209 -0.034038987 -0.07422044 0.08477192
-0.088865 0.022398047 -0.039975878 -0.11569962 -0.0043026707 -0.0068723457 0.11046768 -0.039049797
0.07879046 -0.16413039 -0.018495176 -0.0984134 -0.1376254 0.05925125 0.11637497 -0.06011496
0.13828263 -0.011021077 -0.13791473 0.042481154 0.15692495 -0.058768444 0.08356724 -0.11505332
0.099797584 0.06625041 0.0344544 -0.0377886 0.006731328 -0.05638163 0.07148795 -0.03135075
0.16464113 -0.0029112576 -0.039449114 0.049801365 -0.0065096025 -0.098782815 0.0050663943 -0.051308118
-0.013572577 0.09319976 -0.05907281 -0.106716536 -0.067337915 0.0059705223 -0.14038548 0.032089233
-0.10781705 -0.12232421 0.09320396 0.10617818 0.1295385 0.02649414 0.120796815 0.04783623
-0.0455809 0.1509567 0.002791924 0.05512131 0.0022532148 0.058454126 -0.06706993 -0.19028881
0.10874329 0.18696448 -0.0010429778 -0.15208556 0.09968707 0.10611083 0.09783561 -0.14648664
-0.033548992 0.08093837 0.030924248 -0.0776604 -0.12794821 0.038691573 -0.12539801 0.07717364
0.019730084 -0.09400982 0.054109126 0.0363074 0.036155663 0.16160007 0.058338907 -0.042134386
0.04433071 -0.11806123 -0.053528454 -0.058809087 0.03684352 -0.074399315 -0.077359356 -0.023041006
-0.07295013 0.05530223 -0.027508352 -0.0010148523 0.054652084 -0.07354084 0.047656815 -0.14525901
0.024628185 -0.046103604 -0.016437255 -0.10658775 0.08312011 0.09620832 -0.05639758 0.07289939
0.08693516 0.12028329 0.047610972 0.17735107 0.025939073 -0.07006154 -0.08583478 -0.11736877
-0.036138706 -0.06827966 -0.022360379 0.06587801 -0.060554933 0.013086058 -0.02355043 -0.1004673
0.100162536 -0.016186852 0.06589166 -0.10773475 -0.09487954 -0.0095878 -0.0047802925 0.04410447
-0.10836222 0.06763248 -0.058067854 -0.12464648 -0.042287134 -0.010623124 -0.022912992 -0.044767052
-0.096334286 -0.06866148 -0.1688162 0.07307674 -0.03415482 0.08602258 0.012943808 0.11037631
0.058251962 -0.0821736 0.043533135 -0.12394802 -0.03953533 -0.13169383 0.052351512 -0.015269189
-0.030548548 0.08119181 -0.13755956 -0.12816848 0.06209993 -0.1558164 -0.0097312 -0.16067621
0.122261584 0.023128394 -0.0033354047 -0.107191294 -0.03888964 -0.06980679 -0.07985173 -0.040841717

net.8.bias f4 [32]
00000000: 38e8 873c b6e1 81bd 4541 9a3d 1a0f 3c3d
00000010: 5f25 6f3e ca40 743e f0e9 0dbd f638 d6bc
00000020: c0ee 743d ae2f aabd 501c 4c3e 99ea 903d
00000030: 41aa eb3c 1f6d 2b3d 67bf 0cbd 0ee3 83bd
00000040: e108 cdbd 271c f13d 3423 a1bd d1f0 f03d
00000050: 466f ae3d e41a 223e cee7 4c3e d0f5 403e
00000060: 1074 023c 488c 1f3e 558b 063d ad0b ebbd
00000070: 9f0b da3d b1bb 3c3e 3b90 93be 528b 5fbc
0.016590223 -0.06341879 0.075319804 0.04591284 0.233541 0.2385284 -0.03464693 -0.026150208
0.059798002 -0.083098754 0.19932675 0.07075996 0.028767707 0.041852113 -0.034362223 -0.064397916
-0.10011459 0.11772948 -0.078680426 0.11764682 0.085173175 0.1583057 0.20010301 0.1884377
0.007962242 0.15580857 0.03284772 -0.11476836 0.10646748 0.18430974 -0.28820977 -0.013644056

net.10.weight f4 [32]
00000000: 0cec a03e e0d5 5f3e f7ac 743e c881 823e
00000010: 68bc 9c3e d209 a73e c1a5 693e 7679 ae3e
00000020: 6b7d 8d3e 99eb 4d3e a479 a63e 51a1 733e
00000030: faef 8c3e 4bc3 a03e 74a8 b33e 36bd a03e
00000040: 70f6 aa3e 7306 af3e cb05 8d3e 30ce ce3e
00000050: 292e 9b3e 665b af3e fb24 c33e 550c 723e
00000060: c7e1 af3e de08 a63e a61d 903e e291 903e
00000070: b309 ae3e dd70 bf3e faab a13e 0ef7 b23e
0.3143009 0.2185893 0.23894106 0.2548964 0.30612493 0.3262468 0.22817136 0.34077042
0.2763475 0.20109405 0.3251468 0.23792006 0.27526838 0.31398997 0.35089457 0.31394356
0.33391142 0.34184608 0.27543482 0.40391684 0.30308655 0.3424942 0.3811415 0.23637517
0.34351942 0.3242864 0.2814762 0.282363 0.33991775 0.37390795 0.3157652 0.34954113

net.10.bias f4 [32]
00000000: fbd8 0a3f ce76 2dbf 9f15 33bf 52ae 333f
00000010: 992b 0dbf 9f7f 05bf 8e80 0cbf 914d 053f
00000020: f4fe 233f be85 303f bf94 0cbf 2822 29bf
00000030: 849b 2bbf 966e 1e3f 26ac 173f ca4b 2ebf
00000040: ab7e 213f c493 2bbf ed26 113f 1c49 113f
00000050: 40de 0ebf 7cb7 043f 81ac 15bf 2fbe 28bf
00000060: 1a02 163f 7756 18bf cfc8 0f3f 1597 30bf
00000070: e28d 183f 2dad 0e3f 84c1 1a3f b7c0 113f
0.54237336 -0.67759407 -0.69954866 0.70187867 -0.5514465 -0.5214786 -0.5488366 0.5207148
0.640609 0.68954074 -0.5491447 -0.66067743 -0.67034173 0.6188749 0.5924705 -0.68084395
0.63083905 -0.6702235 0.5670002 0.5675218 -0.55807877 0.51842475 -0.58466345 -0.659152
0.58596957 -0.59506935 0.56165785 -0.6898053 0.59591496 0.55732995 0.6045153 0.56934685

net.10.running_mean f4 [32]
00000000: 789a f53e 8818 863e 9b3f d23e 4bcb b63e
00000010: baf3 453f c711 1a3f 250d a93e 7e31 d83e
00000020: 48ef 123f 11dd bc3e 0360 273f e0f9 e53e
00000030: 5d87 093f 58c0 dd3e 0059 9c3e 4c13 f23e
00000040: 3a72 963e e1e8 3f3f 38b1 9c3e febd 153f
00000050: 41e5 253f 64f3 fc3e a1e4 423f 3fac 073f
00000060: f855 d63e 4e60 443f 6d58 bc3e cf6b ae3e
00000070: 8bdc f93e b13b 073f 09ad 563e 0bbf b33e
0.47969413 0.2619059 0.41064152 0.35701975 0.7732502 0.60183376 0.3301784 0.4222526
0.57396364 0.3688741 0.6538088 0.44917202 0.5372217 0.4331081 0.30536652 0.47280347
0.29384023 0.7496472 0.30603957 0.5849303 0.6480294 0.49404442 0.7613011 0.529972
0.41862464 0.7670945 0.36786214 0.34066626 0.48801073 0.52825457 0.20964445 0.35106692

net.10.running_var f4 [32]
00000000: 1c7f 183f c829 463e 94fa af3e 06e7 773e
00000010: 46fe 703f e682 ff3e 3c8d 913e bdf8 fd3e
00000020: 218c 043f 61c7 6e3e 97a7 193f d3b8 a73e
00000030: ba47 243f a82a ec3e 464d c73e 1d48 ec3e
00000040: 4fcf 8e3e 43c0 5f3f 8ad3 633e 5e63 433f
00000050: e756 413f 946f fc3e 3e96 473f 0365 c43e
00000060: 9265 e03e bfa5 823f b64d 953e f2c2 a93e
00000070: f124 f03e 44b3 1e3f 5c37 3b3e 108a c03e
0.59568954 0.19351876 0.34370863 0.24209222 0.9413799 0.49904555 0.28428066 0.49603835
0.5177632 0.23318245 0.60021347 0.32758197 0.64171946 0.46126294 0.38926142 0.46148768
0.2789254 0.87402743 0.22248664 0.763235 0.7552323 0.49303877 0.77963626 0.38358316
0.43827492 1.0206832 0.2916085 0.33156544 0.46903184 0.6199229 0.18282837 0.37605333

net.12.weight f4 [1, 32]
00000000: 2ec5 583e 4b89 43be 6303 27be 21d2 323e
00000010: c8ee 4ebe 2a4a 5ebe f45b 45be 5458 573e
00000020: e0f5 3d3e 1833 383e 271c 52be 97c4 44be
00000030: 93d8 36be 3686 443e 9c8c 463e c118 2bbe
00000040: af34 3c3e f5f6 4abe b6e0 4b3e 34b9 4e3e
00000050: ba12 5dbe ce18 513e 8f13 46be 45a1 47be
00000060: 9cfd 4b3e 99ac 4abe 7b76 553e 1eec 2bbe
00000070: 5d01 4d3e b162 673e 47db 333e f5d3 603e
0.21168968 -0.19095342 -0.16309886 0.1746297 -0.20208275 -0.21707979 -0.19273359 0.21029788
0.18550825 0.1798824 -0.20518552 -0.19215618 -0.17856054 0.19191822 0.19389576 -0.16708662
0.18379472 -0.19820769 0.19909939 0.20187837 -0.21589175 0.20419618 -0.19343399 -0.19495113
0.19920963 -0.19792403 0.20845978 -0.1678929 0.20020051 0.22596242 0.17564116 0.21955855
