src/best_model_50.pth (torch, 79244 bytes, 19 tensors)

net.0.weight f4 [128, 50]
0	0x3d37af92	0.04484517
1	0xbccfb43d	-0.025354499
2	0x3d977a36	0.07396357
3	0x3dfa03b0	0.122077346
4	0xbdaa336a	-0.08310588
5	0xbe0d2b6b	-0.13786094
6	0xbe0ca595	-0.1373504
7	0x3d3c05e7	0.045904066
8	0xbdbb4299	-0.09143562
9	0xbd805e42	-0.06267978
10	0xbd0da303	-0.03457929
11	0x3df5f8a1	0.12010313
12	0x3db9d5c8	0.09073979
13	0x3d70ceac	0.058790848
14	0x3deba3e4	0.11505869
15	0x3deb2a50	0.1148268
16	0xbdc7ea8d	-0.09761534
17	0xbbe885e3	-0.0070960387
18	0xbe13e882	-0.14444163
19	0xbde42266	-0.111393735
20	0xbd18e85e	-0.037330978
21	0x3d89353a	0.06699605
22	0xbe060f11	-0.13091685
23	0xbd779a13	-0.06044967
24	0xbda2ca81	-0.07948781
25	0x3cd56f48	0.02605404
26	0x3d725a1c	0.059167966
27	0x3b73fa71	0.0037228132
28	0xbe4c0f60	-0.1992774
29	0x3d39d730	0.045371234
30	0x3ddcb630	0.10776937
31	0x3d7267f0	0.059181154
32	0xbddb1cfa	-0.10698886
33	0xbdbf7d10	-0.09350026
34	0x3d58581b	0.0528184
35	0xbd934d4e	-0.07192479
36	0x3d7d730e	0.061877303
37	0x3b5319bc	0.0032211384
38	0x3c6cd61c	0.0144553445
39	0xbcc45225	-0.02396495
40	0x3d133332	0.035937496
41	0xbe002611	-0.12514521
42	0xbd90f13f	-0.07077264
43	0xbc84721f	-0.016167698
44	0xbd6b87ab	-0.05750243
45	0x3d9d0983	0.0766783
46	0xbcca49c3	-0.024693375
47	0xbd8a69c5	-0.06758455
48	0x3d80d48d	0.06290541
49	0x3c83bb00	0.01608038
50	0xbe5699fe	-0.20957181
51	0x3e053b1e	0.13010833
52	0x3d8aa952	0.067705765
53	0xbc1502ad	-0.009094876
54	0xbd0e6844	-0.034767404
55	0x3ccfc0e0	0.025360525
56	0x3dd30545	0.103037395
57	0x3dd5a7a5	0.10432366
58	0xbd83e99f	-0.06441044
59	0x3de5227f	0.1118822
60	0xbd141bd9	-0.03615937
61	0x3ca4fe55	0.020140806
62	0xbd7d5630	-0.061849773
63	0x3d0ce233	0.034395408
64	0x3a760c84	0.000938602
65	0xbd45b430	-0.048267543
66	0xbe16739b	-0.14692537
67	0x3d340488	0.043949634
68	0xbdaee249	-0.08539254
69	0xbd8702a2	-0.06592299
70	0xbd9088ec	-0.07057366
71	0xbe0f2ccd	-0.13981934
72	0x3a579a9d	0.00082246383
73	0x3d1e4e38	0.038648814
74	0x3ca19a30	0.019726843
75	0xbd75b6c1	-0.05998874
76	0xbdba9b1b	-0.09111615
77	0xbc12df77	-0.008964411
78	0x3d7c82a0	0.06164801
79	0xbd628b1f	-0.055308457
80	0x3d66d11e	0.056351773
81	0x3ae6b71b	0.0017602177
82	0xbe082c9f	-0.13298272
83	0x3dc46e03	0.095912956
84	0x3dc270de	0.09494184
85	0xbdd598df	-0.104295485
86	0xbde3ede7	-0.11129361
87	0x3d3ca471	0.04605526
88	0x3d848ac1	0.06471778
89	0xbc974d98	-0.018469617
90	0xbd523e2c	-0.051328823
91	0x3cc79262	0.024361793
92	0xbcc62c1c	-0.024190955
93	0xbdd4b6e5	-0.10386447
94	0x3dbbe8a2	0.091752306
95	0xbc30447d	-0.010758516
96	0x3dc38e6d	0.0954865
97	0x3dcbe75b	0.09956237
98	0xbb8d329b	-0.004309011
99	0xbd746866	-0.059669875
100	0x3db67bfa	0.089103654
101	0xbdb5d50f	-0.08878528
102	0x3daaa659	0.083325095
103	0x3dbae4d7	0.09125679
104	0xbd2ff279	-0.04295585
105	0x3dad1af6	0.08452408
106	0xbe11e037	-0.14245687
107	0xbc90d98c	-0.01768186
108	0x3e078ad1	0.13236548
109	0x3d5d74e3	0.05406655
110	0xbccf445b	-0.02530115
111	0xbdbd8596	-0.09253995
112	0x3d3cb41b	0.0460702
113	0x3c666f87	0.014064676
114	0xbdc2f6d8	-0.09519738
115	0xbb814a7c	-0.003945647
116	0x3ddd958c	0.108195394
117	0x3d846e34	0.06466332
118	0xbe2f261d	-0.17104383
119	0xbbe2e666	-0.0069244383
120	0xbd7bfa65	-0.06151809
121	0x3d8b5c48	0.068047106
122	0x3d91e43a	0.07123609
123	0xbd629421	-0.055317048
124	0xbd443d5f	-0.04791009
125	0xbd89b52f	-0.06724011
126	0xbd5338c2	-0.0515678
127	0x3d59ce1c	0.053175077
128	0xbe07707d	-0.13226505
129	0x3d15948e	0.036518626
130	0x3def9ef2	0.11700238
131	0x3bdac378	0.0066761337
132	0xbc50f20e	-0.012753023
133	0x3cd7b24e	0.02633014
134	0x3d09d574	0.03365083
135	0xbe1183b3	-0.14210396
136	0xbdf63a72	-0.12022866
137	0x3d51f08e	0.0512548
138	0x3dd0b772	0.101912394
139	0x3de04db4	0.10952321
140	0xbc13e435	-0.009026577
141	0x3d354cfd	0.044262875
142	0xbe0acda6	-0.13555011
143	0xbd80618f	-0.06268608
144	0xbc27a556	-0.01023229
145	0xbd91214e	-0.070864305
146	0x3c4cbf8c	0.01249684
147	0xbcc5a2a7	-0.02412541
148	0x3dcf4305	0.10120205
149	0x3cac7cf8	0.021055683
150	0x3c79268b	0.015206943
151	0x3db97009	0.09054572
152	0x3d2d9824	0.04238142
153	0xbdf9b286	-0.12192254
154	0xbd8d25f6	-0.06892006
155	0xbe01d9ed	-0.12680788
156	0xba605fe2	-0.00085592095
157	0xbcd37897	-0.025814338
158	0x3daed134	0.08535996
159	0x3e01f9d9	0.12692966
160	0xbd1cf6ad	-0.038321186
161	0x3bd7baf2	0.006583565
162	0x3e03826d	0.12842722
163	0x3d41962d	0.04726236
164	0xbe084f5a	-0.1331152
165	0xbc196b8e	-0.009364022
166	0x3d7b94ca	0.061421193
167	0x3c17fc22	0.009276422
168	0x3da5849f	0.08081936
169	0x3def2a8e	0.116780385
170	0xbd125f98	-0.035735697
171	0x3e340dce	0.17583391
172	0xbe0a524f	-0.1350796
173	0xbd8e3d15	-0.06945244
174	0x3d8971bb	0.067111455
175	0xbd31144f	-0.04323226
176	0x3e0e5523	0.13899665
177	0x3dabaf85	0.08383087
178	0xbd770732	-0.060309596
179	0x3dc317de	0.09526037
180	0xbe164abb	-0.14676945
181	0x3b9fb982	0.004874409
182	0xbd48ce4d	-0.04902487
183	0x3e11e829	0.14248718
184	0x3db3a219	0.08771152
185	0x3d6cc62f	0.05780619
186	0xbd349519	-0.044087503
187	0x3e2098ab	0.15683238
188	0x3e03cac9	0.12870325
189	0x3cbf98f2	0.02338836
190	0x3d4768b8	0.048683852
191	0xbc1f2b67	-0.009714938
192	0xbb983a7e	-0.0046456447
193	0x3ca0675c	0.019580536
194	0xbc0304f3	-0.007996785
195	0xbd22b044	-0.03971888
196	0x3d141b8f	0.036159094
197	0xbce85b04	-0.028363712
198	0xbd8d5ff2	-0.06903066
199	0xbd469b3b	-0.048487883
200	0x3d3c3e8f	0.045958098
201	0xbd5cfb29	-0.053950462
202	0x3d74eff2	0.059799142
203	0x3d6c249a	0.057652093
204	0x3da02977	0.07820409
205	0x3db67b3d	0.089102246
206	0x3dc68115	0.09692589
207	0x3d7f3d8d	0.06231456
208	0xbd7c0cb7	-0.061535563
209	0x3d50fa06	0.05101969
210	0xbe1ddbc7	-0.1541587
211	0xbd36dcb7	-0.044644084
212	0xbd41ec78	-0.047344655
213	0x3e4e852d	0.2016799
214	0x3d86e292	0.065861836
215	0x38145264	3.5362682e-05
216	0x3d874c8d	0.06606398
217	0xbe2814d5	-0.16414197
218	0xbe386fcd	-0.18011399
219	0x3c95c5e8	0.018282846
220	0xbdcfe562	-0.10151173
221	0x3cd84b69	0.026403146
222	0xbe01213d	-0.12610336
223	0x3da6d018	0.081451595
224	0xbe0a46fa	-0.13503638
225	0x3ddd11a0	0.10794377
226	0x3da493e4	0.080360204
227	0xbddd36c2	-0.1080146
228	0x3e1a35d5	0.15059598
229	0x3d2632a2	0.04057563
230	0xbddfb3d1	-0.10922969
231	0xbcb17cb3	-0.021665907
232	0x3de5cab3	0.112203024
233	0x3cf2e198	0.029648587
234	0x3beb801d	0.007186903
235	0x3d27e8c1	0.040993456
236	0xbb791221	-0.003800519
237	0xbd1bc84d	-0.03803282
238	0x3e010542	0.12599662
239	0x3d0bff7e	0.034179203
240	0x3d781546	0.060567163
241	0xbd26d6fe	-0.040732376
242	0xbc5233f4	-0.012829769
243	0xbc7669ed	-0.015039903
244	0x3db3ed3f	0.087854855
245	0x3d73db18	0.059535116
246	0x3dd08ae9	0.10182745
247	0x3d1a0f6d	0.037612367
248	0x3dbdd961	0.09269977
249	0x3dee1186	0.11624436
250	0x3dc5e52c	0.09662852
251	0xbc36b67e	-0.011151908
252	0xbe0ea547	-0.13930236
253	0xbc9cac6b	-0.019125184
254	0x3dc8019b	0.09765931
255	0xbd10cc2b	-0.03535096

net.0.bias f4 [128]
0	0xbce732eb	-0.028222522
1	0xba235a42	-0.0006231406
2	0xbdd9fe2b	-0.10644182
3	0x3dba7ca5	0.09105805
4	0xbd36b68d	-0.044607688
5	0x3dc8502f	0.09780919
6	0xbdf921a4	-0.121646196
7	0xbd41347e	-0.0471692
8	0x3dd828de	0.1055467
9	0x3d8fa077	0.07013028
10	0x3d7b7d36	0.061398707
11	0xbdf16919	-0.11787624
12	0xbe1fe945	-0.15616329
13	0xbba96745	-0.0051697814
14	0x3dc1975b	0.09452697
15	0xbd6afd2e	-0.057370357
16	0xbe1469f2	-0.1449354
17	0xbd858186	-0.06518845
18	0xbd9c1da2	-0.076228395
19	0x3dab7988	0.083727896
20	0x3c5e92fe	0.01358485
21	0xbd601a4e	-0.054712586
22	0xbe0fca38	-0.14041984
23	0xbde12278	-0.109929025
24	0x3ca5e5b5	0.020251134
25	0xbdd9b68c	-0.10630521
26	0xbdda1942	-0.10649349
27	0xbd9c0f0d	-0.07620058
28	0xbdc80197	-0.09765928
29	0x3d8ed67d	0.06974504
30	0xbe32e84e	-0.1747143
31	0xbe2c9960	-0.16855383
32	0xbe2e8f98	-0.17046964
33	0xbd89a0f8	-0.067201555
34	0xbcc90277	-0.024537308
35	0xbdf62643	-0.120190166
36	0x3c8d208b	0.017227432
37	0xbd3031f7	-0.0430164
38	0xbd028645	-0.03186633
39	0xbe0b36a9	-0.1359507
40	0xbd071b33	-0.032984924
41	0x3c7511c1	0.014957846
42	0xbd3adc31	-0.045620147
43	0xbdcaf55d	-0.099100806
44	0xbe34d078	-0.1765765
45	0x3d921125	0.07132176
46	0x3d686c4a	0.056743897
47	0xbcfb7816	-0.03069691
48	0x3ce64c84	0.028112657
49	0xbd3ce42a	-0.04611603
50	0xbdc67a36	-0.09691279
51	0xbe201ddb	-0.15636389
52	0xbcec3a2f	-0.028836338
53	0x3ba09530	0.004900597
54	0xbdc792ef	-0.09744822
55	0x3daa2c74	0.0830926
56	0xbdcea4db	-0.100900374
57	0x3d72fde2	0.059324153
58	0x3cb21382	0.021737818
59	0xbe3cf229	-0.18451752
60	0xbe714997	-0.23563229
61	0xbd2539b9	-0.04033825
62	0x3d5ae5ce	0.053441815
63	0xbd89d0c4	-0.06729272
64	0xbd2cdeb5	-0.042204577
65	0xbdf9eba8	-0.12203151
66	0xbe06b3e3	-0.13154559
67	0x3d323940	0.04351163
68	0xbe147328	-0.14497054
69	0x3d1b51ac	0.037919685
70	0xbe28c4cf	-0.16481327
71	0xbe59c45d	-0.21266313
72	0xbd83170a	-0.06400879
73	0x3d5f1393	0.054462027
74	0xbe52f0dd	-0.20599695
75	0xbdc9cb26	-0.098532006
76	0xbda3f882	-0.080063835
77	0xbdcb24e2	-0.09919144
78	0x3d1c7e7b	0.03820656
79	0xbb5776a2	-0.0032877107
80	0xbd82f845	-0.0639501
81	0xbd9ef7ad	-0.07762084
82	0xbca11e31	-0.019667717
83	0x3d213704	0.039359108
84	0xbda16702	-0.07880975
85	0xbde8bdc3	-0.11364319
86	0xbca91032	-0.020637605
87	0x3d8aa829	0.06770355
88	0xbdc3554d	-0.09537754
89	0x3c8c1098	0.017097756
90	0xbe39418f	-0.18091415
91	0x3d09efd3	0.03367598
92	0xbe26a6cc	-0.16274565
93	0xbdb74e2d	-0.08950458
94	0xbe8d894f	-0.2764382
95	0x3dd230c4	0.102632076
96	0xbda61941	-0.081102856
97	0xbdf4be92	-0.11950411
98	0xbe3fcc5b	-0.18730299
99	0xbc91f819	-0.017818497
100	0xbc357d28	-0.011077203
101	0x3db57e21	0.08861948
102	0xbe423e7a	-0.18969145
103	0xbe24af3d	-0.16082473
104	0xbd81e289	-0.06342036
105	0xbd5e8b84	-0.05433227
106	0xbdffbfa1	-0.12487722
107	0x3d936296	0.07196538
108	0xbdacb56d	-0.08433042
109	0x3dc6ed0a	0.0971318
110	0x3cc98923	0.024601525
111	0xbe279dbc	-0.16368765
112	0xbe01a42c	-0.12660283
113	0xbe38309a	-0.1798729
114	0x3dd4ee02	0.10396959
115	0xbe0e0a43	-0.13871102
116	0xbcf76e53	-0.030203974
117	0xbda8739e	-0.08225177
118	0x3c6d969e	0.014501242
119	0xbe47262e	-0.19448158
120	0xbe13ff98	-0.1445297
121	0xbe1bfdae	-0.1523349
122	0xbd76f04c	-0.06028776
123	0xbcf8cd5a	-0.030371357
124	0x3b2ac59e	0.002605773
125	0xbc1a4776	-0.009416452
126	0xbe0fa1d4	-0.14026576
127	0xbcfd65d2	-0.03093234

net.2.weight f4 [128]
0	0x3f61391d	0.8797777
1	0x3f6b1031	0.9182158
2	0x3f6b159a	0.91829836
3	0x3f546be4	0.8297713
4	0x3f6b251a	0.9185349
5	0x3f5e60d4	0.868665
6	0x3f7452f5	0.9543908
7	0x3f6c2b25	0.92253333
8	0x3f7645b2	0.96200097
9	0x3f67d8be	0.905651
10	0x3f5c6555	0.8609212
11	0x3f7ba003	0.98291034
12	0x3f719b42	0.9437753
13	0x3f624731	0.8838988
14	0x3f5b431c	0.85649276
15	0x3f58ef49	0.8474012
16	0x3f79da84	0.97599053
17	0x3f606164	0.87648606
18	0x3f64995c	0.8929651
19	0x3f59025a	0.84769213
20	0x3f709ee2	0.93992436
21	0x3f5d2d20	0.8639698
22	0x3f696752	0.9117328
23	0x3f614ea8	0.88010645
24	0x3f6c908e	0.9240807
25	0x3f6704a4	0.90241456
26	0x3f624fc0	0.8840294
27	0x3f59ee76	0.8512949
28	0x3f5eec6e	0.87079513
29	0x3f5b9aab	0.8578288
30	0x3f72b28a	0.9480368
31	0x3f5c333a	0.86015666
32	0x3f64cff5	0.8937982
33	0x3f6333bb	0.8875081
34	0x3f72b958	0.9481406
35	0x3f5c5164	0.8606169
36	0x3f7123fe	0.94195545
37	0x3f5f286f	0.8717107
38	0x3f6e7c7f	0.93158716
39	0x3f6b8d43	0.92012423
40	0x3f6c379a	0.9227234
41	0x3f6d3144	0.926533
42	0x3f68a72b	0.9088008
43	0x3f70427e	0.9385146
44	0x3f6c0e8a	0.92209685
45	0x3f77e669	0.96835953
46	0x3f58ec7f	0.84735864
47	0x3f5d60f2	0.8647605
48	0x3f716b47	0.9430432
49	0x3f6997f3	0.9124748
50	0x3f562c37	0.83661216
51	0x3f63a326	0.8892082
52	0x3f66e7b4	0.901973
53	0x3f69aa9a	0.9127594
54	0x3f50ccf0	0.8156271
55	0x3f71665d	0.9429682
56	0x3f6147c7	0.8800015
57	0x3f745e11	0.95456034
58	0x3f620c91	0.88300425
59	0x3f63f97d	0.89052564
60	0x3f7edeaa	0.9955851
61	0x3f6d2f80	0.92650604
62	0x3f5d8b74	0.86540914
63	0x3f6e710b	0.9314124
64	0x3f6629d5	0.8990758
65	0x3f55292b	0.8326594
66	0x3f6b5c3b	0.9193761
67	0x3f6465b4	0.89217687
68	0x3f5d733d	0.86503965
69	0x3f5a8bac	0.8536937
70	0x3f691bb9	0.91057926
71	0x3f7235dc	0.9461343
72	0x3f78d87c	0.9720533
73	0x3f636ffb	0.88842744
74	0x3f65d0fc	0.8977201
75	0x3f544372	0.82915413
76	0x3f7e4252	0.99319947
77	0x3f5cb0c2	0.8620721
78	0x3f6533ee	0.89532363
79	0x3f73b36a	0.9519564
80	0x3f651801	0.8948975
81	0x3f646c10	0.8922739
82	0x3f6b2e12	0.9186717
83	0x3f5957c3	0.8489954
84	0x3f64dbf1	0.89398104
85	0x3f70cbc5	0.9406093
86	0x3f6c8cfc	0.92402625
87	0x3f610036	0.87890947
88	0x3f579e75	0.8422616
89	0x3f71b362	0.9441434
90	0x3f5ca6e7	0.8619217
91	0x3f72a417	0.9478163
92	0x3f67a302	0.90483105
93	0x3f70aaa8	0.940104
94	0x3f7a4180	0.97756195
95	0x3f63bf7d	0.8896406
96	0x3f6ba336	0.92045915
97	0x3f687ae0	0.9081249
98	0x3f7abff2	0.97949135
99	0x3f5bea8f	0.85904783
100	0x3f588359	0.8457542
101	0x3f5a6a50	0.8531847
102	0x3f69a4a4	0.91266847
103	0x3f6bd9fe	0.92129505
104	0x3f5ba794	0.8580258
105	0x3f767af0	0.9628134
106	0x3f69389c	0.91102004
107	0x3f6a031a	0.9141098
108	0x3f59aa49	0.8502546
109	0x3f6511b3	0.8948013
110	0x3f52a883	0.8228838
111	0x3f529ad0	0.82267475
112	0x3f6d5f43	0.9272348
113	0x3f67c77e	0.90538776
114	0x3f659e07	0.89694256
115	0x3f58da1a	0.84707797
116	0x3f6b6f85	0.9196704
117	0x3f643fde	0.89159954
118	0x3f658b3a	0.8966557
119	0x3f697562	0.91194737
120	0x3f6c5967	0.9232392
121	0x3f7c3e05	0.98532134
122	0x3f756a05	0.958649
123	0x3f666693	0.90000266
124	0x3f621e01	0.8832703
125	0x3f59347a	0.848457
126	0x3f74284b	0.9537398
127	0x3f5d725e	0.86502635

net.2.bias f4 [128]
0	0xbd0c29f0	-0.034219682
1	0x3da04c58	0.078270614
2	0xbd1abed7	-0.037779655
3	0xbc2029af	-0.009775563
4	0x3b9c85ea	0.004776706
5	0xbd4efe9b	-0.05053578
6	0xbbb235ea	-0.005438556
7	0xbd28cabe	-0.041208975
8	0xbde97e2d	-0.11401019
9	0xbd9c562e	-0.07633625
10	0x3d27a4b7	0.04092857
11	0x3d2bcaff	0.04194164
12	0xbd83cc18	-0.06435412
13	0xbd9758d1	-0.07389987
14	0x3cb857a9	0.022502737
15	0x3c72591e	0.014791755
16	0xbc5681b7	-0.01309245
17	0xbd2b805d	-0.041870464
18	0x3cc89328	0.024484232
19	0x3cb72d8d	0.022360587
20	0x3d7ba721	0.061438683
21	0x3d8f0566	0.069834515
22	0x3dcc300d	0.099701025
23	0x3cf03ed7	0.02932684
24	0x3cf9faf1	0.030515166
25	0xbdd3cc53	-0.10341706
26	0x3d12f135	0.035874564
27	0xbda88b40	-0.08229685
28	0xbd185d06	-0.03719809
29	0x3bb87408	0.0056290664
30	0xbd4b2106	-0.04959204
31	0x3cce983a	0.025219072
32	0xbdef071b	-0.11671277
33	0x3c061ae6	0.008185124
34	0x3dcb5380	0.09928036
35	0xbcd4e2c2	-0.025987033
36	0x3bbbcefd	0.005731462
37	0xbcef5cec	-0.029219113
38	0x3d1c9e94	0.03823717
39	0xbd4e4f8e	-0.050368838
40	0xbcc7d963	-0.02439565
41	0xbc0b08d8	-0.008485995
42	0xbdc42063	-0.0957649
43	0xbd503d46	-0.050839685
44	0x3aef2e6f	0.0018248091
45	0x3df5db9f	0.1200478
46	0x3c9c4fb1	0.019080969
47	0xbd8dfcf6	-0.06933014
48	0x3cd3eb66	0.025869083
49	0xbbde70fa	-0.00678837
50	0x3d6d83ac	0.0579869
51	0xbd34d4a4	-0.044148102
52	0xbd44e42d	-0.048069168
53	0x3b86b3cf	0.0041107903
54	0x3db8494c	0.08998355
55	0xbd22a1fb	-0.039705258
56	0xbd4e1672	-0.050314374
57	0x3d28f8b9	0.041252825
58	0x3cfb7e66	0.03069992
59	0xbdadef6e	-0.08492933
60	0x3d2bec1c	0.04197322
61	0xbcbea883	-0.023273712
62	0x3cab5b09	0.020917432
63	0xbd1b9126	-0.03798022
64	0xbdb05bb8	-0.08611244
65	0xbd1e482f	-0.03864306
66	0xbd3dbde6	-0.04632368
67	0x3d6f133e	0.05836796
68	0xbcc6382a	-0.024196703
69	0x3cae1ead	0.021254862
70	0x3c92ac2a	0.01790436
71	0xbb7bcdb6	-0.0038422174
72	0x3d88395d	0.06651566
73	0x3d11d509	0.035603557
74	0xbd1f8265	-0.038942713
75	0x3a50b024	0.00079608173
76	0x3db30345	0.08740858
77	0xbc97b46e	-0.018518653
78	0xbd0aea71	-0.033914987
79	0xbd203418	-0.03911218
80	0xbd065a8d	-0.0328012
81	0xbce87314	-0.028375186
82	0x3d6a5498	0.05720958
83	0x3d39c276	0.045351468
84	0x3d87899c	0.06618044
85	0xbd5491d8	-0.0518969
86	0x3d563a89	0.052301917
87	0x3d655ecc	0.05599861
88	0xbdeeb5e2	-0.11655785
89	0xbdb99bc0	-0.0906291
90	0xbd318187	-0.043336418
91	0x3d7f3b91	0.062312666
92	0x3d895216	0.0670511
93	0xbca9b780	-0.020717382
94	0x3d70f2ef	0.05882543
95	0x3d063756	0.032767616
96	0x3c59da64	0.013296697
97	0x3d3d3f06	0.046202682
98	0x3dd77023	0.10519435
99	0x3df6841c	0.120369166
100	0xbdff7ac3	-0.12474587
101	0x3d48d6f1	0.04903311
102	0xbae1b557	-0.0017220181
103	0xbceeb0e9	-0.029137092
104	0xbd35d9d6	-0.044397198
105	0x3d5de196	0.054170214
106	0x3c5dbab9	0.013533288
107	0xbd644c7c	-0.055737004
108	0x3b2706aa	0.002548615
109	0x3d2e37fe	0.042533867
110	0xbde177c3	-0.11009171
111	0x3bd93be6	0.006629455
112	0x3d32088b	0.04346518
113	0xbd8c220e	-0.06842433
114	0xbd0c137b	-0.034198266
115	0x3d343f3f	0.04400563
116	0x3d43d0eb	0.04780666
117	0xbcc7c937	-0.024387939
118	0x3dec4ee5	0.115384854
119	0x3cea109c	0.028572373
120	0x3ccca595	0.0249813
121	0xbd175251	-0.036943737
122	0x3c94b0ac	0.01815065
123	0x3c994957	0.018711729
124	0x3dbf1470	0.0933007
125	0x3c922720	0.017840922
126	0x3c91f865	0.017818639
127	0x3da314da	0.079629615

net.2.running_mean f4 [128]
0	0x3e814cbc	0.25253856
1	0x3e9a9179	0.30189112
2	0x3e068e77	0.13140284
3	0x3ea5cfd9	0.32385138
4	0x3e53571f	0.20638703
5	0x3ea7f319	0.32802656
6	0x3e19f072	0.15033129
7	0x3e655114	0.2239421
8	0x3e73a879	0.23794736
9	0x3e9c5e62	0.30540758
10	0x3e84a1c1	0.25904658
11	0x3e59428e	0.21216795
12	0x3e2e401d	0.17016645
13	0x3e5b99ee	0.21445438
14	0x3e89b755	0.26897684
15	0x3e73bd07	0.23802577
16	0x3e323e53	0.17406587
17	0x3e6a14cd	0.22859497
18	0x3e2591fc	0.1616897
19	0x3ea4b77f	0.32171246
20	0x3e7f3871	0.24923874
21	0x3e353c8a	0.17698875
22	0x3e0d1099	0.13775863
23	0x3e393dae	0.18089935
24	0x3e7ab0fa	0.24481574
25	0x3e5af500	0.21382523
26	0x3e5c6d59	0.21526088
27	0x3e31c020	0.17358446
28	0x3e5e4f68	0.21709979
29	0x3e82bf1e	0.25536436
30	0x3e010e85	0.12603195
31	0x3e14b1a9	0.14520897
32	0x3e0c65bd	0.13710685
33	0x3e92ebb7	0.2869546
34	0x3e8cc996	0.27497548
35	0x3e4202fa	0.18946448
36	0x3e5a8416	0.2133945
37	0x3e81befe	0.25341028
38	0x3e6328ec	0.22183579
39	0x3e2b2f13	0.16717176
40	0x3eaa9a5a	0.33320886
41	0x3e6a9d52	0.22911575
42	0x3e621a4a	0.22080341
43	0x3e15e88d	0.14639492
44	0x3dde857e	0.10865305
45	0x3e5360c5	0.20642383
46	0x3e9dc00c	0.30810583
47	0x3e37db86	0.17954835
48	0x3e531cea	0.20616499
49	0x3e3c6898	0.18399274
50	0x3e444146	0.19165525
51	0x3de12a53	0.10994401
52	0x3e5b705b	0.21429579
53	0x3e571b19	0.2100643
54	0x3e5d9fb3	0.21642952
55	0x3e8f3e8f	0.27977416
56	0x3e0e3ec9	0.13891138
57	0x3e8c3e53	0.273913
58	0x3e641182	0.22272304
59	0x3e0da812	0.13833645
60	0x3dd534b3	0.10410442
61	0x3e4b1a4b	0.19834249
62	0x3e80ef35	0.251825
63	0x3e5a49b9	0.21317185
64	0x3e512f53	0.20428209
65	0x3e88b2f6	0.26699036
66	0x3e43a245	0.1910487
67	0x3e9a6d3f	0.30161473
68	0x3e42cd52	0.19023636
69	0x3e894367	0.26809236
70	0x3e130663	0.14357905
71	0x3dcde349	0.10053117
72	0x3e26b2bf	0.16279124
73	0x3e9ed000	0.31018066
74	0x3db25e22	0.08709361
75	0x3e23feb9	0.16015138
76	0x3e45984b	0.19296376
77	0x3e31d6ef	0.17367147
78	0x3e8e8648	0.27836823
79	0x3e55d98f	0.20883773
80	0x3e886c5e	0.26645178
81	0x3e701fec	0.23449677
82	0x3e6b6d41	0.22990896
83	0x3ee57674	0.44816935
84	0x3e66c0b4	0.22534448
85	0x3e2bf3ae	0.16792175
86	0x3e5bc65b	0.21462385
87	0x3e85861b	0.26078877
88	0x3e4066e9	0.18789257
89	0x3e4877cd	0.1957695
90	0x3de0b331	0.10971678
91	0x3e5e1e50	0.21691251
92	0x3e06cfd1	0.13165213
93	0x3e8ad1de	0.2711324
94	0x3d99b955	0.075060524
95	0x3e8c71ae	0.2743048
96	0x3e519341	0.20466329
97	0x3e6adb9b	0.22935335
98	0x3deb4525	0.11487798
99	0x3e86980d	0.2628788
100	0x3e818b47	0.25301573
101	0x3ecb2ea7	0.3968403
102	0x3e26e876	0.16299614
103	0x3e0c2a74	0.1368807
104	0x3e35e964	0.17764813
105	0x3e3eb538	0.18623817
106	0x3e5e2774	0.21694738
107	0x3e97923e	0.2960376
108	0x3e1db992	0.1540282
109	0x3e96022a	0.29298526
110	0x3e6c6849	0.23086657
111	0x3e30f6b2	0.17281607
112	0x3e156ab2	0.14591482
113	0x3e26228f	0.1622412
114	0x3eb7072b	0.35747656
115	0x3e7b8039	0.24560632
116	0x3e52b3f8	0.20576465
117	0x3e0f9c95	0.14024575
118	0x3e9870f2	0.2977367
119	0x3e34d163	0.17658
120	0x3e1963d4	0.14979488
121	0x3e197d21	0.14989139
122	0x3e4ab637	0.19796072
123	0x3e592f20	0.21209383
124	0x3e426aa3	0.18985991
125	0x3e3eff5f	0.18652104
126	0x3e3fa91c	0.18716854
127	0x3e2918a5	0.16513307

net.2.running_var f4 [128]
0	0x3e0236f7	0.1271628
1	0x3e46ffd6	0.19433531
2	0x3d5bf4bc	0.053700194
3	0x3e401279	0.18757047
4	0x3de4f896	0.111802265
5	0x3e14b1c8	0.14520943
6	0x3d7bba76	0.06145712
7	0x3de4f735	0.111799635
8	0x3dc96741	0.09834147
9	0x3e2e3bb1	0.17014958
10	0x3df9dba4	0.12200096
11	0x3dfd7698	0.123761356
12	0x3dc6deb4	0.09710446
13	0x3dc0023b	0.093754254
14	0x3df80a55	0.12111346
15	0x3e25861d	0.16164441
16	0x3d98b646	0.07456641
17	0x3dcb7747	0.0993486
18	0x3d6eb786	0.05828049
19	0x3e0f40e1	0.13989593
20	0x3e03b877	0.12863337
21	0x3daca679	0.0843019
22	0x3d713427	0.058887627
23	0x3dd53ed0	0.10412371
24	0x3e149214	0.1450885
25	0x3e1398cf	0.1441376
26	0x3de499e5	0.111621656
27	0x3d980a34	0.07423821
28	0x3e037fd2	0.12841728
29	0x3df7ddcd	0.12102852
30	0x3d4af805	0.049552936
31	0x3d8bc710	0.068250775
32	0x3d9c388e	0.076279745
33	0x3e397146	0.18109617
34	0x3e038761	0.12844612
35	0x3de4f80a	0.11180122
36	0x3df9d430	0.12198675
37	0x3e1c2b3c	0.15250868
38	0x3de4c480	0.11170292
39	0x3dabb5c7	0.08384281
40	0x3e3e9514	0.18611556
41	0x3ddc1a5c	0.10747215
42	0x3dbd3ab6	0.09239714
43	0x3d70a795	0.05875357
44	0x3d2eb041	0.042648558
45	0x3da27a95	0.07933537
46	0x3e229fe9	0.15881313
47	0x3d952cab	0.0728391
48	0x3dbc35c2	0.09189941
49	0x3db8264c	0.089916795
50	0x3e1546e6	0.14577827
51	0x3d323600	0.04350853
52	0x3e06b73d	0.13155837
53	0x3dbd1ae2	0.09233643
54	0x3e010879	0.12600888
55	0x3e2031d1	0.15644003
56	0x3d6f6dca	0.058454312
57	0x3e10813f	0.14111803
58	0x3daab32b	0.08334955
59	0x3d9c71d9	0.07638902
60	0x3d5b9c5c	0.053615913
61	0x3dc8fec8	0.09814221
62	0x3dde6587	0.108592086
63	0x3dc040e0	0.09387374
64	0x3dea3ed9	0.114377685
65	0x3e119521	0.14217044
66	0x3de2fb60	0.11083102
67	0x3e2e4753	0.17019396
68	0x3db07403	0.086158775
69	0x3e18f600	0.14937592
70	0x3d85a4c5	0.06525568
71	0x3d5083c6	0.05090692
72	0x3d8c6cb3	0.0685667
73	0x3e4bbc52	0.19896057
74	0x3d13820b	0.03601269
75	0x3d9d9a33	0.07695427
76	0x3d99c00f	0.075073354
77	0x3db07c98	0.08617514
78	0x3e34520d	0.17609425
79	0x3dddc1db	0.108279906
80	0x3e107a1d	0.14109083
81	0x3e10642d	0.14100714
82	0x3ded166a	0.11576541
83	0x3ec40f07	0.38292715
84	0x3df7179c	0.1206505
85	0x3d9c20ac	0.07623419
86	0x3db70fd7	0.08938568
87	0x3e18de8c	0.14928645
88	0x3d9c8243	0.07642033
89	0x3d950485	0.07276253
90	0x3d2deb4b	0.04246072
91	0x3dbf5d37	0.09343951
92	0x3da4570a	0.08024414
93	0x3e507514	0.20357162
94	0x3ce44bb8	0.027868137
95	0x3e33ad9f	0.175467
96	0x3dca239b	0.098700725
97	0x3dfb670d	0.12275515
98	0x3d42255d	0.047398914
99	0x3e187c10	0.14891076
100	0x3e1d2d95	0.1534942
101	0x3e828ea5	0.25499454
102	0x3de0a8c8	0.109696925
103	0x3d73f9d7	0.059564438
104	0x3d8efbe7	0.0698164
105	0x3db3b3e5	0.087745465
106	0x3e0b8b1b	0.13627283
107	0x3e02764c	0.12740439
108	0x3d85b77e	0.06529139
109	0x3e1dbc40	0.15403843
110	0x3dd5133f	0.104040615
111	0x3dc07716	0.09397714
112	0x3d6b2804	0.05741121
113	0x3d9b1fa5	0.07574395
114	0x3e80dc9f	0.2516832
115	0x3e195751	0.14974715
116	0x3e085c12	0.13316372
117	0x3d56c47d	0.05243348
118	0x3e18a556	0.1490682
119	0x3dbbca0b	0.09169396
120	0x3d96292b	0.07332071
121	0x3db35548	0.087565005
122	0x3db8440c	0.08997354
123	0x3dc2ad8b	0.09505757
124	0x3da76518	0.08173579
125	0x3dda3a93	0.106557034
126	0x3dd89e96	0.10577123
127	0x3d73e8e9	0.059548292

net.4.weight f4 [64, 128]
0	0x3d884fab	0.066558205
1	0xbdd31a4e	-0.103077516
2	0x3d6b3e29	0.057432327
3	0xbccdcfd3	-0.025123512
4	0x3d1c8339	0.03821108
5	0xbda826f0	-0.08210552
6	0x3c18d529	0.009328165
7	0xbc075035	-0.008258869
8	0xbb9ecaf9	-0.0048459736
9	0x3d1adeca	0.037810124
10	0xbda3b7c5	-0.07994036
11	0x3dd1b8c7	0.102403216
12	0x3da13d0e	0.078729734
13	0xbd77aac0	-0.060465574
14	0x3cbbde1c	0.022933058
15	0xbd859506	-0.065225646
16	0x3a5b1738	0.0008357647
17	0xbc4b7dd4	-0.0124201365
18	0x3d1e39bd	0.038629282
19	0x3d94e4b4	0.07270184
20	0xbd82f6ab	-0.063947044
21	0xbdfeb7ce	-0.12437402
22	0x3b857264	0.0040724743
23	0xbd920d66	-0.07131462
24	0x3d9a002f	0.07519566
25	0x3d6cd9a4	0.057824746
26	0x3c75e282	0.015007617
27	0x3ad89a36	0.0016525451
28	0x3cb32fc6	0.021873366
29	0x3cc6ec4c	0.024282597
30	0xbcfe97e6	-0.03107829
31	0x3d545c1e	0.051845662
32	0x3bd66964	0.0065433253
33	0x3b64821e	0.0034867595
34	0xbddd77bf	-0.108138554
35	0x3ca7ab89	0.020467537
36	0x3daf98e3	0.08574083
37	0x3d1e3e57	0.03863367
38	0xbdddca5c	-0.108296126
39	0xbd89374c	-0.067
40	0xbd900f6a	-0.0703419
41	0xbd8bfc8b	-0.06835278
42	0x3a43c1c4	0.0007467533
43	0x3c8ab32a	0.016931135
44	0x3b5cbfcc	0.0033683656
45	0x3de88a7a	0.11354537
46	0xbd740f89	-0.059585128
47	0x3d939fef	0.07208239
48	0x3d37f547	0.04491165
49	0x3e011739	0.12606515
50	0xba26357d	-0.0006340368
51	0x3d1ab0b1	0.037766162
52	0x3d311e5e	0.04324185
53	0xbd882f93	-0.06649699
54	0xbcc12d99	-0.023581313
55	0x3cb19010	0.02167514
56	0x3cc0259a	0.02345543
57	0xbde3b0d8	-0.11117715
58	0x3d04d613	0.03243072
59	0x3b3ea9f8	0.0029093008
60	0x3cf24c7d	0.029577488
61	0xbd8112d3	-0.063024186
62	0x3d2ba605	0.041906375
63	0x3cc8850f	0.02447751
64	0x3cb099c7	0.021557702
65	0x3d8d11ea	0.068881825
66	0xbb684ee5	-0.0035447415
67	0xbd3e9605	-0.04652979
68	0xbda131eb	-0.07870849
69	0xbc758a87	-0.014986641
70	0x3ccfdab3	0.025372839
71	0x3b3daade	0.0028940956
72	0xbd6d2cc6	-0.057904027
73	0x3c50f094	0.012752671
74	0x3d568393	0.052371573
75	0x3d001bdc	0.03127657
76	0xbd461221	-0.048357133
77	0xbd4c35cf	-0.049856003
78	0x3c99186e	0.018688407
79	0xbdb9b943	-0.09068539
80	0x3d5ff3d0	0.054675877
81	0xbd32fbf9	-0.04369733
82	0xbdf9e9d4	-0.12202802
83	0xbd97331c	-0.07382795
84	0xbda90371	-0.082526095
85	0x3de8f027	0.113739304
86	0x3d864169	0.06555445
87	0x3dced5cf	0.100993745
88	0x3cfb1ce3	0.030653423
89	0xbbe4677e	-0.006970345
90	0x3d85b1f3	0.06528082
91	0x3d229233	0.039690208
92	0xbd9f3b43	-0.07774975
93	0xbb85bdae	-0.0040814495
94	0xbdcf1f62	-0.10113408
95	0x3d405f20	0.04696572
96	0xbc0b20bf	-0.008491694
97	0x37b2a271	2.1294896e-05
98	0xbb09be52	-0.002101798
99	0xbdcf8650	-0.1013304
100	0x3d48f9f1	0.049066488
101	0xbd7206d7	-0.059088554
102	0x3d787c93	0.06066568
103	0x3dadcac6	0.084859416
104	0x3ce90c74	0.02844832
105	0xbce4e05b	-0.027939012
106	0xbbb7213e	-0.0055886796
107	0x3d02bdf2	0.031919427
108	0xbad2c29b	-0.0016079725
109	0xbd204b0b	-0.039134067
110	0x3cf54ca0	0.029943764
111	0xbd86a64b	-0.065746866
112	0x3cd49303	0.025949007
113	0xbd2f8713	-0.042853426
114	0x3dbb4843	0.09144642
115	0xbc9d5ccd	-0.01920929
116	0x3c29a498	0.010354184
117	0x3c6bc527	0.0143902665
118	0xbd7ce4c4	-0.061741605
119	0x3d27b17f	0.040940758
120	0xbd5f728c	-0.0545526
121	0xbd447ef2	-0.047972627
122	0x3da2ca2b	0.07948717
123	0xbc6987d6	-0.014253577
124	0x3d018844	0.031624094
125	0x3cce3b86	0.025174867
126	0x3d6f180e	0.05837255
127	0x3d6cf4d2	0.057850666
128	0xbd2552d2	-0.040362187
129	0xbd1d955b	-0.038472515
130	0xbd306da7	-0.043073323
131	0x3c1c7f4f	0.009551837
132	0xbd4df908	-0.050286323
133	0x3d44a8ab	0.048012417
134	0x3dadb9da	0.08482714
135	0xbe110139	-0.14160623
136	0xbd1eae0b	-0.0387402
137	0xbba3b2b5	-0.004995669
138	0xbd367380	-0.044543743
139	0x3cce8b8f	0.025213031
140	0xbd252899	-0.04032192
141	0x3cee201f	0.02906805
142	0xbd10eb32	-0.03538055
143	0x3cbb1d2e	0.022841062
144	0x3d0743de	0.033023708
145	0x3bbdc720	0.00579156
146	0x3cb07bd5	0.021543423
147	0xbd986437	-0.074409895
148	0xbdc60966	-0.09669761
149	0x3c221ee1	0.009895057
150	0xbc4fc663	-0.012681576
151	0xbd4b98d5	-0.0497063
152	0x3d54aeee	0.05192464
153	0xbd24f4ed	-0.040272642
154	0x3d269509	0.040669475
155	0x3dc127f8	0.094314516
156	0x3d2db212	0.04240615
157	0x3d8601b8	0.065432966
158	0x3c95da4e	0.018292572
159	0x3bd6e44e	0.0065579778
160	0xbca72b40	-0.020406365
161	0x3c24b94b	0.010053943
162	0xbd811249	-0.06302316
163	0xbd915022	-0.07095362
164	0x3d154504	0.03644277
165	0xbdde0257	-0.1084029
166	0x3b6330f8	0.0034666639
167	0x3d84bec8	0.06481701
168	0xbd38da27	-0.04512992
169	0xbd9b3120	-0.07577729
170	0x3d83b779	0.06431479
171	0x3bd63164	0.0065366495
172	0xbc9a8548	-0.018862382
173	0xbdc76e57	-0.097378425
174	0xbdc24513	-0.09485831
175	0xbd48a5d5	-0.048986275
176	0x3d9e3c65	0.07726363
177	0x3a84f54e	0.0010143907
178	0xbddbe3be	-0.10736798
179	0xbb07da5c	-0.0020729518
180	0x3d639d0e	0.0555697
181	0xbd1ebb95	-0.03875311
182	0xbdfb73d8	-0.12277955
183	0x3d27b394	0.040942743
184	0xbd8116cb	-0.063031755
185	0xbd808353	-0.06275048
186	0xbd95de9a	-0.073178485
187	0x3d1c50af	0.038162883
188	0x3da53ce6	0.08068256
189	0x3db8f27c	0.09030625
190	0xbb865b8f	-0.00410027
191	0xbd20c5ab	-0.03925101
192	0x3d92a0b5	0.07159559
193	0x3d224cb9	0.03962395
194	0x3c5ac4a5	0.013352548
195	0x3d504713	0.05084903
196	0xbd7c3945	-0.061578054
197	0xbd5a4dd3	-0.053296875
198	0x3de66f55	0.11251704
199	0xbd8f0ac7	-0.069844775
200	0xbdcd5330	-0.100256324
201	0x3d70a9cd	0.058755685
202	0x3d5ce379	0.053927872
203	0x3ca0f8f2	0.019649956
204	0xbc4a6b9e	-0.0123547595
205	0x3d94312f	0.072359435
206	0x3d536850	0.051613152
207	0xbc7094c3	-0.014683905
208	0xbdfabbd0	-0.12242854
209	0xbd5c6275	-0.053804833
210	0xbbbc672e	-0.0057496047
211	0xbd4206d9	-0.04736981
212	0xbd17f718	-0.03710088
213	0xbdd28089	-0.102784224
214	0xbdb1cec3	-0.08682015
215	0x3c1e1800	0.009649277
216	0x3cfe37c2	0.031032447
217	0xbe236f26	-0.15960369
218	0xbd1c98d7	-0.038231697
219	0xbdaa8c3c	-0.08327529
220	0xbd249c03	-0.040187847
221	0xbd42bc50	-0.04754287
222	0x3c8e6c9e	0.017385777
223	0x3d7d07d1	0.061775032
224	0xbd99edc8	-0.07516056
225	0x3a065624	0.000512453
226	0xbdac288e	-0.08406173
227	0xbdb499b2	-0.088183776
228	0x3d2177c3	0.039420854
229	0x3d7e4975	0.062081773
230	0x3cce844f	0.025209574
231	0xbb14351e	-0.0022614668
232	0x3d48fa91	0.049067084
233	0xbe178a16	-0.1479877
234	0xbc6b57fc	-0.014364239
235	0x3d22affd	0.039718617
236	0x3c0a9c7a	0.0084601585
237	0x3c485cb6	0.012229135
238	0x3cb46c80	0.022024393
239	0x3cee4060	0.02908343
240	0xbcb06e48	-0.021536961
241	0xbd0a493c	-0.033761248
242	0x3d189cc2	0.03725887
243	0x3d21e848	0.03952816
244	0xbc895abb	-0.016766896
245	0x3d55643e	0.05209755
246	0x3d790e9f	0.06080496
247	0x3d049f67	0.03237858
248	0x3d725244	0.059160486
249	0xbdacb559	-0.08433027
250	0xbde68274	-0.11255351
251	0xbd8c9f8b	-0.06866368
252	0x3ce234d2	0.027613077
253	0x3d9d14a4	0.076699525
254	0xbdd5e2a1	-0.10443617
255	0xbc83035c	-0.015992813

net.4.bias f4 [64]
0	0x3c3c84a8	0.011506237
1	0xba5a6f70	-0.00083326455
2	0xbd0e1ff9	-0.03469846
3	0xbc190395	-0.009339233
4	0xbd80320e	-0.06259547
5	0xbdfb313b	-0.12265249
6	0xbe074002	-0.13208011
7	0xbc682270	-0.014168367
8	0x3d2dbcf0	0.042416513
9	0x3e2eee8a	0.17083183
10	0xbcd0a744	-0.025470383
11	0xbcaea0d7	-0.021316929
12	0x3d5bbdf9	0.05364797
13	0x3ce48dd9	0.02789967
14	0x3cbbef0c	0.022941135
15	0x3c726635	0.014794876
16	0x3dba8952	0.09108223
17	0xbd371f88	-0.044707805
18	0x3c66afa0	0.014079958
19	0x3d063bd2	0.032771893
20	0x3c4193de	0.011815039
21	0xbd1c4d85	-0.038159866
22	0xbb8e120a	-0.0043356465
23	0x3d5e8975	0.054330308
24	0x3ccf09e3	0.025273269
25	0xbd806206	-0.062686965
26	0x3e043a1a	0.12912789
27	0xbdb73707	-0.089460425
28	0x3ba8ea5c	0.005154891
29	0x3ca0a0c2	0.019607905
30	0xbd6890af	-0.056778606
31	0xbd8b3111	-0.06796468
32	0xbcbe7e8a	-0.023253698
33	0xbcf40b73	-0.029790616
34	0x3d423b5c	0.04741989
35	0xbdf03253	-0.117283486
36	0xbd266047	-0.04061916
37	0x3d87408c	0.06604108
38	0xbc922c5e	-0.017843422
39	0xbdfdbf79	-0.12390036
40	0x3dae288b	0.08503827
41	0xbd339633	-0.043844413
42	0x3cd3649a	0.025804807
43	0x3ce37c80	0.027769327
44	0xbd37fb76	-0.044917546
45	0xbd3fa356	-0.04678663
46	0xbca90720	-0.02063328
47	0x3c80ed28	0.015738085
48	0xbcc369d4	-0.023854174
49	0xbd978a96	-0.0739948
50	0x3dbc6108	0.09198195
51	0x3d887557	0.06663006
52	0x3d90b1f3	0.07065191
53	0xbc05d23f	-0.008167802
54	0x3d1bafe5	0.038009543
55	0xbdbe5f3e	-0.0929551
56	0xbe43e300	-0.19129562
57	0xbd143885	-0.036186714
58	0xbddb1350	-0.10697043
59	0xbc0c7319	-0.008572363
60	0x3cd2e520	0.025744021
61	0xbdb9d519	-0.09073848
62	0x3cb7aaf1	0.022420378
63	0x3ba6d323	0.0050910874

net.6.weight f4 [64]
0	0x3f6d45ce	0.9268464
1	0x3f6eed2a	0.93330634
2	0x3f6d0161	0.9258023
3	0x3f67ceff	0.90550226
4	0x3f6a7530	0.91585064
5	0x3f69a040	0.9126015
6	0x3f6fe70d	0.9371193
7	0x3f558aad	0.8341473
8	0x3f680d2a	0.90645087
9	0x3f66d49f	0.90168184
10	0x3f67a6c4	0.9048884
11	0x3f619533	0.88118285
12	0x3f616ab1	0.88053423
13	0x3f56d998	0.8392577
14	0x3f67a159	0.9048057
15	0x3f5d0b3b	0.8634526
16	0x3f615a9b	0.8802888
17	0x3f70f25e	0.9411982
18	0x3f69c670	0.91318417
19	0x3f5ef4ea	0.8709246
20	0x3f6de18c	0.9292228
21	0x3f747d0a	0.95503294
22	0x3f68ab62	0.9088651
23	0x3f60b443	0.8777506
24	0x3f719e93	0.9438259
25	0x3f715678	0.94272566
26	0x3f71b26b	0.9441287
27	0x3f75c4ef	0.9600362
28	0x3f647e79	0.8925548
29	0x3f59e3d1	0.85113245
30	0x3f79bd86	0.97554815
31	0x3f7b8bd9	0.98260266
32	0x3f647606	0.8924259
33	0x3f735930	0.95057964
34	0x3f6aef7e	0.91771686
35	0x3f81c0f7	1.0137013
36	0x3f6de104	0.9292147
37	0x3f6423b5	0.89116985
38	0x3f6385eb	0.8887622
39	0x3f66f46b	0.902167
40	0x3f624ee8	0.8840165
41	0x3f6ba9e0	0.92056084
42	0x3f5ea5d0	0.8697176
43	0x3f732e59	0.94992596
44	0x3f6f5069	0.9348207
45	0x3f7426d0	0.95371723
46	0x3f694737	0.9112429
47	0x3f777831	0.9666777
48	0x3f716fe2	0.94311345
49	0x3f7e6934	0.9937928
50	0x3f6bfc15	0.9218152
51	0x3f6cb9d6	0.92471063
52	0x3f705e2f	0.9389371
53	0x3f76b9fd	0.96377546
54	0x3f6c6150	0.9233599
55	0x3f6b8384	0.9199755
56	0x3f74e021	0.95654494
57	0x3f6b0a96	0.9181303
58	0x3f78d490	0.97199345
59	0x3f67ac5e	0.90497386
60	0x3f6abd96	0.91695535
61	0x3f6af2a7	0.9177651
62	0x3f7928bc	0.9732778
63	0x3f709f85	0.9399341

net.6.bias f4 [64]
0	0x3c219399	0.00986185
1	0xbd84cb56	-0.06484096
2	0x3c34f1f9	0.011044019
3	0x3d6cbc79	0.05779693
4	0x3c81d721	0.015849652
5	0xbd95dba6	-0.07317285
6	0xbc8385df	-0.016055046
7	0x3d1dbd93	0.03851087
8	0xbd7ce0f5	-0.061737973
9	0x3da57a5c	0.08079979
10	0x3b37626c	0.0027982248
11	0xbc7aa627	-0.015298403
12	0x3dcf1d89	0.10113055
13	0xbc4f8486	-0.012665873
14	0x3cca1c7a	0.024671782
15	0x3e121171	0.14264466
16	0xbd3fa8c4	-0.046791807
17	0x3da44371	0.08020676
18	0x3d00b55a	0.03142295
19	0x3d94c5b0	0.072642684
20	0xbc8e1ea6	-0.017348599
21	0x3cd75a4f	0.02628818
22	0x3bcb1188	0.0061971582
23	0xbc8acb95	-0.016942779
24	0x3ce67217	0.028130574
25	0x3d8e692a	0.06953652
26	0x3d205fd6	0.039153896
27	0x3d74b0ea	0.05973903
28	0x3cbc9e25	0.023024628
29	0x3d2a15fb	0.04152487
30	0x3d4d26fe	0.050086014
31	0xbbe9f163	-0.0071393712
32	0x3dcc9461	0.099892385
33	0xbd6154da	-0.05501256
34	0xbc2350c7	-0.009967989
35	0x3b90f912	0.0044242227
36	0xbcf41581	-0.02979541
37	0xbc97d7e4	-0.018535562
38	0x3c1ab414	0.009442348
39	0x3e1c36fa	0.15255347
40	0xbd23bb12	-0.039973326
41	0x3cefae72	0.029257987
42	0xbd32a459	-0.043613765
43	0xbd3941ea	-0.045228876
44	0xbd42ede6	-0.04759016
45	0xbd607008	-0.05479434
46	0x3c9239c3	0.017849809
47	0xbd083c53	-0.033260655
48	0x3d0fac37	0.035076346
49	0x3c729c66	0.014807796
50	0x3ccd6e2e	0.025076952
51	0x3d6a89ce	0.057260327
52	0xbd3d8dd0	-0.04627782
53	0xbdfdfa8a	-0.12401302
54	0x3cfe6d98	0.031058118
55	0xbd69b523	-0.05705751
56	0x3d5cf1b3	0.05394144
57	0xbbd5c23a	-0.0065233978
58	0x3d266368	0.040622145
59	0x3d8cf7ae	0.06883179
60	0x3d898d97	0.06716459
61	0x3b32ecc0	0.0027301759
62	0x3dc6c6f7	0.09705918
63	0x3c146e09	0.009059438

net.6.running_mean f4 [64]
0	0x3e8b142d	0.2716383
1	0x3eb316c3	0.34978303
2	0x3ec2d341	0.380518
3	0x3ee2b1af	0.44276187
4	0x3e738753	0.23782091
5	0x3e4e50a7	0.20147954
6	0x3e6e1a42	0.23252204
7	0x3e9a51c2	0.301405
8	0x3ebed543	0.3727208
9	0x3f02a1f7	0.5102839
10	0x3eadcf83	0.3394738
11	0x3e994140	0.29932594
12	0x3ea0a5d6	0.31376523
13	0x3eefea12	0.4685827
14	0x3f083bd2	0.5321628
15	0x3e98a3b1	0.29812387
16	0x3ebc93b6	0.36831445
17	0x3e6262d3	0.22108011
18	0x3f09f205	0.5388492
19	0x3ebc8fe6	0.36828536
20	0x3f0b7d8f	0.5448846
21	0x3ea531c3	0.32264528
22	0x3e9c5ddd	0.30540362
23	0x3ea947d6	0.3306262
24	0x3f0263df	0.5093364
25	0x3ebdb729	0.37053803
26	0x3f084761	0.53233916
27	0x3e6b8318	0.22999227
28	0x3eb0af70	0.34508848
29	0x3e97ea0f	0.2967076
30	0x3ea1f77e	0.31634134
31	0x3ed1f2ba	0.41005498
32	0x3ed4163d	0.41423216
33	0x3e7a6cfb	0.24455635
34	0x3ec96a14	0.39338744
35	0x3ea01534	0.31266177
36	0x3e9c0793	0.3047453
37	0x3ed20013	0.41015682
38	0x3ea97bf4	0.3310238
39	0x3ec3b9ea	0.3822778
40	0x3eb44d25	0.35215107
41	0x3ec96f69	0.39342812
42	0x3ece98d5	0.40350977
43	0x3ea1ea7b	0.31624207
44	0x3e59c1dd	0.21265359
45	0x3e83d4e5	0.25748363
46	0x3ed56ca5	0.41684452
47	0x3ecabf68	0.39599156
48	0x3eb72ee4	0.35777962
49	0x3e526825	0.2054754
50	0x3eed3850	0.46332026
51	0x3f128c8c	0.5724571
52	0x3e9b80ca	0.30371696
53	0x3ea071e6	0.31336898
54	0x3ecd6b6b	0.40121016
55	0x3e9a02d9	0.30080298
56	0x3e2f1eeb	0.17101638
57	0x3e85811f	0.26075074
58	0x3e9b25d3	0.30302295
59	0x3effabd2	0.49935776
60	0x3ed1d83b	0.40985283
61	0x3ec1cda3	0.378522
62	0x3eb95d02	0.36203772
63	0x3e9e4965	0.3091537

net.6.running_var f4 [64]
0	0x3e6212ca	0.2207748
1	0x3e9326a9	0.28740433
2	0x3ed327fd	0.41241446
3	0x3ef426ba	0.47685796
4	0x3e6fcadb	0.23417227
5	0x3dfa02ec	0.122075886
6	0x3e975ce5	0.2956306
7	0x3e6945ad	0.22780485
8	0x3e90d35b	0.2828625
9	0x3ea9bc0a	0.33151275
10	0x3e88d004	0.26721203
11	0x3e6db157	0.23212181
12	0x3e6e5ba9	0.23277153
13	0x3eb5a8c9	0.35480335
14	0x3ef7888a	0.4834636
15	0x3e9209a0	0.28522968
16	0x3e866eaa	0.26256305
17	0x3e07a5cb	0.13246839
18	0x3f205c74	0.6264107
19	0x3e8e5911	0.27802327
20	0x3f0a5550	0.54036427
21	0x3e9fc585	0.31205383
22	0x3e597603	0.21236424
23	0x3e82cf58	0.25548816
24	0x3f27ab40	0.6549568
25	0x3e8e7808	0.27825952
26	0x3ecdb9c7	0.401808
27	0x3e39292c	0.18082112
28	0x3e5faf58	0.21844232
29	0x3e5f5ed0	0.21813512
30	0x3ead6440	0.33865547
31	0x3eccdc18	0.40011668
32	0x3eb98aca	0.362387
33	0x3e38c3d3	0.18043451
34	0x3eba7f0e	0.3642506
35	0x3ebbf238	0.36708236
36	0x3e87ac29	0.26498535
37	0x3eac8b97	0.3370025
38	0x3e88fd4e	0.26755756
39	0x3ec19f1e	0.3781671
40	0x3e5c2719	0.2149929
41	0x3ec14911	0.37751058
42	0x3ea247d1	0.31695417
43	0x3e6e97e8	0.23300135
44	0x3e30755d	0.1723227
45	0x3e51ab96	0.20475611
46	0x3e961a76	0.29317063
47	0x3eab323b	0.3343676
48	0x3e88b191	0.26697972
49	0x3e2d2843	0.1690989
50	0x3ecbd6e9	0.398124
51	0x3f18582c	0.5950954
52	0x3e2e9786	0.17049989
53	0x3e7dca51	0.24784209
54	0x3e9714a8	0.29507947
55	0x3e6ca773	0.23110752
56	0x3dfaf94b	0.1225458
57	0x3e3c5185	0.18390472
58	0x3e8ccaf0	0.2749858
59	0x3f17f59a	0.59359133
60	0x3e7f6e29	0.24944367
61	0x3e93f3d8	0.28896976
62	0x3e77902b	0.2417609
63	0x3e75af60	0.23992682

net.8.weight f4 [32, 64]
0	0x3d35d91c	0.044396505
1	0xbb906de5	-0.0044076317
2	0x3da05eca	0.078305796
3	0x3d0c575c	0.034263
4	0x3cc914e3	0.024546092
5	0x3d564b96	0.052318178
6	0x3d89420a	0.06702049
7	0x3daba186	0.083804175
8	0x3c76dfe8	0.015068032
9	0xbdbb08ef	-0.09132563
10	0xbd8c70b5	-0.06857435
11	0xbd332367	-0.043734934
12	0x3d72e0dd	0.059296478
13	0xbcf1287c	-0.02943825
14	0xbd05bc5d	-0.03265034
15	0x3c56f613	0.013120192
16	0x3c8b4bf4	0.01700399
17	0x3d723a34	0.059137538
18	0x3da3b716	0.07993905
19	0xbd4e52db	-0.050371986
20	0xbcb29ed5	-0.021804253
21	0xbc827b9b	-0.01592808
22	0x3d241b68	0.0400652
23	0xbd8e2255	-0.06940142
24	0xbc5c5f92	-0.01345052
25	0x3d3d871c	0.04627143
26	0x3cc7354d	0.024317408
27	0x3e117dc4	0.14208132
28	0x3d76d6e6	0.060263537
29	0xbc3ca151	-0.01151307
30	0x3decbcac	0.11559424
31	0xbe11c149	-0.14233889
32	0x3c07b43d	0.008282718
33	0x3cdde7db	0.027088096
34	0x3d4b2aaa	0.049601234
35	0x3da230f0	0.0791949
36	0xbd48e6b9	-0.04904816
37	0xbdc014f2	-0.09378995
38	0xbd27aaca	-0.04093436
39	0x3bcd88bb	0.006272403
40	0xbd8146e0	-0.063123465
41	0x3b7886a1	0.0037922042
42	0x3dd4e4b1	0.10395182
43	0x3bb5bbf9	0.0055460897
44	0x3db2dca6	0.087334916
45	0x3db1bca3	0.08678558
46	0xbda7f43f	-0.08200883
47	0x3de3147e	0.11087893
48	0xbbd830f9	-0.006597635
49	0x3e0a7c4a	0.13523975
50	0xbb93684d	-0.0044985176
51	0x3def6931	0.116899855
52	0xbd3c89aa	-0.046029724
53	0xbba676b0	-0.0050800666
54	0xbde3e04f	-0.11126768
55	0xbd344455	-0.04401048
56	0x3bca50f1	0.0061741997
57	0x3e208bc3	0.15678315
58	0xbd5f0ffe	-0.05445861
59	0x3cfad5a9	0.03061946
60	0x3d5ae71b	0.053443056
61	0x3d805d76	0.06267826
62	0x3c702eb3	0.014659571
63	0xbbe674eb	-0.0070329807
64	0xbdb8fa2f	-0.09032094
65	0xbd2d62d1	-0.042330567
66	0xbd384a89	-0.044992957
67	0x3da1e934	0.07905808
68	0x3d93e073	0.07220545
69	0x3d3d7f92	0.04626424
70	0xbce34ee7	-0.027747585
71	0x3d3887b9	0.04505131
72	0x3e1ec2e9	0.1550404
73	0xbdce51c5	-0.1007419
74	0x3d5c278b	0.05374865
75	0x3b6a441c	0.0035746163
76	0xbde9cf6a	-0.11416514
77	0x3db085a6	0.086192414
78	0xbb847cb3	-0.0040431856
79	0x3c0664c5	0.008202736
80	0x3dbeae82	0.093106285
81	0xbdcf6c11	-0.10128034
82	0xbde3fb2e	-0.11131893
83	0xbe22dce7	-0.1590458
84	0xbda9725f	-0.08273768
85	0xbc69944a	-0.014256546
86	0xbdb48df6	-0.088161394
87	0xbdf623ae	-0.12018524
88	0x3c441403	0.011967662
89	0xb62c26c5	-2.5652564e-06
90	0xbddb7a1a	-0.107166484
91	0xbde253ff	-0.11051177
92	0x3dd35a35	0.1031994
93	0xbdd8c4c2	-0.105844036
94	0x3df08f8f	0.11746132
95	0x3d940605	0.07227711
96	0x3d7d2c1f	0.061809655
97	0xbd92077a	-0.07130332
98	0x3d835c80	0.06414127
99	0x3dad4df5	0.08462135
100	0x3d3ab703	0.04558469
101	0x3cbdc256	0.023163956
102	0xbdde29ab	-0.10847791
103	0x3d89ae77	0.0672273
104	0x3d900f9a	0.07034226
105	0x3c55e05c	0.01305398
106	0xbc30ab9e	-0.010783104
107	0xbd5f104c	-0.0544589
108	0xbc831381	-0.016000511
109	0xbdba9da1	-0.091120966
110	0xbc1545dc	-0.009110894
111	0xbccb5efe	-0.02482557
112	0x3dc23b76	0.094839975
113	0xbc9c5857	-0.019085092
114	0xbdaf7b3c	-0.08568427
115	0xbdb98764	-0.09059027
116	0xbc7e996a	-0.015539506
117	0x3c7731ff	0.015087604
118	0x3d9e0f56	0.07717769
119	0xbbbca906	-0.005757454
120	0xbe2f3b81	-0.17112543
121	0x3d6f0f00	0.058363914
122	0xbbc32a72	-0.0059559876
123	0xbdbb546a	-0.0914696
124	0x3d0a0fb7	0.033706393
125	0xbc189e8f	-0.009315147
126	0x3c692b04	0.014231447
127	0xbd059abe	-0.032618277
128	0xbd7ed525	-0.06221499
129	0x3de818e9	0.11332876
130	0xbbc2175b	-0.0059231943
131	0xbdaecd6a	-0.085352734
132	0xbc35610c	-0.011070501
133	0xbdbebf3a	-0.09313817
134	0x3e0e037f	0.13868521
135	0x3d4f69d8	0.05063805
136	0xbd48c1dd	-0.049013007
137	0xbbfd3794	-0.0077275727
138	0x3c7f3cda	0.015578473
139	0xbdd96dea	-0.106166676
140	0x3daa8f8d	0.083281614
141	0x3d6ecf95	0.058303434
142	0xbdc3a0b3	-0.09552135
143	0xbd62c0ca	-0.05535964
144	0xbdc96355	-0.09833399
145	0x3d18af7b	0.037276726
146	0xb731f7ee	-1.0607748e-05
147	0xbd69a364	-0.057040587
148	0x3d0c61c6	0.03427293
149	0xbca12073	-0.019668793
150	0xbddcdb18	-0.10783976
151	0x3c91526d	0.017739499
152	0xbd56c27e	-0.052431576
153	0xbd978eb8	-0.07400268
154	0xbcf7bc3c	-0.030241124
155	0x3e0ef149	0.1395923
156	0x3d9d4bd1	0.076804765
157	0x3b015580	0.00197348
158	0xbbc2cdff	-0.005944967
159	0x3dc60a0d	0.09669886
160	0x3ceb1e46	0.028700959
161	0x3d092f13	0.03349216
162	0x3e080119	0.13281669
163	0x3dd6681e	0.104690775
164	0x3de3f83e	0.11131333
165	0xbdc262ce	-0.09491502
166	0x3da5decf	0.08099138
167	0xbd2664b1	-0.04062337
168	0x3c059add	0.008154598
169	0x3c3c7e2a	0.011504689
170	0x3d327ec9	0.043577943
171	0xbd9a4887	-0.07533365
172	0xbc94ce0b	-0.018164655
173	0xbd1fcc59	-0.03901324
174	0xbe156cba	-0.14592257
175	0xbe2e602e	-0.17028877
176	0x3d889acd	0.06670151
177	0x3d669c52	0.056301422
178	0xbd9c843b	-0.076424085
179	0xbd91a1c9	-0.07110936
180	0x3d93c93f	0.07216119
181	0x3d59f4b2	0.053211875
182	0xbbd824ff	-0.006596207
183	0xbdd286b3	-0.10279598
184	0x3d831e15	0.06402222
185	0xbe0158ac	-0.12631482
186	0xbdb9563d	-0.09049652
187	0x3d6adecb	0.05734138
188	0xbda5ca89	-0.08095271
189	0xbdf3b38b	-0.118994795
190	0x3d907302	0.07053186
191	0xbc3b3abc	-0.011427578
192	0xbd8ca05d	-0.06866524
193	0x3db57550	0.08860266
194	0xbe6d5cdd	-0.23179956
195	0x3c588ff7	0.013217918
196	0xbe042189	-0.12903418
197	0xbdcfd4a8	-0.10147983
198	0xbdb1eeb0	-0.08688104
199	0x3d8775e3	0.06614282
200	0xbd0f4f8f	-0.034987982
201	0xbd4d57aa	-0.05013243
202	0xbe43d36a	-0.19123617
203	0xbcd1d1af	-0.02561268
204	0x3dae9cd8	0.08526009
205	0x3d4f6fe5	0.05064382
206	0x3dc27a21	0.094959505
207	0x3dac0a29	0.084003754
208	0xbd77cf70	-0.060500562
209	0x3ddd02ec	0.10791573
210	0x39ab2e4c	0.00032650155
211	0x3e00e358	0.12586725
212	0x3dabbf53	0.083861016
213	0x3c19a823	0.009378466
214	0x3dae411f	0.085085146
215	0x3dc022fb	0.09381672
216	0xbc0ccf4e	-0.008594347
217	0x3da60dcd	0.08108101
218	0x3d84bcaf	0.06481301
219	0x3cd71f03	0.026259905
220	0x3dbf5f31	0.09344328
221	0x3da271aa	0.07931836
222	0xbe007df1	-0.12548043
223	0xbc01b83c	-0.00791746
224	0xbc9c0b7d	-0.019048447
225	0xbc476e57	-0.012172303
226	0xbd6cb5cb	-0.05779056
227	0xbdd04317	-0.10169046
228	0xbdfe6985	-0.1242247
229	0xbdd77aae	-0.10521446
230	0xbcaa754c	-0.020807885
231	0x3d3a45d2	0.045476742
232	0x3d99a49f	0.07502102
233	0xbcd290e4	-0.025703855
234	0xbda486b0	-0.08033502
235	0xbd97240f	-0.073799245
236	0xbca3b82f	-0.019985287
237	0xbc5398b4	-0.012914825
238	0xbd8db0c0	-0.06918478
239	0x3d9c7e8a	0.07641323
240	0x3c87f71f	0.016597329
241	0x3d4e467d	0.05036019
242	0x3b8e3727	0.0043400708
243	0x3de26967	0.1105526
244	0xbcfbd610	-0.030741721
245	0x3c1654c7	0.009175486
246	0x3c5f0a3b	0.013613279
247	0x3d1bc9a6	0.038034104
248	0x3dcf5a8e	0.10124694
249	0x3b66bbcf	0.0035207157
250	0xbd1e69d9	-0.038675163
251	0x3cd52a9b	0.026021292
252	0x3ccfd6c9	0.025370972
253	0xbd741138	-0.059586734
254	0x3d847812	0.06468214
255	0xbd492311	-0.049105708

net.8.bias f4 [32]
0	0x3d2143aa	0.03937117
1	0xbde990d6	-0.114045784
2	0x3e0fc680	0.14040565
3	0x3e07a593	0.13246755
4	0x3d7a9c17	0.061184015
5	0x3df2f92f	0.11863934
6	0x3e893723	0.26799878
7	0x3c2b06bd	0.010438618
8	0x3d572218	0.05252275
9	0x3e0bfbca	0.13670269
10	0xbd05ccf9	-0.03266618
11	0xbcfa7d09	-0.0305772
12	0x3cc16c78	0.023611292
13	0xbce3ce22	-0.027808253
14	0x3e00dc1d	0.12583967
15	0x3c68ef17	0.01421716
16	0x3df996d5	0.12186972
17	0xbd2a667e	-0.04160165
18	0x3dbf60de	0.09344648
19	0x3d021317	0.031756487
20	0x3e461dad	0.19347258
21	0x3e4fc508	0.20290005
22	0x3dd44408	0.103645384
23	0xbe1399f3	-0.14414196
24	0xbd554e5e	-0.05207669
25	0x3d18934a	0.03724984
26	0x3bd8d7ef	0.006617538
27	0xbd8c0956	-0.06837718
28	0x3e19fc20	0.15037584
29	0x3e39f97d	0.18161578
30	0xbdd82726	-0.10554342
31	0xbdbfbde4	-0.09362391

net.10.weight f4 [32]
0	0x3e98f742	0.29876143
1	0x3eb374ea	0.35050136
2	0x3ec27c5f	0.37985513
3	0x3ec06972	0.37580448
4	0x3ebf9a9d	0.37422648
5	0x3ec70ff0	0.38879347
6	0x3ec8a44d	0.39187852
7	0x3e973d80	0.29539108
8	0x3e903224	0.28163254
9	0x3eb3a18b	0.35084185
10	0x3ec0c214	0.3764807
11	0x3e9a4f59	0.30138662
12	0x3ead5fff	0.33862302
13	0x3ebfb421	0.37442115
14	0x3ea99d15	0.33127657
15	0x3ea2a907	0.31769583
16	0x3ec03a66	0.37544554
17	0x3ec1c4a8	0.3784535
18	0x3ebaf191	0.36512426
19	0x3ebaa61a	0.3645485
20	0x3ed0c88d	0.40778008
21	0x3eaa5485	0.33267608
22	0x3eab81fa	0.33497602
23	0x3eb70657	0.35747024
24	0x3e97e97a	0.29670316
25	0x3eb7e8b1	0.35919717
26	0x3e8ead7d	0.27866736
27	0x3ebbd532	0.36686093
28	0x3ea8433c	0.32863796
29	0x3eda38cb	0.42621455
30	0x3ea6ef2c	0.3260435
31	0x3eb41b71	0.35177186

net.10.bias f4 [32]
0	0x3f14bd83	0.5810167
1	0xbf19f905	-0.601456
2	0x3f1c6688	0.6109395
3	0xbf0fc5ed	-0.56161386
4	0x3f0d503b	0.55200547
5	0xbf1f7dd4	-0.62301373
6	0x3f20e440	0.6284828
7	0xbf0c6944	-0.5484812
8	0x3f2eafca	0.6823698
9	0xbf26a98e	-0.6510247
10	0xbf0e9664	-0.5569823
11	0xbf0eb936	-0.5575136
12	0xbf2011df	-0.6252727
13	0x3f0e6a07	0.55630535
14	0xbf1fc60b	-0.62411565
15	0x3f2d3227	0.6765465
16	0x3f0a7bb3	0.54095
17	0x3f0e5f19	0.5561386
18	0x3f037546	0.5135082
19	0x3f0735be	0.5281638
20	0x3f261a81	0.6488419
21	0x3f2c3aca	0.67277205
22	0x3f0761ad	0.52883416
23	0xbf19898d	-0.5997551
24	0xbf38bd7e	-0.7216414
25	0xbf28e3ec	-0.6597278
26	0x3f2766d9	0.6539131
27	0x3f21e963	0.63246745
28	0xbf1e047c	-0.6172559
29	0x3f1bb963	0.6082975
30	0x3f28b96c	0.6590793
31	0xbf34bf19	-0.7060409

net.10.running_mean f4 [32]
0	0x3e9d9733	0.30779418
1	0x3e9a08c4	0.30084813
2	0x3ef8631d	0.48513117
3	0x3f17acfc	0.5924833
4	0x3eb5baf8	0.35494208
5	0x3f0cd757	0.5501608
6	0x3f12fd3f	0.5741767
7	0x3e895596	0.2682311
8	0x3ec30a69	0.3809388
9	0x3ee35ddb	0.44407544
10	0x3f085c71	0.53266054
11	0x3ec8d498	0.39224696
12	0x3ed386df	0.41313836
13	0x3eb20927	0.34772608
14	0x3ed9da27	0.4254925
15	0x3ea04653	0.31303653
16	0x3eebc289	0.46046856
17	0x3ea82f58	0.3284862
18	0x3eefab8b	0.46810564
19	0x3ec7f85f	0.3905668
20	0x3f068fc0	0.52563095
21	0x3f177353	0.59160346
22	0x3ed26821	0.4109507
23	0x3ea8235b	0.32839474
24	0x3edd1b82	0.4318505
25	0x3f01c7fb	0.5069577
26	0x3e9f11b0	0.31068182
27	0x3eae3784	0.3402673
28	0x3ed9a009	0.4250491
29	0x3f0147b4	0.50500035
30	0x3e779a8a	0.24180046
31	0x3e8cad19	0.27475813

net.10.running_var f4 [32]
0	0x3e8a61b6	0.27027673
1	0x3e58b0c4	0.2116118
2	0x3ec8dcba	0.392309
3	0x3eedd1c3	0.46449098
4	0x3e9e22e9	0.3088601
5	0x3f0d9bf2	0.5531608
6	0x3f1a73fe	0.6033324
7	0x3e1b3966	0.15158615
8	0x3e94994e	0.29023212
9	0x3ec6fb71	0.3886371
10	0x3f32061b	0.69540566
11	0x3ea575b2	0.32316357
12	0x3ebc40ec	0.3676828
13	0x3e70de3b	0.23522274
14	0x3e5975d4	0.21236354
15	0x3e52e03a	0.20593348
16	0x3ee885f4	0.45414698
17	0x3e7d0463	0.24708705
18	0x3ef46b57	0.47738144
19	0x3eca1391	0.39468053
20	0x3f04c673	0.5186531
21	0x3efa2699	0.48857573
22	0x3eab1738	0.33416152
23	0x3e8b020e	0.27150005
24	0x3ecd6445	0.40115562
25	0x3f19d246	0.60086477
26	0x3e5613e2	0.20906022
27	0x3eabb79c	0.3353852
28	0x3e9177aa	0.2841161
29	0x3f1125ef	0.5669851
30	0x3e6fd7e4	0.234222
31	0x3ea12eb7	0.31480953

net.12.weight f4 [1, 32]
0	0x3e54e13e	0.20789048
1	0xbe3997bc	-0.18124288
2	0x3e58e635	0.21181567
3	0xbe68d9c4	-0.22739321
4	0x3e68039d	0.22657628
5	0xbe4b50d3	-0.1985505
6	0x3e470e19	0.19438972
7	0xbe2f045f	-0.17091511
8	0x3e499b47	0.1968814
9	0xbe3d4893	-0.18484716
10	0xbe55ea00	-0.20890045
11	0xbe38abdb	-0.18034308
12	0xbe311f15	-0.17297013
13	0x3e69e815	0.22842439
14	0xbe3e2d7d	-0.1857204
15	0x3e4d14d2	0.20027474
16	0x3e5311c2	0.20612243
17	0x3e55cd0b	0.20878999
18	0x3e60a840	0.21939182
19	0x3e5cd94c	0.21567267
20	0x3e446b74	0.19181615
21	0x3e4e5ba0	0.2015214
22	0x3e64726a	0.2230927
23	0xbe3257e7	-0.17416345
24	0xbe2b1353	-0.1670659
25	0xbe4a4724	-0.197537
26	0x3e4f03e9	0.20216335
27	0x3e3c3eaa	0.1838328
28	0xbe5213bd	-0.20515342
29	0x3e4e6175	0.20154364
30	0x3e4a4d9a	0.19756165
31	0xbe201c03	-0.15635686
